deeplearning_tasks/models/bci/20150801_Net_noise_0.0_best_trans_model_window_30_step_6_trans_nodecay.pth (torch, 362029 bytes, 60 tensors)

mlp_in.0.weight f4 [512, 96]
-0.034040134 0.07640762 0.028368372 -0.01706825 0.009827157 0.029753089 0.026857246 0.0017547171
0.13408342 0.113407925 0.0016939639 0.03697761 -0.014038136 -0.13371442 0.11614047 -0.019035034
-0.028140074 0.06775273 0.00086225045 0.0015505089 -0.005122121 0.1731991 -0.029915966 0.062415663
-0.090101555 -0.06516811 -0.016757965 -0.070560165 0.07792231 -0.109563604 0.037339322 0.04911525
-0.03173519 0.012730599 -0.07048684 0.03936977 0.0034789443 0.007374448 0.12773046 -0.025304567
-0.0012929336 -0.008067936 0.12392676 -0.058799572 0.118232615 -0.0737357 -0.0024393024 -0.06790033
-0.10287453 0.22004472 -0.059600472 0.07860471 0.067246445 0.02348764 -0.019725105 -0.015311145
0.068451256 0.05793772 0.01950615 -0.061094534 0.0022579476 -0.024634289 0.031683404 -0.028875075
-0.053676598 -1.3670786e-29 -2.300139e-29 -0.07861845 -0.011586848 -0.0056547243 0.07597347 -0.078771725
-0.09775785 -0.06749003 -0.10164898 0.11008281 -0.05889648 0.15398782 -0.030398693 0.047766276
-0.041319348 -0.046839375 0.15343145 -0.090650775 0.16708201 -0.08626507 -0.10781278 0.053427387
-0.019230612 -0.012373037 0.10638376 0.11222747 -0.05822653 -0.004415658 0.064723015 3.575595e-30
0.04227893 -0.04949228 -0.07460473 0.022996739 -0.006436386 -0.051399577 -0.002105684 -0.014728239
-0.046282183 -0.002910525 -0.0074857483 0.023894558 -0.0058772955 0.007884465 -0.012865449 -0.07248234
-0.009542659 -0.056933552 -0.087828405 -0.031277053 5.3097923e-05 -0.0197058 -0.034722175 0.013762337
-0.010442751 -0.085492335 -0.058115043 -0.018708311 -0.006924475 0.072082706 0.03167731 -0.029216295
-0.04999773 0.0034675468 -0.017749032 -0.012354404 -0.00052159274 0.020684583 -0.049028132 -0.036187023
0.07543016 -0.043228377 -0.040400185 -0.09917241 0.104552545 -0.10663061 -0.033772077 -0.0059722983
0.051987506 -0.038510952 -0.03741467 -0.040445734 0.025687205 -0.014998847 0.013331613 -0.022044564
0.05165701 -0.14564553 -0.033808686 0.02163658 0.041788366 0.012725672 0.03426156 -0.043940052
0.044925265 2.655224e-28 1.0363309e-29 -0.011221378 -0.0139342975 -0.011592808 0.060222033 -0.010519022
-0.035596512 -0.020848004 0.11909912 0.15493712 0.015377743 -0.01347755 -0.007909221 0.06916798
-0.0056294347 0.13652205 0.026425641 0.05089615 -0.048561342 -0.01381705 0.052551918 0.035518937
0.051893994 -0.0048063663 -0.013219412 0.000117564676 -0.012702589 0.03866451 0.053223874 2.1000215e-28
-0.028941395 -0.026670158 0.05418447 -0.037601437 0.0037247676 -0.05920202 -0.0071958005 -0.03964881
0.057283424 -0.016210523 0.026421553 0.012126672 -0.00019545118 0.02008667 -0.015840124 0.037125062
0.08910209 0.041508347 0.0067710183 -0.026501415 0.02277594 0.04868417 -0.00543759 -0.029777208
0.093713485 0.1303282 -0.023946095 0.090528294 0.020269481 -0.046386376 0.032786537 0.07288157
0.08527137 -0.015045621 0.07360511 0.00071307714 -0.0060425396 -0.0043520387 -0.005749515 0.042277113
-0.062978365 0.00028652648 -0.028929515 -0.032754403 -0.12870929 0.006225056 0.06265704 0.003856359
0.049687136 0.005861374 0.01409122 0.015376737 -0.06846912 0.0057065343 0.009047977 0.044650335
-0.04344467 0.07134874 -0.022705024 -0.0042829923 0.010993784 -0.059731927 0.037089694 0.07774959
00000000: ab6d 0bbd 997b 9c3d ca64 e83c b7d2 8bbc
00000010: 1502 213c c0bc f33c ba03 dc3c 89fe e53a
00000020: 2a4d 093e 6a42 e83d ff07 de3a d675 173d
00000030: 3600 66bc 6fec 08be 0edb ed3d 5cef 9bbc
00000040: 0386 e6bc f1c1 8a3d a608 623a 723a cb3a
00000050: 77d7 a7bb 1b5b 313e 5412 f5bc 91a7 7f3d
00000060: 2a87 b8bd dc76 85bd 0048 89bc d981 90bd
00000070: bb95 9f3d e262 e0bd 1ef1 183d 132d 493d
00000080: c2fc 01bd 0194 503c 685b 90bd 3242 213d
00000090: 00ff 633b 5aa5 f13b c6cb 023e 864b cfbc
000000a0: a777 a9ba 602f 04bc 50cd fd3d d2d7 70bd
000000b0: f123 f23d be02 97bd b4dc 1fbb 540f 8bbd
000000c0: e2af d2bd 6753 613e a01f 74bd 82fb a03d
000000d0: 81b8 893d 2769 c03c 8b96 a1bc 99db 7abc
000000e0: 2c30 8c3d 1a50 6d3d 5dcb 9f3c 433e 7abd
000000f0: 13fa 133b d9cd c9bc 75c6 013d 6c8b ecbc
00000100: fedb 5bbd 64a3 8a8f 0643 e98f b602 a1bd
00000110: c3d6 3dbc 444b b9bb fb97 9b3d 1253 a1bd
00000120: 4535 c8bd 3638 8abd 572d d0bd 1973 e13d
00000130: 6f3d 71bd fcae 1d3e ae06 f9bc 92a6 433d
00000140: 7a3e 29bd a5da 3fbd 221d 1d3e 1da7 b9bd
00000150: 8c17 2b3e beab b0bd f2cc dcbd add6 5a3d
00000160: 8489 9dbc 47b8 4abc bbdf d93d 84d7 e53d
00000170: f17e 6ebd 39b1 90bb 808d 843d 1a0b 910e
00000180: ac2c 2d3d 6bb8 4abd 5dca 98bd a863 bc3c
00000190: 52e8 d2bb 5d88 52bd 84ff 09bb b64e 71bc
000001a0: 6392 3dbd 82be 3ebb 024b f5bb 85be c33c
000001b0: 5496 c0bb d82d 013c 9bc9 52bc 9f71 94bd
000001c0: d058 1cbc 2833 69bd 61df b3bd 5e1c 00bd
000001d0: 76b5 5e38 0f6e a1bc d738 0ebd 6d7b 613c
000001e0: 1318 2bbc 9b16 afbd 0a0a 6ebd 2c42 99bc
000001f0: b5e6 e2bb 19a0 933d 11c0 013d 0357 efbc
00000200: 6bca 4cbd c83f 633b 6b66 91bc 206a 4abc
00000210: 7fbb 08ba b772 a93c b9d1 48bd d838 14bd
00000220: 217b 9a3d 3d10 31bd aa7a 25bd e81a cbbd
00000230: a51f d63d 2661 dabd 9754 0abd 45b3 c3bb
00000240: daf0 543d a9bd 1dbd 2040 19bd 6daa 25bd
00000250: f96d d23c b9bd 75bc d66c 5a3c cd96 b4bc
00000260: 4d96 533d 1a24 15be fa7a 0abd 323f b13c
00000270: 472a 2b3d 567f 503c d955 0c3d 7cfa 33bd
00000280: 8e03 383d 794b a811 6031 520f dfd9 37bc
00000290: ae4c 64bc c3ef 3dbc 61ab 763d fa57 2cbc
000002a0: a6cd 11bd 6fc9 aabc 3dea f33d d6a7 1e3e
000002b0: eef2 7b3c f1d0 5cbc ad95 01bc f1a7 8d3d
000002c0: 1f77 b8bb 70cc 0b3e 967a d83c 7b78 503d
000002d0: 42e8 46bd e860 62bc ae40 573d 4e7c 113d
000002e0: cc8e 543d b97e 9dbb 3c96 58bc 0e8d f638
000002f0: 851e 50bc ad5e 1e3d 4701 5a3d cc1a 8511
00000300: 8116 edbc 607b dabc 89f0 5d3d f703 1abd
00000310: 3b1b 743b d17d 72bd c0ca ebbb ca66 22bd
00000320: 06a2 6a3d eecb 84bc 0372 d83c f3ae 463c
00000330: 07f2 4cb9 cd8c a43c 26c3 81bc 7310 183d
00000340: 287b b63d a804 2a3d 6bdf dd3b 7f19 d9bc
00000350: 9c94 ba3c 0d69 473d d02d b2bb 55ef f3bc
00000360: dbec bf3d c174 053e 9a2a c4bc e666 b93d
00000370: 2f0c a63c a4ff 3dbd 2d4b 063d ef42 953d
00000380: c2a2 ae3d e981 76bc 47be 963d cced 3a3a
00000390: 7f00 c6bb 8c9b 8ebb 6d66 bcbb c42a 2d3d
000003a0: cdfa 80bd ef38 9639 97fd ecbc 7b29 06bd
000003b0: 5ecc 03be 8efb cb3b 5652 803d f8ba 7c3b
000003c0: bd84 4b3d c510 c03b dcde 663c b6ee 7b3c
000003d0: 8a39 8cbd e1fd ba3b f73d 143c 45e3 363d
000003e0: 0af3 31bd 4a1f 923d e3ff b9bc 5858 8cbb
000003f0: 461f 343c 77a9 74bd 5deb 173d 2d3b 9f3d

mlp_in.0.bias f4 [512]
0.010168073 0.119854696 0.040243253 -0.022913454 0.08793114 0.22296831 -0.06959283 0.048562285
-0.07511292 -0.104154766 -0.03942847 -0.061580576 0.019646619 0.037199058 -0.02755161 -0.084982365
0.07004151 0.12645562 0.010366114 -0.1556948 -0.008267548 0.0073511098 -0.008314167 -0.12778112
0.100309126 0.05556473 0.056330908 -0.0497983 -0.23337479 0.054052074 -0.021614315 -0.0102187935
-0.06328669 -0.03910916 0.03296748 0.10994678 0.06688917 -0.15862286 0.08309533 -0.105592184
0.13211043 -0.11944593 -0.06697378 0.10341737 0.07906883 0.085767366 0.15866762 0.083397165
0.02261282 -0.053945296 0.12291032 -0.24785951 0.07544097 -0.070808746 -0.09467374 0.16712849
-0.06762584 -0.010582332 0.14786728 -0.022550382 0.17068738 0.0012718709 -0.10919677 0.013827025
-0.064866774 -0.04882767 -0.06017399 -0.089360945 -0.2246685 0.123716906 -0.09761019 -0.11795572
0.0028662218 0.14777824 0.0838385 -0.07744762 0.1669721 -0.09653667 0.028281404 -0.06452972
0.009920195 0.03493689 -0.07417534 0.1324291 0.050903533 -0.003176463 0.117479265 0.06895082
0.042982195 0.11714787 -0.09263444 -0.044056658 0.12507035 -0.052121237 -0.028005494 0.043888155
0.066879794 -0.1292536 0.05981012 -0.0053255474 -0.042722575 -0.22166257 0.09918284 -0.100601695
0.000631743 -0.054114807 -0.07013282 0.07985962 -0.00067093543 0.100209154 -0.087784454 -0.030175699
0.14564647 -0.15526864 0.04464532 0.10888023 -0.047159377 0.091888785 -0.024865892 -0.05620928
0.06592587 -0.0717094 -0.23654751 -0.1694982 -0.04462872 -0.050883975 0.01630252 -0.03496387
-0.067681335 -0.093868986 -0.14511006 -0.015578658 -0.07432525 -0.022909084 0.017996779 -0.06296614
-0.17389236 0.2114483 0.013212796 0.16489437 0.072706014 0.086682096 0.19430621 -0.09449144
0.11559236 -0.11992199 -0.12008991 -0.099641696 0.021506285 0.12581217 0.044447783 0.11081772
0.09546067 0.03251337 -0.0072146426 0.13559403 -0.09874358 -0.24997081 0.072451115 -0.10355668
0.21022265 -0.0690508 0.06229019 0.15802184 0.099922 0.15746139 0.037456054 0.0049423412
0.011968243 0.0873182 0.024027558 0.19965038 0.044924077 0.18168625 0.036474597 0.18219398
0.050381094 -0.01341317 -0.117932014 -0.16734497 -0.06321629 -0.010408008 -0.0944058 -0.039304823
-0.053486824 0.08190073 0.053979486 -0.040678184 -0.047384806 0.016875412 0.15480028 0.052799083
0.0094111 0.12039046 0.15147488 -0.06494843 -0.069996566 0.08390733 -0.06526946 -0.011807361
0.12651286 0.077820085 -0.060880825 0.10965945 0.010717035 0.017379941 -0.0036374107 -0.029297326
0.14674829 -0.0008810156 -0.109144226 -0.23584773 -0.047815986 0.034068886 0.2001499 0.18079877
0.021870175 -0.13817985 0.037978776 -0.08870101 -0.0013979283 0.1022952 -0.08790177 -0.03733348
0.12526369 0.052429955 -0.029328123 0.085387744 0.18474768 0.04140114 0.077954374 0.18150836
0.100889236 0.011630294 -0.097350806 0.16660161 0.107153654 0.1282544 0.20582998 -0.14003965
0.16590151 0.03790073 0.08471678 0.03569741 0.084578775 0.06031939 0.008324583 -0.057502877
0.05016188 -0.0013343624 0.066174686 0.104563035 -0.033496864 0.07536246 -0.05287783 0.107271284
00000000: fd97 263c 6176 f53d 1cd6 243d ffb4 bbbc
00000010: 3e15 b43d ce51 643e b086 8ebd 3fe9 463d
00000020: cdd4 99bd 184f d5bd bf7f 21bd ea3b 7cbd
00000030: f2f1 a03c 0a5e 183d eab3 e1bc 3c0b aebd
00000040: ec71 8f3d 957d 013e a2d6 293c 756e 1fbe
00000050: 9c74 07bc 94e1 f03b 2538 08bc 0ed9 02be
00000060: df6e cd3d d897 633d 3dbb 663d 4df9 4bbd
00000070: cdf9 6ebe b565 5d3d 8110 b1bc ba6c 27bc
00000080: 749c 81bd ed30 20bd e908 073d c72b e13d
00000090: 30fd 883d 086e 22be e22d aa3d b740 d8bd
000000a0: f547 073e 11a0 f4bd 8d29 89bd 7ccc d33d
000000b0: d7ee a13d cda6 af3d c479 223e 22cc aa3d
000000c0: 853e b93c bef5 5cbd 68b8 fb3d e2ce 7dbe
000000d0: cc80 9a3d 2d04 91bd 4ee4 c1bd bb23 2b3e
000000e0: 6b7f 8abd 8461 2dbc 856a 173e 94bb b8bc
000000f0: acc8 2e3e e8b4 a63a 8ea2 dfbd bf8a 623c
00000100: dfd8 84bd 86ff 47bd 0079 76bd df02 b7bd
00000110: 800f 66be 4a5f fd3d dae7 c7bd c592 f1bd
00000120: 39d7 3b3b 2e53 173e 85b3 ab3d dc9c 9ebd
00000130: bcfa 2a3e 05b5 c5bd 67ae e73c 2828 84bd
00000140: 5088 223c fc19 0f3d 3ee9 97bd 7e9b 073e
00000150: 3980 503d 352c 50bb f898 f03d 1636 8d3d
00000160: 190e 303d 39eb ef3d 20b7 bdbd c174 34bd
00000170: 7112 003e 147d 55bd c76b e5bc 11c4 333d
00000180: 46f8 883d 0e5b 04be 75fb 743d ee81 aebb
00000190: defd 2ebd 83fb 62be 5f20 cb3d 4308 cebd
000001a0: 8e9b 253a 7da7 5dbd cca1 8fbd 718d a33d
000001b0: b7e1 2fba 753a cd3d 56c8 b3bd 0733 f7bc
000001c0: 5924 153e befe 1ebe 03de 363d 99fc de3d
000001d0: 312a 41bd 3030 bc3d 8eb3 cbbc b43b 66bd
000001e0: 2404 873d 61dc 92bd 8339 72be f090 2dbe
000001f0: 9bcc 36bd b76b 50bd dd8c 853c 4636 0fbd
00000200: 839c 8abd 623e c0bd bb97 14be a13d 7fbc
00000210: d637 98bd d5ab bbbc fb6d 933c 64f4 80bd
00000220: d710 32be e785 583e 7c7a 583c 12da 283e
00000230: e4e6 943d 6286 b13d 35f8 463e ba84 c1bd
00000240: b0bb ec3d a999 f5bd b3f1 f5bd f210 ccbd
00000250: f32d b03c e8d4 003e e10e 363d 67f4 e23d
00000260: e280 c33d bd2c 053d cf68 ecbb 29d9 0a3e
00000270: 133a cabd 59f8 7fbe 4061 943d 8615 d4bd
00000280: 9b44 573e 816a 8dbd 0024 7f3d 7ad0 213e
00000290: e8a3 cc3d 8f3d 213e 856b 193d 5df3 a13b
000002a0: 7316 443c e2d3 b23d 71d5 c43c 2671 4c3e
000002b0: 4f02 383d f60b 3a3e 6366 153d 0f91 3a3e
000002c0: 685c 4e3d eac2 5bbc 5786 f1bd 7b5c 2bbe
000002d0: 8b77 81bd 5986 2abc d457 c1bd 18fe 20bd
000002e0: 0015 5bbd 92bb a73d 9819 5d3d 2b9e 26bd
000002f0: 9216 42bd 4e3e 8a3c f783 1e3e da43 583d
00000300: 0431 1a3c 468f f63d 3b1c 1b3e af03 85bd
00000310: 5c5a 8fbd 9bd7 ab3d ffab 85bd a973 41bc
00000320: 968c 013e 2360 9f3d 2c5e 79bd 2295 e03d
00000330: 8196 2f3c 6160 8e3c a061 6ebb f200 f0bc
00000340: 2f45 163e f5f3 66ba 0287 dfbd 1182 71be
00000350: b2da 43bd d18b 0b3d 18f4 4c3e 5023 393e
00000360: 1529 b33c 057f 0dbe a28f 1b3d e0a8 b5bd
00000370: b13a b7ba 2580 d13d d805 b4bd feea 18bd
00000380: 2045 003e cbc0 563d 8841 f0bc c5df ae3d
00000390: 7f2e 3d3e 3e94 293d 8ba6 9f3d 54dd 393e
000003a0: 049f ce3d fd8c 3e3c dc5f c7bd 9d99 2a3e
000003b0: 6073 db3d 1f55 033e 18c5 523e 8e66 0fbe
000003c0: 16e2 293e cc3d 1b3d fe7f ad3d 7337 123d
000003d0: a337 ad3d 7711 773d d563 083c 2388 6bbd
000003e0: 8b76 4d3d c6e5 aeba 9886 873d 2525 d63d
000003f0: 0234 09bd a257 9a3d 6c96 58bd 0cb1 db3d

mlp_in.1.weight f4 [16, 512]
0.05993182 0.024993315 -0.056926545 -0.08249611 -0.012155975 0.03880652 0.023508433 0.017162016
-0.07015276 0.00661317 -0.06546779 -0.010858644 0.01169124 0.03792125 -0.00096487073 0.033646524
0.018175319 0.017624326 -0.018242953 -0.0061924104 -0.043915186 0.021010164 -0.03658591 0.041856885
-0.05223353 0.031043602 -0.055465005 -0.024914721 0.10563481 0.033278357 0.025381858 0.028683912
-0.060213014 -0.036570318 0.059826743 0.04971526 0.008472094 0.0057361317 0.081530444 -0.016377108
0.013208281 0.06823254 0.033376414 0.02922233 0.071694285 0.10891657 -0.039097525 -0.0024345776
-0.04168935 0.017085003 0.042361915 0.043406636 -0.14198373 0.030949669 -0.02449306 -0.026714932
0.016408604 0.024873527 0.07103207 0.07714778 -0.009610934 -0.056092978 -0.04327372 -0.009333492
-0.035252552 0.013433538 0.028333284 0.010474339 0.0666805 0.008815195 0.021179728 -0.01266261
0.015018282 0.14208712 -0.029384525 0.037699074 -0.00077032537 0.04546293 -0.031041048 0.0020064933
0.046551667 0.038378213 0.011352812 -0.043548927 -0.011964198 0.08400319 -0.020308316 -0.049591925
0.013270943 0.0105894 -0.017732732 -0.018849663 -0.01692766 0.043276947 -0.035288215 0.010774856
0.063345775 0.13088097 -0.06528882 0.05250216 -0.039090984 0.0051908973 -0.030673392 -0.03211886
-0.0049474873 -0.028944666 0.025539096 -0.021068225 -0.025425853 -0.0077156234 0.061978042 0.046463978
0.039688773 0.016959742 -0.042419277 0.012551451 -0.017933572 0.009051105 0.009885642 -0.030717412
0.045805402 0.016936623 0.004760206 0.02187365 0.023378292 0.014972938 -0.023601232 0.006232414
-0.0448619 -0.03219261 0.029923946 -0.005565855 -0.0007656945 0.0017110193 -0.006891035 -0.032550167
0.08945572 0.07836754 0.06373083 -0.021238362 -0.037940264 -0.0084811915 0.057540555 0.004791348
-0.027604438 0.011415991 0.0009878116 -0.03106937 -0.051404458 -0.019788953 0.07216844 0.032647364
0.036375992 -0.09784254 -0.0053930767 0.05803625 0.016318165 -0.089028455 0.038226217 -0.015079582
0.09149787 -0.025330957 -0.0135448165 -0.037895028 0.0073649124 0.0040023136 -0.035542157 0.03094607
-0.03566711 -0.0014911367 -0.0013114604 -0.013770446 -0.045901537 -0.02298006 0.045003284 -0.031081056
0.051388483 -0.026685923 0.012122551 -0.06198138 -0.0565243 -0.051088475 0.049614027 0.01712642
0.047042456 -0.018235432 0.0030601206 -0.018246783 0.040011957 0.012905466 0.004475752 0.0011966663
0.001202448 0.03368922 -0.0001076185 -0.05761663 0.009566234 0.0013767177 -0.015330916 -0.040852293
-0.01763485 -0.03986256 0.01645723 -0.02093385 -0.026891798 -0.042241093 0.09167585 0.0051533654
-0.025440425 0.008721171 0.0010385549 -0.026138326 0.05571247 -0.0258047 0.03511218 -0.027169416
-0.050737005 -0.03409304 0.026657505 0.019651785 0.008781278 0.036523137 -0.00905355 0.054551452
0.06763448 0.036793236 -0.0029073386 -0.024745082 -0.043858465 -0.03278735 -0.017179146 0.09994449
-0.03909667 0.035347715 0.0384713 0.045909807 0.036418226 0.026435077 -0.025994789 -0.026948694
0.025741812 -0.039525915 0.08583751 -0.02283232 0.018779492 0.008907228 0.026241617 0.0025174099
0.020902384 -0.022554245 -0.05358405 0.026924273 0.04366872 0.0029085942 -0.033330068 0.035691038
00000000: 117b 753d c8be cc3c cf2b 69bd b8f3 a8bd
00000010: db29 47bc 96f3 1e3d c294 c03c 5b97 8c3c
00000020: 40ac 8fbd 4ab3 d83b fa13 86bd 74e8 31bc
00000030: 9d8c 3f3c 5053 1b3d 61ef 7cba f0d0 093d
00000040: 68e4 943c e460 903c 3f72 95bc b4e9 cabb
00000050: 69e0 33bd 821d ac3c 1bdb 15bd 2072 2b3d
00000060: d3f2 55bd 274f fe3c 462f 63bd f519 ccbc
00000070: 1057 d83d e34e 083d 9ded cf3c 86fa ea3c
00000080: eca1 76bd c2ca 15bd e30c 753d 3aa2 4b3d
00000090: 8ace 0a3c 29f6 bb3b 6ff9 a63d 4929 86bc
000000a0: 8c67 583c 80bd 8b3d b5b5 083d ab63 ef3c
000000b0: 74d4 923d a70f df3d ba24 20bd 6f8d 1fbb
000000c0: 74c2 2abd d9f5 8b3c b083 2d3d 28cb 313d
000000d0: 2f64 11be 298a fd3c aba5 c8bc 46d9 dabc
000000e0: 566b 863c 91c3 cb3c 4379 913d a8ff 9d3d
000000f0: 2e77 1dbc c0c1 65bd c93f 31bd 81eb 18bc
00000100: fb64 10bd 5818 5c3c 341b e83c 909c 2b3c
00000110: c98f 883d 9c6d 103c 1c81 ad3c d676 4fbc
00000120: 3e0f 763c 497f 113e d1b7 f0bc 586a 1a3d
00000130: a9ef 49ba 5637 3a3d cc49 febc 5f7f 033b
00000140: f6ac 3e3d 7932 1d3d 2501 3a3c 5c60 32bd
00000150: 7c05 44bc dd09 ac3d a05d a6bc e720 4bbd
00000160: 5f6e 593c 2a7f 2d3c 3c44 91bc 9c6a 9abc
00000170: e0ab 8abc 2b43 313d 608a 10bd 0689 303c
00000180: 6ebb 813d a905 063e 25b6 85bd 810c 573d
00000190: de1d 20bd 6718 aa3b c446 fbbc 118f 03bd
000001a0: 881e a2bb 5d1d edbc 5e37 d13c 4597 acbc
000001b0: e149 d0bc 57d3 fcbb b0dc 7d3d 0351 3e3d
000001c0: b290 223d 28ef 8a3c d6bf 2dbd 9aa4 4d3c
000001d0: 6de9 92bc 164b 143c 63f7 213c 15a3 fbbc
000001e0: 729e 3b3d acbe 8a3c 81fb 9b3b 5e30 b33c
000001f0: d583 bf3c 0e51 753c 5f57 c1bc 4739 cc3b
00000200: 1dc1 37bd 66dc 03bd 1023 f53c c761 b6bb
00000210: e3b8 48ba 4844 e03a 31ce e1bb 5353 05bd
00000220: 8f34 b73d 297f a03d 4f85 823d 13fc adbc
00000230: 4067 1bbd b2f4 0abc a5af 6b3d bd00 9d3b
00000240: b422 e2bc 230a 3b3c 7579 813a 3185 febc
00000250: 7b8d 52bd 711c a2bc 0ccd 933d 3eb9 053d
00000260: fefe 143d ab61 c8bd 68b8 b0bb 6bb7 6d3d
00000270: acad 853c 8d54 b6bd 1893 1c3d 5a10 77bc
00000280: 3c63 bb3d de82 cfbc 14eb 5dbc d137 1bbd
00000290: 5d55 f13b d725 833b a794 11bd 9d82 fd3c
000002a0: ad17 12bd 3f72 c3ba 4fe5 abba 709d 61bc
000002b0: 4003 3cbd ae40 bcbc 5d55 383d b39d febc
000002c0: bb7c 523d 709c dabc aa9d 463c 30e0 7dbd
000002d0: 0686 67bd 2642 51bd 1438 4b3d b54c 8c3c
000002e0: 97af 403d 7962 95bc 4e8c 483b 477a 95bc
000002f0: 94e3 233d 7371 533c 54a9 923b 75d9 9c3a
00000300: 769b 9d3a b5fd 093d 3eb1 e1b8 6aff 6bbd
00000310: b2bb 1c3c fb72 b43a 862e 7bbc bc54 27bd
00000320: f676 90bc ec46 23bd 50d1 863c 777d abbc
00000330: 304c dcbc ff04 2dbd 8cc0 bb3d 90dd a83b
00000340: 7068 d0bc 3ee3 0e3c 1f20 883a 0b20 d6bc
00000350: c232 643d 6164 d3bc cad1 0f3d 6592 debc
00000360: 9bd1 4fbd 25a5 0bbd d760 da3c c8fc a03c
00000370: 59df 0f3c 4999 153d 5755 14bc 5871 5f3d
00000380: f283 8a3d 81b4 163d 0c89 3ebb 33b6 cabc
00000390: efa4 33bd 074c 06bd 48bb 8cbc b2af cc3d
000003a0: d423 20bd c4c8 103d 1594 1d3d ec0b 3c3d
000003b0: 472b 153d 608e d83c 06f3 d4bc 82c3 dcbc
000003c0: 7ee0 d23c ede5 21bd 94cb af3d d80a bbbc
000003d0: 73d7 993c 9fef 113c a9f8 d63c 21fb 243b
000003e0: 7a3b ab3c aec3 b8bc f37a 5bbd 4b90 dc3c
000003f0: f9dd 323d 1d9e 3e3b 1c85 08bd c430 123d

mlp_in.1.bias f4 [16]
0.04359059 -0.11373781 0.16786544 -0.048845887 -0.013998009 -0.017943261 0.014139865 0.08113227
-0.029578483 -0.113840766 0.034791213 -0.19979197 -0.09046713 0.016077051 -0.088188864 -0.031822167
00000000: 0c8c 323d 5eef e8bd ebe4 2b3e a012 48bd
00000010: e857 65bc bffd 92bc e4aa 673c ad28 a63d
00000020: 934e f2bc 5925 e9bd 3b81 0e3d 4496 4cbe
00000030: d546 b9bd 05b4 833c 5d9c b4bd f657 02bd

model.project_0.weight f4 [256, 16]
0.011668745 -0.10176056 0.20133464 -0.16774864 -0.023783773 -0.018696425 0.100311615 -0.14821963
-0.1162188 0.035449367 0.13118224 -0.019035188 0.04527766 0.004121171 0.13585424 0.19347808
-0.07236884 -0.1263386 -0.21855119 -0.07787993 0.03266647 0.14869702 0.25165728 0.08948412
0.026701631 -0.079118684 0.06371613 0.116579264 0.058800012 0.108151205 0.0908613 0.08677508
0.03467911 -0.00019753848 0.13996953 -0.15169396 0.107401446 -0.21418217 0.2811207 -0.10875758
-0.095415056 0.014112395 -0.08132777 -0.052124437 -0.02279485 0.016087884 -0.030123305 -0.06484451
-0.08375984 0.06342586 -0.09492974 0.06459678 -0.027982706 -0.15103802 -0.06663741 -0.20704742
0.109115526 -0.15724199 0.011683636 0.16506813 0.13879167 0.04019734 0.18754327 -0.019119393
0.11006716 0.08756424 -0.17194656 -0.20820032 -0.008394955 0.14696468 -0.07155396 -0.07599253
-0.089719385 0.022174506 0.0007922851 -0.1116055 -0.16374396 0.095301695 0.15038738 -0.042724304
0.12225755 0.16439214 -0.13943549 0.005773553 0.24134913 -0.04049572 0.05800119 0.121980004
-0.0780732 -0.14546366 0.08891028 -0.120867565 -0.1977327 -0.0027215234 0.074131794 -0.25950477
0.122255825 -0.16430002 0.0021191034 -0.05138885 -0.030864144 -0.1426419 0.19101016 0.1561211
-0.20400715 -0.1763231 0.012948404 0.10566756 -0.04717421 0.25765082 0.05394068 -0.14826964
-0.059880655 -0.040737152 0.04116063 0.011350931 0.16772439 0.17761615 -0.16028261 -0.34774995
-0.14287606 0.07759592 0.24038887 0.12576896 0.22439449 0.024003847 -0.03572624 0.20874402
0.15207182 -0.0025819389 0.1668506 0.0053211893 -0.21918795 0.10695112 0.2219524 0.02160487
0.13026197 -0.21810125 0.10743522 0.11528539 -0.16847731 -0.3000722 -0.04987618 0.20084205
-0.15016752 0.04222677 -0.056862548 -0.19516599 0.13390788 -0.111739345 0.03842687 0.22236392
0.16146365 -0.21027462 0.04834682 -0.070672356 0.12789692 -0.10519799 0.19721033 -0.19546135
0.045891695 0.17146273 -0.11600743 -0.12014271 -0.14267978 0.10655115 -0.07041987 -0.073304445
0.06713879 0.09735864 0.014694463 -0.21973766 0.15598695 0.119034104 -0.042194624 0.14484222
0.13439946 -0.22284432 -0.12134622 0.101683974 -0.13908915 0.1712663 0.012837538 -0.052476853
-0.006050408 -0.14976531 -0.191724 -0.1339316 -0.03740622 -0.120024666 -0.24755768 0.029946776
-0.093851574 -0.12180999 -0.16759194 -0.05331107 0.14904618 -0.15063386 0.07768739 -0.08993763
-0.25175163 -0.03587512 -0.18301596 -0.08953898 -0.18429749 -0.17587693 0.027175477 0.013524881
-0.004275775 0.15747511 -0.12912323 0.088239 -0.018158149 0.14352566 -0.055887032 -0.14164715
0.15560363 0.12030889 -0.03987471 -0.042838983 -0.0068307696 -0.0006927035 -0.22148226 0.048220698
-0.16907597 -0.043480255 -0.014905749 0.04317683 -0.23121712 0.14651944 0.13210036 0.020871274
-0.13554342 -0.1318255 0.014359494 -0.09613517 0.045088857 -0.055282827 0.16308884 0.22137626
0.068962224 -0.1381151 -0.01622757 0.11330165 -0.070868134 -0.16433936 0.10687447 0.22562449
-0.02730048 0.13965735 -0.062308073 -0.07391386 0.117725566 -0.14795117 0.048381932 0.11878677
00000000: 442e 3f3c d767 d0bd ab2a 4e3e 4dc6 2bbe
00000010: 30d6 c2bc 3f29 99bc 2d70 cd3d e3c6 17be
00000020: 1f04 eebd 5b33 113d a354 063e afef 9bbc
00000030: 1175 393d e30a 873b 601d 0b3e 1e1f 463e
00000040: 1d36 94bd e85e 01be e2cb 5fbe 837f 9fbd
00000050: 47cd 053d 0844 183e 39d9 803e 7343 b73d
00000060: 61bd da3c fa08 a2bd 9a7d 823d 1cc1 ee3d
00000070: 48d8 703d 617e dd3d 7d15 ba3d 22b7 b13d
00000080: af0b 0e3d 5522 4fb9 2c54 0f3e a955 1bbe
00000090: 4af5 db3d 9252 5bbe 0def 8f3e 4bbc debd
000000a0: f868 c3bd ad37 673c 2d8f a6bd 6f80 55bd
000000b0: 44bc babc bdca 833c 26c5 f6bc 33cd 84bd
000000c0: 478a abbd 6be5 813d 866a c2bd 514b 843d
000000d0: fd3b e5bc b6a9 1abe 3279 88bd 3d04 54be
000000e0: f677 df3d 0b04 21be b96c 3f3c 9f07 293e
000000f0: 671f 0e3e f7a5 243d 580b 403e 46a0 9cbc
00000100: e46a e13d e154 b33d c212 30be 7732 55be
00000110: fe8a 09bc e97d 163e e28a 92bd f9a1 9bbd
00000120: ccbe b7bd 4fa7 b53c 5ab1 4f3a 6d91 e4bd
00000130: 7fac 27be 892d c33d 26ff 193e aeff 2ebd
00000140: 2b62 fa3d 6a56 283e 2dc8 0ebe 1330 bd3b
00000150: 3a24 773e d7de 25bd a892 6d3d a7d0 f93d
00000160: d8e4 9fbd 6df4 14be 9816 b63d 6a89 f7bd
00000170: 717a 4abe 965b 32bb 69d2 973d cfdd 84be
00000180: 4361 fa3d 443e 28be a8e0 0a3b 1d7d 52bd
00000190: cdd6 fcbc b810 12be 2b98 433e 36de 1f3e
000001a0: 40e7 50be 0b8e 34be 8b25 543c 3c68 d83d
000001b0: bf39 41bd cfea 833e e7f0 5c3d ffd3 17be
000001c0: 6b45 75bd 00dc 26bd 0c98 283d 41f9 393c
000001d0: f1bf 2b3e 02e1 353e 2021 24be 480c b2be
000001e0: 1a4e 12be 9cea 9e3d 8028 763e 94c9 003e
000001f0: abc7 653e b7a3 c43c ae55 12bd fec0 553e
00000200: b7b8 1b3e bf35 29bb e2da 2a3e 5f5d ae3b
00000210: ce72 60be 3009 db3d 7d47 633e b2fc b03c
00000220: 6563 053e ef55 5fbe ff06 dc3d bf1a ec3d
00000230: 5185 2cbe 10a3 99be f74a 4cbd 8aa9 4d3e
00000240: 84c5 19be faf5 2c3d b4e8 68bd 98d9 47be
00000250: 261f 093e 99d7 e4bd 7e65 1d3d 5eb3 633e
00000260: ba56 253e 3b52 57be 5107 463d abbc 90bd
00000270: 69f7 023e 0b72 d7bd 81f1 493e 0527 48be
00000280: eef8 3b3d ed93 2f3e 4e95 edbd 620d f6bd
00000290: a61a 12be 7d37 da3d 4b38 90bd a420 96bd
000002a0: 1080 893d f763 c73d 0cc1 703c e902 61be
000002b0: 0bbb 1f3e 27c8 f33d 45d4 2cbd 8551 143e
000002c0: 03a0 093e 4d31 64be 5e84 f8bd b03f d03d
000002d0: 636d 0ebe 6f60 2f3e 8954 523c f8f1 56bd
000002e0: 8042 c6bb 145c 19be 4c53 44be 5e25 09be
000002f0: 4437 19bd 7ecf f5bd c37f 7dbe f152 f53c
00000300: 4135 c0bd 8477 f9bd 399d 2bbe b55c 5abd
00000310: 909f 183e c33f 1abe 911a 9f3d 3831 b8bd
00000320: 97e5 80be caf1 12bd 8968 3bbe 3660 b7bd
00000330: 7bb8 3cbe 1519 34be 1b9f de3c 7697 5d3c
00000340: cd1b 8cbb 2841 213e e138 04be a6b6 b43d
00000350: 66c0 94bc 64f8 123e cde9 64bd f30b 11be
00000360: 8f56 1f3e 8264 f63d aa53 23bd ee77 2fbd
00000370: a6d4 dfbb 8c96 35ba 3fcc 62be 1183 453d
00000380: 4022 2dbe 5a18 32bd 3e37 74bc 30da 303d
00000390: 2ec4 6cbe 3109 163e 5145 073e 3cfa aa3c
000003a0: e5cb 0abe 44fd 06be 1544 6b3c 84e2 c4bd
000003b0: 18af 383d 3f70 62bd c300 273e 75b0 623e
000003c0: 113c 8d3d 0b6e 0dbe aeef 84bc b20a e83d
000003d0: 5023 91bd 9448 28be 01e1 da3d 1b0a 673e
000003e0: 42a5 dfbc 5602 0f3e c036 7fbd 2660 97bd
000003f0: 1a1a f13d 8380 17be 222c 463d 7a46 f33d

model.project_0.bias f4 [256]
0.009422966 0.20331977 -0.031671036 -0.059744038 -0.025316367 -0.007934623 0.4549484 -0.16240351
-0.08343763 0.16157699 -0.1637919 -0.107193865 0.2139582 0.05484656 0.076858 -0.23589726
0.08558991 0.1931114 0.32923746 -0.18933858 0.21708111 0.120577924 0.25617963 -0.091313876
-0.13419786 -0.20542964 0.058164734 -0.06286575 0.11521933 0.2705147 0.24388117 -0.02483681
0.11446668 0.17723615 -0.09667257 0.3425443 0.19648917 -0.14435251 0.052486442 0.07271282
-0.016200017 -0.01862546 -0.034698755 0.2367631 -0.11140793 -0.023320105 -0.18489249 0.13792521
-0.17686827 -0.05821995 0.15183674 0.22266696 0.34111273 -0.16046688 0.072487496 -0.01633005
-0.17897974 -0.1805325 -0.031786438 -0.120395556 -0.0906778 0.06870903 0.064048305 0.3853636
0.3328992 0.050385095 -0.15139815 -0.040596325 0.1860488 0.08363995 0.009961425 0.154285
-0.24142106 -0.05546828 0.15061593 -0.15562508 0.048021503 0.2293888 -0.062049672 0.2798661
-0.17336111 0.0955639 -0.2396398 0.055473007 0.037153594 -0.030586855 0.07173415 0.18090534
-0.15312587 0.022595191 0.13352372 0.019340508 -0.012036678 0.0603963 0.067955665 0.18731219
-0.008775839 0.29852438 0.037990212 -0.23048168 0.040553086 -0.1606787 0.39102682 -0.058054358
-0.13120796 0.06372614 0.26025683 0.12020153 0.020470928 0.31235537 0.060251612 -0.011719956
-0.16232404 0.123321176 -0.1418645 -0.10583199 -0.114584096 -0.102194265 0.07915936 0.097990915
-0.22054507 -0.0035305566 -0.04278151 -0.22261263 -0.11047892 -0.10186611 -0.16140766 0.1874121
0.068409055 -0.062210333 0.022197127 0.042726748 -0.045052752 0.12974569 -0.17665416 -0.09198358
0.2679145 0.05236255 0.14112414 -0.1333603 -0.03971382 0.30668995 0.0685973 -0.105409436
-0.10467783 -0.05661512 -0.13362853 0.06947325 0.2315305 -0.13171127 0.26992354 -0.103435755
-0.021848632 0.120202415 0.13343719 0.0074815266 0.006770562 0.09993154 0.19711055 -0.04955293
-0.114667766 0.04955786 -0.24758272 -0.16813529 0.0099307895 0.17557317 0.25420633 0.016231181
0.11190822 -0.19713348 -0.2908886 0.016530002 0.027995864 0.023524573 0.0460067 -0.16240895
0.17218794 0.014188304 0.29290906 -0.09259754 0.056509826 0.1620295 0.07076337 0.18279873
-0.13619637 0.043119844 0.12691924 0.041966833 -0.13473581 0.15713891 -0.058431022 0.27799818
-0.12749685 0.21589936 -0.0010585877 0.020368956 -0.08253778 0.16273871 -0.07734412 0.13671206
0.008341311 0.037161335 0.11235951 0.17463511 0.0077327713 -0.06796752 -0.10862198 0.14451227
0.18185972 0.006978985 -0.24250302 0.16069017 0.027494114 -0.07580972 0.017560026 0.14234585
0.17234994 0.14023226 0.19697422 0.1320143 0.12110278 0.06214992 0.04388269 -0.15669675
-0.056370337 0.31831834 0.1164346 -0.209909 0.17339067 -0.1601372 -0.09687885 -0.09861015
0.034539986 -0.047535304 -0.028961 0.14120036 0.012832445 -0.047637254 -0.078107156 0.19040173
0.14630595 0.093994394 -0.0056164907 0.32254112 -0.10581587 0.18063717 0.11515318 0.1907955
0.16524844 -0.16484779 0.05469967 -0.18883888 0.15446945 -0.054007985 0.15802865 -0.04514384
00000000: c962 1a3c 0f33 503e 7db9 01bd 2ab6 74bd
00000010: 4564 cfbc 3900 02bc ffee e83e 1b4d 26be
00000020: 59e1 aabd 7074 253e 10b9 27be 7588 dbbd
00000030: dc17 5b3e c9a6 603d ba67 9d3d 0d8f 71be
00000040: c349 af3d ffbe 453e d091 a83e f9e1 41be
00000050: 834a 5e3e 8ff1 f63d fa29 833e c502 bbbd
00000060: 2a6b 09be 265c 52be 253e 6e3d c2bf 80bd
00000070: 1df8 eb3d e780 8a3e fcbb 793e 9176 cbbc
00000080: 826d ea3d 657d 353e 45fc c5bd f761 af3e
00000090: 7534 493e 25d1 13be 06fc 563d 75ea 943d
000000a0: e6b5 84bc 6c94 98bc 4820 0ebd 0772 723e
000000b0: d729 e4bd ce09 bfbc 7554 3dbe 443c 0d3e
000000c0: f51c 35be 0b78 6ebd 177b 1b3e cf02 643e
000000d0: 54a6 ae3e 6e51 24be 5374 943d 99c6 85bc
000000e0: 7746 37be 83dd 38be 7f32 02bd f291 f6bd
000000f0: 48b5 b9bd 52b7 8c3d c22b 833d 614e c53e
00000100: c471 aa3e 9a60 4e3d 1e08 1bbe 5548 26bd
00000110: 9483 3e3e 6c4b ab3d 3f35 233c e3fc 1d3e
00000120: 1537 77be b532 63bd 103b 1a3e 2e5c 1fbe
00000130: 32b2 443d e6e4 6a3e cc27 7ebd 9c4a 8f3e
00000140: 9385 31be 02b7 c33d 2364 75be aa37 633d
00000150: 5e2e 183d 4991 fabc 5be9 923d 403f 393e
00000160: 07cd 1cbe 8d19 b93c 71ba 083e fc6f 9e3c
00000170: 7d35 45bc 1c62 773d 572c 8b3d c4ce 3f3e
00000180: 89c8 0fbc 30d8 983e a09b 1b3d 6403 6cbe
00000190: fe1a 263d f588 24be ab34 c83e 68ca 6dbd
000001a0: 615b 06be da82 823d 6240 853e 382c f63d
000001b0: a6b2 a73c 0bed 9f3e 65ca 763d 0f05 40bc
000001c0: 4638 26be d08f fc3d ed44 11be 71be d8bd
000001d0: 11ab eabd 3a4b d1bd 4d1e a23d 76af c83d
000001e0: 91d6 61be e960 67bb aa3b 2fbd 91f4 63be
000001f0: c642 e2bd 2e9f d0bd 0d48 25be f5e8 3f3e
00000200: 0c1a 8c3d 43d0 7ebd c0d6 b53c 3e02 2f3d
00000210: 3c89 38bd 0edc 043e d4e4 34be e361 bcbd
00000220: 172c 893e 1d7a 563d d982 103e 9a8f 08be
00000230: f5aa 22bd 7706 9d3e be7c 8c3d e7e0 d7bd
00000240: 5561 d6bd 42e5 67bd ebd5 08be fe47 8e3d
00000250: 5516 6d3e 52df 06be 6b33 8a3e 20d6 d3bd
00000260: e7fb b2bc af2c f63d c2a3 083e 9827 f53b
00000270: 97db dd3b e8a8 cc3d 59d7 493e 03f8 4abd
00000280: efd6 eabd 2ffd 4a3d 5386 7dbe a82b 2cbe
00000290: c0b4 223c 74c9 333e 5527 823e 41f7 843c
000002a0: 2330 e53d 5cdd 49be 5aef 94be ed69 873c
000002b0: 9557 e53c 9bb6 c03c 8571 3c3d 884e 26be
000002c0: 0952 303e 0f76 683c 2df8 953e c7a3 bdbd
000002d0: d976 673d 10eb 253e 63ec 903d 972f 3b3e
000002e0: 1077 0bbe 6f9e 303d 1ef7 013e 6ae5 2b3d
000002f0: 2ff8 09be 06e9 203e 5e55 6fbd c755 8e3e
00000300: 898e 02be b914 5d3e 4fc0 8aba ccdc a63c
00000310: 9109 a9bd faa4 263e 9866 9ebd 3ffe 0b3e
00000320: fea9 083c 7c36 183d be1c e63d 8cd3 323e
00000330: 3063 fd3b 8e32 8bbd 3375 debd 06fb 133e
00000340: 6f39 3a3e f8af e43b b652 78be f78b 243e
00000350: 563b e13c 2042 9bbd 0bda 8f3c 1cc3 113e
00000360: 817c 303e 0c99 0f3e 9cb3 493e c22e 073e
00000370: bc04 f83d ea90 7e3d 56be 333d 1d75 20be
00000380: 95e4 66bd 9ffa a23e 4375 ee3d 63f2 56be
00000390: 538d 313e 02fb 23be 6b68 c6bd 1ef4 c9bd
000003a0: cd79 0d3d 61b4 42bd 9e3f edbc d496 103e
000003b0: 2d3f 523c 481f 43bd a5f6 9fbd acf8 423e
000003c0: 3ad1 153e 2280 c03d 8a0a b8bb 1c24 a53e
000003d0: feb5 d8bd f3f8 383e 6ed5 eb3d e55f 433e
000003e0: e336 293e dccd 28be c30c 603d fb5e 41be
000003f0: 3d2d 1e3e 7a37 5dbd 43d2 213e bfe8 38bd

model.hidden_0.wa f4 [1, 64]
0.9361178 1.0355896 0.84981984 0.97328526 0.85041416 0.92644286 0.8898513 0.8710266
0.9242163 0.6647879 1.0480996 0.945378 0.92822695 0.9271709 0.8400688 1.0490271
0.98563075 1.0114313 0.7722972 0.7500814 0.90272284 0.80730456 0.8923976 0.8566544
0.6214324 0.61462224 0.77578676 0.950286 0.7583503 0.8370267 0.8907571 0.78892356
0.88600504 0.91587347 1.015931 0.85113215 0.728142 0.8230089 0.9849796 0.90533227
0.7807729 0.86992276 0.87489897 0.9606586 0.9258558 0.9455931 0.99026793 0.8439604
0.90932965 0.88436496 0.8791388 0.90452677 0.9086379 0.9558572 0.8926025 0.7458451
0.9313902 0.84011775 0.9366571 0.8710882 0.8495756 1.0081594 0.9753637 0.9101185
00000000: 6ba5 6f3f 338e 843f cb8d 593f 3929 793f
00000010: beb4 593f 5c2b 6d3f 4bcd 633f 99fb 5e3f
00000020: 7099 6c3f 8a2f 2a3f 2128 863f 4b04 723f
00000030: 48a0 6d3f 125b 6d3f c00e 573f 8546 863f
00000040: 4c52 7c3f 9576 813f 45b5 453f 5605 403f
00000050: d818 673f 83ab 4e3f 2b74 643f b44d 5b3f
00000060: 3216 1f3f e257 1d3f f699 463f f145 733f
00000070: 3f23 423f 6247 563f a808 643f e5f6 493f
00000080: 3ad1 623f af76 6a3f 070a 823f cce3 593f
00000090: 8467 3a3f b6b0 523f a027 7c3f dbc3 673f
000000a0: bce0 473f 42b3 5e3f 61f9 5f3f b9ed 753f
000000b0: e304 6d3f 6412 723f 3382 7d3f ca0d 583f
000000c0: d4c9 683f be65 623f 3e0f 613f 118f 673f
000000d0: 7e9c 683f 0fb3 743f 9981 643f b4ef 3e3f
000000e0: 976f 6e3f f511 573f c2c8 6f3f a3ff 5e3f
000000f0: c97d 593f 5e0b 813f 6fb1 793f 87fd 683f

model.hidden_0.wb f4 [1, 64]
0.60757756 0.79227495 0.7754218 0.8359763 0.8260961 0.7259262 0.68652064 0.8087027
0.7601893 0.8158191 0.7602178 0.72941136 0.74179226 0.7268841 0.771325 0.55146086
0.72044545 0.77067465 0.8129966 1.0167333 0.743797 0.8222693 0.7817876 0.7520142
0.86671484 0.8075064 0.89386004 0.8738854 0.71639514 0.80542743 0.8053539 0.8483807
0.82049376 0.6488188 0.6786321 0.7252627 0.7103764 0.66080767 0.7694913 0.83989286
0.8803249 0.67880076 0.6174179 0.7881852 0.65295404 0.7707225 0.788691 0.782955
0.8640234 0.8282094 0.71683097 0.6649707 0.7636407 0.76816005 0.7185735 0.82971233
0.76209897 0.73904365 0.6915793 0.9423382 0.8055115 0.7256784 0.7134606 0.76447016
00000000: 348a 1b3f 88d2 4a3f 0b82 463f 8b02 563f
00000010: 097b 533f 4dd6 393f d1bf 2f3f 2407 4f3f
00000020: c49b 423f 85d9 503f a29d 423f b4ba 3a3f
00000030: 19e6 3d3f 1415 3a3f 8e75 453f 8a2c 0d3f
00000040: 1d6f 383f ef4a 453f 8c20 503f 5124 823f
00000050: 7b69 3e3f 3e80 523f 3b23 483f 0184 403f
00000060: 06e1 5d3f bdb8 4e3f 03d4 643f f4b6 5f3f
00000070: ac65 373f 7e30 4e3f ac2b 4e3f 7a2f 593f
00000080: e10b 523f fd18 263f d5ba 2d3f d1aa 393f
00000090: 3adb 353f b12a 293f 62fd 443f 3803 573f
000000a0: f95c 613f e3c5 2d3f 190f 1e3f 81c6 493f
000000b0: ff27 273f 124e 453f a7e7 493f bd6f 483f
000000c0: a330 5d3f 8805 543f 3c82 373f 853b 2a3f
000000d0: f57d 433f 23a6 443f 6ff4 373f 0768 543f
000000e0: eb18 433f f731 3d3f 570b 313f 143d 713f
000000f0: 0036 4e3f 0fc6 393f 5ba5 363f 51b4 433f

model.hidden_0.dist_apical.w f4 [768]
0.77174646 0.8396565 0.76827335 0.36914846 0.85098195 0.83865434 0.83865434 0.70434654
0.73123354 0.3581602 0.74787676 0.61168206 0.95998526 0.62622184 0.86437285 0.97788894
0.8749897 0.62512696 0.9801824 0.8418654 0.8026976 0.7802035 0.8457561 0.86335886
0.5609596 0.3867699 0.33109975 0.5632806 0.7400691 0.57896215 0.7572007 0.7058005
0.7914425 0.7602419 0.80893886 0.7181562 0.8143619 0.78667086 0.62256193 0.828563
0.68341076 0.87250644 0.6987558 0.6987558 0.8769435 0.82200956 0.94504243 0.7830732
0.55013084 0.713698 0.41891113 0.41413888 0.4147673 0.4612807 0.7312046 0.4612807
0.8874792 0.48105606 0.436476 0.8475437 0.79768836 0.87203765 0.8323241 0.66462004
0.6477167 0.7475198 0.56777555 0.5609675 0.66707665 0.69482476 0.66707665 0.86747
0.5508031 0.6874273 0.8361218 0.7261416 0.5240014 0.8269952 0.8094646 0.8269952
0.43649188 0.5764254 0.80995345 0.696281 0.7791555 0.770949 0.7791555 0.8172663
0.67020875 0.94014317 0.8100798 0.8690913 0.86795026 0.68660635 0.6031467 0.715244
0.924648 0.5014969 0.7153821 0.57887423 0.88487655 0.8328517 0.8616228 0.57789737
0.71209604 0.58253866 0.8434283 0.6487368 0.70451516 0.47505257 0.43632674 0.6982555
0.5335786 0.85578364 0.6910941 0.7757166 0.77666336 0.7238026 0.8330921 0.5349805
0.5714769 0.79956555 0.875057 0.85693496 0.87972295 0.8304744 0.81405586 0.8844709
0.79908586 0.68190867 0.9360839 0.7223411 0.7509699 0.70159554 0.87758905 0.6546141
0.89389807 0.9051104 0.9051104 0.90456355 0.6864595 0.6727329 0.9025142 0.8772334
0.7574444 0.6927822 0.79525024 0.6927822 0.76158726 0.587393 0.81314844 0.80180764
0.68677574 0.7161194 0.7161194 0.5946668 0.76884663 0.76656634 0.7673569 0.7673569
0.61816794 0.71314543 0.7456052 0.5759962 0.7460073 0.60712796 0.7498584 0.81283593
0.6363382 0.7374569 0.43338704 0.7101098 0.64048535 0.4906884 0.48897183 0.69978493
0.72555625 0.7306184 0.5926877 0.513639 0.8392424 0.58929175 0.9057535 0.62699866
0.647181 0.7578682 0.57173216 0.87613547 0.83817464 0.80979985 0.69365376 0.83817464
0.908705 0.8915957 0.8004878 0.78586197 0.5398379 0.52577955 0.7251665 0.8822971
0.81925243 0.8228014 0.5172923 0.8304363 0.79942167 0.68755394 0.92817867 0.8035099
0.759679 0.5463801 0.8006644 0.72338575 0.7154361 0.6578052 0.81446064 0.41335195
0.60057783 0.53304064 0.6017645 0.6984833 0.6314489 0.63189435 0.63189435 0.22725843
0.70259523 0.68579733 0.6034094 0.6067669 0.71191037 0.70369077 0.6186303 0.54806936
0.49576893 0.7457959 0.49576893 0.50977635 0.49301103 0.52980167 0.5241184 0.698998
0.5283835 0.71971035 0.58656865 0.73210794 0.5941047 0.5943934 0.74401915 0.7230634
0.63252467 0.78809094 0.7583089 0.88212085 0.6956201 0.62414056 0.7562432 0.5887527
00000000: 2d91 453f baf3 563f 90ad 443f 0701 bd3e
00000010: f4d9 593f 0db2 563f 0db2 563f 0e50 343f
00000020: 1f32 3b3f c660 b73e da74 3f3f 3297 1c3f
00000030: 98c1 753f 1350 203f 8a47 5d3f ee56 7a3f
00000040: 53ff 5f3f 5208 203f 3ced 7a3f 7e84 573f
00000050: 977d 4d3f 6bbb 473f 7983 583f 1605 5d3f
00000060: 0c9b 0f3f b406 c63e e885 a93e 2833 103f
00000070: 2b75 3d3f dd36 143f e8d7 413f 57af 343f
00000080: fa9b 4a3f 379f 423f 9e16 4f3f 16d9 373f
00000090: 057a 503f 4363 493f 3860 1f3f b41c 543f
000000a0: 02f4 2e3f 955c 5f3f a9e1 323f a9e1 323f
000000b0: 5f7f 603f 386f 523f 4dee 713f 7c77 483f
000000c0: 60d5 0c3f eab4 363f 857b d63e 030a d43e
000000d0: 615c d43e fc2c ec3e 3a30 3b3f fc2c ec3e
000000e0: d631 633f fb4c f63e c879 df3e a0f8 583f
000000f0: 4e35 4c3f dc3d 5f3f 3113 553f 8a24 2a3f
00000100: c3d0 253f 755d 3f3f bd59 113f 919b 0f3f
00000110: 89c5 2a3f 09e0 313f 89c5 2a3f 8412 5e3f
00000120: 6f01 0d3f 3cfb 2f3f 140c 563f 6ae4 393f
00000130: f524 063f f5b5 533f 1239 4f3f f5b5 533f
00000140: dd7b df3e 9d90 133f 1c59 4f3f 793f 323f
00000150: bc76 473f ea5c 453f bc76 473f 5d38 513f
00000160: cd92 2b3f 39ad 703f 6461 4f3f c47c 5e3f
00000170: fd31 5e3f 6fc5 2f3f d267 1a3f 3b1a 373f
00000180: bbb5 6c3f 1a62 003f 4823 373f 1a31 143f
00000190: 4587 623f c535 553f 5093 5c3f 15f1 133f
000001a0: ed4b 363f 4121 153f ebea 573f 9d13 263f
000001b0: 1b5b 343f 173a f33e 3866 df3e dfc0 323f
000001c0: 9b98 083f a314 5b3f 8beb 303f 5d95 463f
000001d0: 69d3 463f 214b 393f 8645 553f 7bf4 083f
000001e0: 4f4c 123f 54b0 4c3f bc03 603f 1760 5b3f
000001f0: 8635 613f f899 543f f765 503f af6c 623f
00000200: e490 4c3f 9191 2e3f 32a3 6f3f 59eb 383f
00000210: 903f 403f c49b 333f ada9 603f ca94 273f
00000220: 81d6 643f 51b5 673f 51b5 673f 7a91 673f
00000230: cfbb 2f3f 3938 2c3f 2c0b 673f 5e92 603f
00000240: e0e7 413f 2d5a 313f 8595 4b3f 2d5a 313f
00000250: 62f7 423f 635f 163f 7f2a 503f 4443 4d3f
00000260: 89d0 2f3f 9a53 373f 9a53 373f 153c 183f
00000270: 22d3 443f b13d 443f 8071 443f 8071 443f
00000280: 4140 1e3f b390 363f fbdf 3e3f 7d74 133f
00000290: 56fa 3e3f bd6c 1b3f b8f6 3f3f 0416 503f
000002a0: 0fe7 223f fac9 3c3f e8e4 dd3e c1c9 353f
000002b0: d9f6 233f 833b fb3e 845a fa3e 1b25 333f
000002c0: 0ebe 393f cf09 3b3f 62ba 173f d87d 033f
000002d0: 97d8 563f d3db 163f 76df 673f fc82 203f
000002e0: a7ad 253f a603 423f 0a5d 123f 6a4a 603f
000002f0: 9d92 563f 0b4f 4f3f 4b93 313f 9d92 563f
00000300: e4a0 683f 9e3f 643f c5ec 4c3f 402e 493f
00000310: d132 0a3f 7d99 063f 83a4 393f 39de 613f
00000320: 87ba 513f 1da3 523f 456d 043f 7997 543f
00000330: e6a6 4c3f 8903 303f 1e9d 6d3f d3b2 4d3f
00000340: 537a 423f 91df 0b3f 58f8 4c3f cf2f 393f
00000350: d226 373f ec65 283f 7e80 503f dea2 d33e
00000360: 78bf 193f 5a75 083f 3d0d 1a3f cdcf 323f
00000370: a3a6 213f d4c3 213f d4c3 213f 6fb6 683e
00000380: 48dd 333f 6a90 2f3f 0a79 1a3f 1355 1b3f
00000390: c23f 363f 1425 343f 8e5e 1e3f 464e 0c3f
000003a0: 6dd5 fd3e 7bec 3e3f 6dd5 fd3e b480 023f
000003b0: f16b fc3e 15a1 073f a02c 063f 88f1 323f
000003c0: 2444 073f f03e 383f 5d29 163f 6d6b 3b3f
000003d0: 3f17 183f 2a2a 183f 0a78 3e3f af1a 393f
000003e0: 23ed 213f 54c0 493f 8820 423f acd2 613f
000003f0: 2914 323f adc7 1f3f 2899 413f 7fb8 163f

model.hidden_0.dist_basal.w f4 [768]
0.5903452 0.6972142 0.69401264 0.7976717 0.59659857 0.8081892 0.7743001 0.8777842
0.7819532 0.758172 0.80286026 0.77671653 0.8015785 0.76377237 0.8236111 0.7362999
0.7683444 0.6265748 0.7811718 0.7366909 0.66403383 0.81195414 0.7863963 0.87086064
0.6895228 0.60580075 0.73989564 0.7691928 0.64508283 0.7512612 0.5453292 0.7512612
0.6278264 0.570772 0.6609173 0.7043332 0.5502619 0.8388917 0.69104373 0.7550136
0.80202246 0.7731743 0.8858682 0.65930384 0.7094535 0.7218212 0.7798799 0.68538123
0.90005875 0.8270157 0.67027205 0.5183754 0.35821652 0.78893 0.7024802 0.66439754
0.65789074 0.65537834 0.6740327 0.66441077 0.5670619 0.7118508 0.79322565 0.82633996
0.6819757 0.6874692 0.57796633 0.7026474 0.83788466 0.7764861 0.6438065 0.651343
0.79011834 0.63798386 0.59547895 0.7983167 0.6111186 0.57499427 0.6538874 0.511387
0.73425454 0.79496485 0.64853173 0.75696945 0.8755464 0.69410443 0.71556103 0.672825
0.7869858 0.8372661 0.71235305 0.75215596 0.77392876 0.805082 0.7561268 0.81866264
0.9092439 0.8149685 0.7663484 0.6931393 0.78592676 0.8268014 0.710148 0.7942397
0.8001828 0.7621181 0.7222775 0.7421838 0.8714462 0.77537686 0.7770592 0.6162897
0.8574715 0.7634716 0.7302345 0.8108506 0.74686706 0.7322175 0.6418851 0.48526567
0.65473837 0.7077672 0.7152014 0.82059085 0.7499136 0.86163026 0.8199511 0.8368512
0.75002766 0.7697143 0.7884487 0.74594 0.794033 0.87353206 0.90809435 0.9134147
0.8315399 0.7597514 0.73988825 0.8264086 0.80588704 0.83791596 0.6372442 0.8076838
0.6103103 0.8555481 0.7862506 0.5827618 0.6314884 0.71023613 0.71225315 0.7371981
0.6485287 0.7552872 0.7781635 0.7176196 0.70815295 0.61268896 0.6774787 0.55770105
0.59551615 0.77394617 0.62236416 0.7362215 0.74745905 0.77418697 0.8522928 0.6899225
0.7371971 0.77163965 0.6885264 0.8192059 0.8059187 0.6187782 0.75778687 0.795701
0.76662636 0.7164014 0.7419159 0.781187 0.6686106 0.38603535 0.6126649 0.67015404
0.6560765 0.6796761 0.64737785 0.59695673 0.5413506 0.43328032 0.43589762 0.7379428
0.66586334 0.5869078 0.83564717 0.86896706 0.8124181 0.8043706 0.73184407 0.7273159
0.5980742 0.7678581 0.8659612 0.7634624 0.83512676 0.74274766 0.91852057 0.67452395
0.65806884 0.739733 0.7500814 0.80842197 0.6857527 0.8844122 0.8747324 0.7396581
0.7186765 0.73622525 0.7068271 0.5171643 0.73318475 0.68559706 0.67582047 0.7538389
0.72587925 0.73371124 0.51347035 0.6056963 0.82407695 0.8493711 0.6071164 0.8846982
0.6908256 0.8603808 0.838081 0.84645224 0.75568694 0.7097249 0.70876294 0.7556869
0.79412055 0.6555263 0.6032687 0.66975844 0.7995878 0.84175843 0.78903604 0.75902313
0.85154533 0.64017445 0.7634399 0.7978404 0.537224 0.7770444 0.69662493 0.5935852
00000000: dd20 173f a17c 323f d0aa 313f 3634 4c3f
00000010: afba 183f 7de5 4e3f 8838 463f 77b6 603f
00000020: 162e 483f 8f17 423f 4088 4d3f e5d6 463f
00000030: 4034 4d3f 9686 433f 2dd8 523f 267e 3c3f
00000040: 38b2 443f 3567 203f e0fa 473f c697 3c3f
00000050: 1ffe 293f 3adc 4f3f 4551 493f b9f0 5e3f
00000060: 9184 303f c215 1b3f cd69 3d3f d2e9 443f
00000070: 2624 253f a752 403f b29a 0b3f a752 403f
00000080: 3bb9 203f 1d1e 123f e031 293f 2e4f 343f
00000090: f7dd 0c3f 9bc1 563f 3ee8 303f 9248 413f
000000a0: 5851 4d3f c0ee 453f 42c8 623f 23c8 283f
000000b0: bf9e 353f 46c9 383f 36a6 473f 2575 2f3f
000000c0: 406a 663f 4db7 533f f396 2b3f 40b4 043f
000000d0: 2868 b73e 51f7 493f bed5 333f f515 2a3f
000000e0: 876b 283f e0c6 273f 688d 2c3f d316 2a3f
000000f0: f82a 113f db3b 363f d610 4b3f 048b 533f
00000100: f695 2e3f fbfd 2f3f 9af5 133f b3e0 333f
00000110: 9c7f 563f cbc7 463f 81d0 243f 6abe 263f
00000120: 3245 4a3f e952 233f 4f71 183f 7c5e 4c3f
00000130: 4572 1c3f d332 133f 2a65 273f 42ea 023f
00000140: 1bf8 3b3f d182 4b3f 2d06 263f c0c8 413f
00000150: cf23 603f d4b0 313f 022f 373f 423e 2c3f
00000160: e777 493f 1257 563f c55c 363f 4b8d 403f
00000170: 3220 463f db19 4e3f 8791 413f e093 513f
00000180: 35c4 683f c7a1 503f 692f 443f 9471 313f
00000190: 7f32 493f 42a9 533f 42cc 353f 4b53 4b3f
000001a0: c8d8 4c3f 2c1a 433f 2ee7 383f c2ff 3d3f
000001b0: 1917 5f3f 197f 463f 5aed 463f 29c5 1d3f
000001c0: 4183 5b3f e072 433f a6f0 3a3f e893 4f3f
000001d0: ae32 3f3f 9b72 3b3f 9552 243f be74 f83e
000001e0: ef9c 273f 3b30 353f 7017 373f 3e12 523f
000001f0: 56fa 3f3f cd93 5c3f 51e8 513f e13b 563f
00000200: d001 403f ff0b 453f c6d7 493f edf5 3e3f
00000210: bf45 4b3f cc9f 5f3f df78 683f 8cd5 693f
00000220: cddf 543f 117f 423f 5169 3d3f 848f 533f
00000230: 9d4e 4e3f a981 563f 7022 233f 5ec4 4e3f
00000240: 4c3d 1c3f 3305 5b3f b847 493f e12f 153f
00000250: 39a9 213f 09d2 353f 3956 363f 04b9 3c3f
00000260: fa05 263f 805a 413f b935 473f ebb5 373f
00000270: 8349 353f 2fd9 1c3f 3e6f 2d3f 7fc5 0e3f
00000280: bf73 183f 5621 463f 4253 1f3f 0379 3c3f
00000290: 7a59 3f3f 1e31 463f dc2f 5a3f c39e 303f
000002a0: f3b8 3c3f 2d8a 453f 4443 303f 7ab7 513f
000002b0: b050 4e3f 4068 1e3f 52fe 413f 10b3 4b3f
000002c0: a041 443f 1566 373f 33ee 3d3f dffb 473f
000002d0: 102a 2b3f 6da6 c53e 9bd7 1c3f 378f 2b3f
000002e0: a1f4 273f 41ff 2d3f 8eba 253f 28d2 183f
000002f0: f495 0a3f ebd6 dd3e f92d df3e d2e9 3c3f
00000300: 0576 2a3f 973f 163f f9ec 553f a074 5e3f
00000310: a2fa 4f3f 3beb 4d3f 225a 3b3f 6031 3a3f
00000320: 641b 193f 5992 443f a2af 5d3f 4672 433f
00000330: deca 553f b624 3e3f 2a24 6b3f 9aad 2c3f
00000340: 3377 283f 245f 3d3f 5605 403f bef4 4e3f
00000350: 7d8d 2f3f d768 623f 76ee 5f3f 3c5a 3d3f
00000360: 2ffb 373f 4279 3c3f 9ff2 343f e164 043f
00000370: ffb1 3b3f 4a83 2f3f 9202 2d3f 96fb 403f
00000380: 39d3 393f 80d4 3b3f cb72 033f ea0e 1b3f
00000390: b5f6 523f 6270 593f fb6b 1b3f 957b 623f
000003a0: f2d9 303f eb41 5c3f 7a8c 563f 18b1 583f
000003b0: b374 413f 88b0 353f 7d71 353f b274 413f
000003c0: 7c4b 4b3f 92d0 273f d16f 1a3f 4a75 2b3f
000003d0: c9b1 4c3f 7b7d 573f 44fe 493f 574f 423f
000003e0: e0fe 593f 79e2 233f cc70 433f 453f 4c3f
000003f0: 8387 093f 62ec 463f 0356 323f 33f5 173f
