deeplearning_tasks/models/bci/20150801_Net_noise_0.0_best_trans_model_window_30_step_6_trans_noapical.pth (torch, 330049 bytes, 40 tensors)

mlp_in.0.weight f4 [512, 96]
0	0xbd6d70f7	-0.05796906
1	0x3e1b138e	0.15144178
2	0x3bf99840	0.0076170266
3	0x3c03f3e0	0.00805375
4	0x3d25a778	0.040442914
5	0xbb9efcde	-0.0048519215
6	0x3c8ed2fc	0.01743459
7	0x3e02cc3b	0.1277322
8	0x3e182679	0.14858426
9	0x3ddcf5df	0.10789084
10	0xbd0d97e2	-0.034568675
11	0x3c947c07	0.018125547
12	0xbcb1c429	-0.021699982
13	0xbda26c7d	-0.07930849
14	0x3e1032cb	0.14081876
15	0xbc968a9a	-0.018376637
16	0x39f7eb03	0.0004728661
17	0x3dbf9555	0.09354655
18	0x3e3a5358	0.18195856
19	0xbb7aff35	-0.0038299088
20	0xbda85a33	-0.08220329
21	0x3e8110da	0.2520817
22	0xbc21a284	-0.009865407
23	0x3b3db24a	0.002894538
24	0xbd510f22	-0.051039822
25	0xbddabbb5	-0.106803335
26	0xbd86317c	-0.06552407
27	0xbde7d475	-0.1131982
28	0x3dfd5ae0	0.12370849
29	0xbe1c3141	-0.15253164
30	0x3dad6f03	0.084684394
31	0x3dd8dc49	0.10588891
32	0xbd9868b4	-0.074418455
33	0xbaab966f	-0.0013091097
34	0xbdba9933	-0.09111252
35	0x3ca0759d	0.019587332
36	0x3d8600f8	0.065431535
37	0x3c5f2049	0.013618537
38	0x3e97e377	0.2966573
39	0xbcb4c08f	-0.022064475
40	0x3db4ae81	0.088223465
41	0x3d5aec8a	0.053448237
42	0x3e17ebf7	0.14836107
43	0xbdc365a8	-0.09540874
44	0x3d96f3c6	0.07370715
45	0xbd8e0688	-0.069348395
46	0xbc0f3d40	-0.0087426305
47	0xbd3a5cd0	-0.04549867
48	0xbe146a18	-0.14493597
49	0x3e9b472a	0.3032773
50	0xbd3b5ac4	-0.045740858
51	0x3dc1c336	0.09461062
52	0x3df7d19c	0.12100527
53	0xbb8912ef	-0.0041831653
54	0xbc4b47e6	-0.012407279
55	0xbdd76710	-0.105177045
56	0x3d89faeb	0.06737312
57	0x3da66db1	0.08126391
58	0xbc993213	-0.018700635
59	0xbd8847fa	-0.066543534
60	0x3c62a897	0.01383414
61	0xbd0284af	-0.03186482
62	0x3cbf20ee	0.023331132
63	0xbddad552	-0.10685219
64	0x3c4cd07d	0.012500879
65	0x003ab119	5.38999e-39
66	0x00104a4b	1.496019e-39
67	0xbdcd2b9c	-0.100180835
68	0x3b052d5b	0.0020321223
69	0x3d5177e7	0.05113974
70	0x3ddabf9c	0.10681078
71	0xbdbf1e13	-0.09331908
72	0xbdeaa94b	-0.11458071
73	0xbda7df61	-0.08196903
74	0xbdf1294d	-0.117754556
75	0x3d95cb01	0.073141105
76	0xbe0e62ac	-0.13904828
77	0x3e241ec9	0.16027369
78	0xbd46106b	-0.0483555
79	0x3e55e545	0.2088824
80	0x3c4ef6ff	0.012632131
81	0xbdd3cbb1	-0.103415854
82	0x3ea46861	0.32110885
83	0xbd8b9224	-0.068149835
84	0x3e6624e2	0.22475007
85	0xbdc00ba4	-0.0937722
86	0xbdd1e5a6	-0.1024888
87	0x3d557e5d	0.052122463
88	0xbdf61d3e	-0.12017296
89	0xbbb4394e	-0.0054999953
90	0x3e7446f8	0.23855197
91	0x3e42d40b	0.190262
92	0xbd56fac9	-0.05248526
93	0x3cf70bd3	0.030157005
94	0x3d5a9f81	0.05337477
95	0x003d7988	5.645562e-39
96	0x3d9739a2	0.073840395
97	0xbd1d1dd4	-0.038358524
98	0xbdab59d1	-0.083667405
99	0xbc1a8aac	-0.009432476
100	0xbba86211	-0.0051386436
101	0x3e172dbf	0.14763544
102	0xbc11c906	-0.008898025
103	0x3dbb83ee	0.09156023
104	0x3ca44db5	0.020056585
105	0x3d01fc42	0.031734712
106	0xbd976f41	-0.07394267
107	0xbcf9dff5	-0.030502299
108	0x3cb3a568	0.021929458
109	0x3ca40332	0.020021055
110	0x3cdd47c6	0.027011763
111	0xbd700a6e	-0.058603697
112	0xbde88681	-0.113537796
113	0xbd057425	-0.032581467
114	0xbb97e300	-0.004635215
115	0x3ce11818	0.02747731
116	0xbda0ac17	-0.078453235
117	0xbd4b1747	-0.049582746
118	0x3c54f105	0.012996917
119	0xbd0922ee	-0.033480577
120	0xbd9047ce	-0.07044946
121	0xbe0b1bca	-0.1358482
122	0xbd5a20b9	-0.053253863
123	0xbb3c5199	-0.002873516
124	0xbc89c5a7	-0.01681788
125	0x3c575147	0.013141937
126	0x3d38bc5a	0.0451015
127	0x3ca5fc8e	0.020262029
128	0xbc43c75c	-0.011949386
129	0x3d4e72da	0.0504025
130	0xbcef187b	-0.029186478
131	0x3c8355db	0.01603215
132	0x3be4d429	0.0069832993
133	0xbbcf1454	-0.006319562
134	0x3dfcc41b	0.12342092
135	0xbd72e593	-0.05930097
136	0x3d6fff11	0.05859286
137	0x3caa15ef	0.020762412
138	0x3b17db55	0.0023171504
139	0xbd4de1bd	-0.05026411
140	0x3d317f5b	0.043334346
141	0xbce01393	-0.027353084
142	0xbca7a672	-0.02046511
143	0xbaf23243	-0.0018478114
144	0xbd68cc70	-0.05683559
145	0x3d5135db	0.05107675
146	0x3dee02fc	0.11621663
147	0xbd4d8b75	-0.050181825
148	0x3d5ef1df	0.054429885
149	0xbce6903a	-0.028144944
150	0x3d896e9f	0.067105524
151	0xbcf4e52f	-0.02989444
152	0x3da51270	0.08060157
153	0x3d3658b2	0.04451818
154	0x3d1ab572	0.037770696
155	0x3ce58c6b	0.028021058
156	0xbd062e75	-0.03275915
157	0x3c814374	0.015779234
158	0x3d092adb	0.033488136
159	0xbd020349	-0.031741414
160	0xbcf07dba	-0.029356826
161	0x00dcd8c8	2.0281576e-38
162	0x002290fe	3.17442e-39
163	0xbb9d752a	-0.004805227
164	0xbb4dc879	-0.0031400009
165	0xba42edde	-0.00074359577
166	0xbcce6f05	-0.025199423
167	0xbd823f91	-0.063597806
168	0xbd9b25ec	-0.075755924
169	0xbc00ef95	-0.007869621
170	0x3dac063d	0.08399627
171	0xba8d96ec	-0.0010802425
172	0xba261330	-0.00063352566
173	0x3d9a7591	0.07541955
174	0xbc2770d0	-0.010219768
175	0x3e230b62	0.15922311
176	0x3bc0ac0f	0.005879886
177	0xbcf3810e	-0.029724624
178	0x3c9ea466	0.0193655
179	0x3d5e6e98	0.05430469
180	0x3d4fa68d	0.050695945
181	0xbd434ea6	-0.047682427
182	0x3d101d80	0.035184383
183	0x3d4211db	0.04738031
184	0xbce0cb5c	-0.02744072
185	0x3c8a3492	0.01687077
186	0x3c541a9c	0.012945797
187	0x3db82514	0.08991447
188	0x3970ca59	0.00022963564
189	0x3aea4bc9	0.0017875369
190	0x3d7c9e88	0.061674625
191	0x019167ed	5.3413714e-38
192	0xbdfa58e7	-0.12223988
193	0x3d515cbe	0.051113836
194	0x3dcaa7cb	0.09895285
195	0x3de3b40a	0.11118324
196	0x3ccae930	0.024769396
197	0xbdfd10e8	-0.1235674
198	0x3bc87dbf	0.0061185057
199	0xbda2ba68	-0.079457104
200	0x3d51f75e	0.0512613
201	0xbd8ebc0e	-0.06969462
202	0x3d41ea6e	0.04734271
203	0x3ca38cb2	0.01996455
204	0xbc119847	-0.008886403
205	0xbdbe15eb	-0.09281524
206	0xba6a76e0	-0.00089441054
207	0x3cc6215f	0.024185834
208	0x3d867d13	0.06566825
209	0x3dac630c	0.08417329
210	0x3d84a7fa	0.064773515
211	0x3b8becca	0.004270171
212	0x3d8283c8	0.063727915
213	0x3dde14a1	0.108437784
214	0xbce9ea9b	-0.028554251
215	0x3d075012	0.033035345
216	0x3d2d577e	0.042319767
217	0x3ceb3901	0.028713705
218	0xbdbb6b91	-0.09151376
219	0x3d2ee612	0.04269988
220	0x3b438460	0.002983354
221	0xbc79e9b8	-0.015253477
222	0xbd553c5f	-0.052059527
223	0x3da1a33a	0.07892461
224	0xbd2b65fa	-0.0418453
225	0x3b035f8b	0.0020045962
226	0xbcc46e67	-0.023978425
227	0xbb9e04e9	-0.0048223627
228	0x3b08efff	0.0020895002
229	0x3c7d7244	0.015469138
230	0xbe107335	-0.14106448
231	0x3d5d82a4	0.054079667
232	0x3d225883	0.039635193
233	0xbd2be7f6	-0.041969262
234	0xbd298ac7	-0.041392114
235	0xbd123655	-0.035696346
236	0xbd486679	-0.04892585
237	0x3e0128b2	0.1261318
238	0x3d51706b	0.0511326
239	0x3d563e90	0.052305758
240	0x3ce0129e	0.027352627
241	0xbda3ea43	-0.08003666
242	0xbc1ce1f7	-0.009575359
243	0xbcf918a2	-0.030407254
244	0xbd16c497	-0.036808576
245	0xbd83ea47	-0.06441169
246	0xbc77218c	-0.015083682
247	0xbc88e302	-0.016709808
248	0xbd3c9321	-0.04603875
249	0xbdf84c78	-0.1212396
250	0x3c6a84bf	0.014313876
251	0xbd189639	-0.03725264
252	0x3c502130	0.012703225
253	0xbdab9a85	-0.08379082
254	0x3d0975d4	0.033559635
255	0xbd4f85e4	-0.050664797

mlp_in.0.bias f4 [512]
0	0x3dd75276	0.10513775
1	0x3e05d0e5	0.13067968
2	0x3de9ff41	0.11425639
3	0x3db3dc85	0.08782295
4	0x3e7e31f7	0.24823748
5	0x3ea6e3a4	0.3259555
6	0xbe5b1684	-0.21395308
7	0x3e2500cd	0.16113587
8	0xbe8aa4c4	-0.2707883
9	0xbe4bc6d8	-0.19900072
10	0x3d9f4406	0.07776646
11	0xbdb33099	-0.08749504
12	0x3e330f7b	0.17486374
13	0x3e8c5ec0	0.2741604
14	0xbd150148	-0.036378175
15	0xbdd71970	-0.10502899
16	0xbd16ff42	-0.036864527
17	0xbcd4d664	-0.025981136
18	0xbe88ac44	-0.26693928
19	0xbdf62d23	-0.12020328
20	0x3da3032e	0.07959591
21	0xbdac3294	-0.084080845
22	0xbd6c33f8	-0.05766675
23	0xbe38458e	-0.17995283
24	0x3df93508	0.12168318
25	0x3e02312a	0.12714067
26	0xbcb8b0b4	-0.022545196
27	0x3c2a8c0d	0.010409367
28	0xbeac7917	-0.33686134
29	0x3e206a06	0.15665445
30	0xbe0aa914	-0.1354106
31	0x3d5783f7	0.052616086
32	0xbe057e61	-0.13036491
33	0x3c912678	0.017718539
34	0xbdcb83e6	-0.09937267
35	0x3daf675d	0.08564637
36	0x3d30914e	0.043107323
37	0xbe84b4a5	-0.2591907
38	0x3e1b22e7	0.15150033
39	0xbe2a1c64	-0.16612393
40	0x3e7177f7	0.23580919
41	0xbe2e4ca9	-0.17021431
42	0x3ce393ce	0.02778044
43	0x3e961292	0.29311043
44	0x3e1a5e55	0.15075047
45	0x3ce8d0ed	0.028419936
46	0x3e93c54f	0.28861472
47	0x3d9afea1	0.07568098
48	0x3e84f73d	0.25969878
49	0xbe5b8482	-0.21437266
50	0xbcdbe846	-0.026844155
51	0xbec8645a	-0.39139062
52	0xbd0ff7a9	-0.035148297
53	0xbdc801f1	-0.09765995
54	0xbe7fdada	-0.24985829
55	0x3e103777	0.14083658
56	0x3d6f2a9b	0.05839024
57	0xbd5892ef	-0.0528745
58	0x3dd7e4ad	0.10541663
59	0x3d408bbf	0.047008272
60	0x3e360eaa	0.17779031
61	0xbdc0fd57	-0.09423321
62	0xbdef4616	-0.1168329
63	0x3c662882	0.014047744
64	0xbe4bed5c	-0.19914764
65	0x3ca44af1	0.020055266
66	0xbe50a333	-0.20374756
67	0xbd5945e1	-0.053045157
68	0xbe9a244f	-0.30105826
69	0x3e1f978d	0.15585156
70	0xbe640406	-0.2226716
71	0xbd0dfac7	-0.034662988
72	0xbd60cf3c	-0.054885134
73	0x3e5ae4a0	0.21376276
74	0x3d1213a1	0.03566325
75	0xbc8bff67	-0.017089559
76	0x3e8e5b3e	0.27803987
77	0xbe412d22	-0.18864873
78	0xbc42662e	-0.011865182
79	0x3db4a8aa	0.088212326
80	0x3e06ea41	0.13175298
81	0x3e122d82	0.14275172
82	0x3d4fe621	0.050756577
83	0x3e6da21a	0.23206368
84	0x3d3aac41	0.04557443
85	0xbe0b0f06	-0.1357995
86	0x3e5cee05	0.21575172
87	0x3e77de15	0.24205811
88	0x3e44a6a2	0.1920419
89	0x3e6829dc	0.22672218
90	0xbdc0de83	-0.09417441
91	0xbd578019	-0.052612398
92	0x3e629367	0.22126542
93	0xbe3a53a8	-0.18195975
94	0xbc6a8613	-0.014314192
95	0x3e0d41cf	0.13794635
96	0x3e828c56	0.25497693
97	0xbe2b8b49	-0.16752352
98	0xbda3b9bf	-0.07994413
99	0x3ddcbd6a	0.10778315
100	0xbe16dc6b	-0.1473252
101	0xbe3c180c	-0.18368548
102	0x3e4092a1	0.18805934
103	0xbe1b516a	-0.15167776
104	0xbd081e6c	-0.033232138
105	0xbdf9b988	-0.121935904
106	0xbdfdb84c	-0.123886675
107	0xbdb3de97	-0.0878269
108	0xbe208bb1	-0.15678288
109	0x3e5c57f2	0.21517923
110	0x3e5b7391	0.21430804
111	0xbe175513	-0.14778547
112	0x3e199eff	0.15002058
113	0xbe3e2450	-0.1856854
114	0x3e6f3950	0.23361707
115	0x3df6aeb1	0.120450385
116	0xbd2b1425	-0.04176726
117	0xbc2d4da7	-0.010577596
118	0xbc155d92	-0.009116547
119	0xbde2b4ba	-0.11069627
120	0xbd6261d7	-0.05526909
121	0x3c769486	0.015050059
122	0xbe898f38	-0.2686708
123	0xbdb195b6	-0.08671133
124	0xbd5d2063	-0.053985965
125	0xbdd473df	-0.10373663
126	0x3d4bfc38	0.04980108
127	0x3cacfda8	0.021117046
128	0xbd55ef1d	-0.05222999
129	0xbe819de7	-0.25315782
130	0xbde23105	-0.11044506
131	0x3dd38842	0.103287235
132	0xbd413d57	-0.04717764
133	0x3dfaffbc	0.12255809
134	0x3cc66892	0.024219785
135	0xbdf92757	-0.121657066
136	0xbe174fbd	-0.14776511
137	0x3e94cfca	0.2906478
138	0x3d824b70	0.06362045
139	0x3ea8b460	0.32950115
140	0x3df4b81e	0.1194918
141	0xbe033948	-0.1281482
142	0x3d864c24	0.065574914
143	0xbe3a404f	-0.18188594
144	0x3e33a457	0.1754316
145	0xbe711b12	-0.23545483
146	0xbe026e5d	-0.12737413
147	0xbd850e7d	-0.06496904
148	0x3e3077ae	0.17233154
149	0x3e7bacc1	0.24577619
150	0xbca8b814	-0.020595588
151	0x3e768ce9	0.2407719
152	0x3e2a71c6	0.16644964
153	0x3e6e757f	0.23287009
154	0xbd3fbfb2	-0.046813674
155	0x3d5ae4a4	0.053440705
156	0xbe2da55b	-0.1695761
157	0xbe12de31	-0.14342572
158	0x3e508cf4	0.2036627
159	0xbe3f82a7	-0.18702184
160	0x3e8fb0b8	0.28064513
161	0xbd8ffa2a	-0.07030137
162	0x3be90b0a	0.0071119117
163	0x3e6966e0	0.2279315
164	0x3e68a410	0.22718835
165	0x3da84f58	0.082182586
166	0x3e07f55a	0.13277188
167	0xbd9b9c77	-0.07598203
168	0xbda8f57b	-0.08249947
169	0x3df0e46f	0.1176232
170	0xbe597e44	-0.21239573
171	0x3e28a3b2	0.16468695
172	0x3e61e1c1	0.22058775
173	0x3e8c80c6	0.27441996
174	0x3dd3065e	0.10303949
175	0x3d892e25	0.066982545
176	0xbd009862	-0.031395324
177	0xbe07aaa6	-0.13248691
178	0xbe86167c	-0.2618903
179	0xbe83a902	-0.2571488
180	0xbcc7c8b6	-0.024387699
181	0x3dc8011c	0.097658366
182	0xbdec81a3	-0.11548164
183	0x3dd42b99	0.10359878
184	0xbe05195d	-0.12997957
185	0x3d69741b	0.056995492
186	0x3bdfdd8b	0.00683183
187	0x3da943e5	0.08264903
188	0xbdbc8dd9	-0.09206743
189	0xbcb034b1	-0.0215095
190	0x3ca88ce5	0.020574996
191	0xbca763a3	-0.020433253
192	0x3d87f7da	0.06639071
193	0x3e62e3f8	0.22157276
194	0x3dbfc94e	0.09364568
195	0xbbb57526	-0.005537647
196	0xbe2bf6fe	-0.16793439
197	0x3d6f0993	0.05835874
198	0xbdff55ea	-0.12467559
199	0xbd798c7c	-0.060924992
200	0x3ea62808	0.32452416
201	0x3e396e90	0.18108582
202	0x3c29ed3f	0.010371505
203	0xbd14c77b	-0.036323052
204	0x3e680db6	0.2266148
205	0xbe36a6e5	-0.17837103
206	0xbe24d287	-0.16095935
207	0x3e327edd	0.17431207
208	0x3ccb3665	0.02480621
209	0xbd96906c	-0.07351765
210	0xbe646298	-0.22303236
211	0xbebfd14e	-0.37464374
212	0x3debcfc3	0.11514237
213	0x3e01eb98	0.12687528
214	0x3e6e4e82	0.23272136
215	0x3e84c51e	0.25931638
216	0x3de43adc	0.11144039
217	0xbe69160f	-0.22762321
218	0x3e933cb8	0.28757262
219	0x3da9bb02	0.08287622
220	0x3d77e9ac	0.06052558
221	0x3e645ef4	0.22301847
222	0xbd7309f0	-0.05933565
223	0x3dbf6c6e	0.09346853
224	0x3e5ec6d9	0.21755542
225	0x3d516b12	0.0511275
226	0xbdcde1d4	-0.10052839
227	0x3e81769c	0.25285804
228	0x3e97ee82	0.29674155
229	0x3daf44ca	0.08558042
230	0xbe5201bf	-0.20508479
231	0x3e2ccdcb	0.16875379
232	0x3dc12073	0.09430017
233	0xbe818b94	-0.25301802
234	0xbe6ec51a	-0.23317376
235	0xbd9d94f7	-0.076944284
236	0x3e0e7b53	0.13914232
237	0x3dd035d1	0.10166515
238	0x3e028d6d	0.12749262
239	0xbe8cc01f	-0.27490327
240	0x3e634a3e	0.2219629
241	0xbcb72621	-0.022357048
242	0x3e30a827	0.17251645
243	0x3e85971e	0.26091856
244	0x3e26a7a9	0.16274895
245	0xb984d835	-0.0002533809
246	0x3e2d962c	0.16951817
247	0xbe066323	-0.13123755
248	0x3e233ec8	0.15941918
249	0x3db0df08	0.0863629
250	0xbbbe4eb8	-0.005807724
251	0x3e37d963	0.1795402
252	0x3e393dee	0.1809003
253	0xbd6c0ab6	-0.057627402
254	0xbdff2807	-0.124588065
255	0xbda17483	-0.07883551

mlp_in.1.weight f4 [16, 512]
0	0xbd53d7ed	-0.051719595
1	0xbd25e8cb	-0.04050521
2	0xbcd6dbf8	-0.026227936
3	0xbcf46642	-0.029833917
4	0x3d95f077	0.07321256
5	0xbd3ca3b9	-0.046054576
6	0xbc6a2143	-0.014290157
7	0x3d59017a	0.052979924
8	0xbd5fcbc3	-0.05463768
9	0xbcad10fd	-0.021126265
10	0x3cd82528	0.026384905
11	0x3cce136a	0.025155742
12	0x3c114aee	0.008867962
13	0xbb3acf7d	-0.002850502
14	0x3cc2cf54	0.023780502
15	0x3d54e4d6	0.051976047
16	0x3d53a2dd	0.05166899
17	0xbd70673e	-0.05869221
18	0xbda9cf14	-0.0829145
19	0x3db9c813	0.09071364
20	0xbcedd0dd	-0.029030258
21	0x3dad340e	0.08457194
22	0xbcf12be6	-0.029439878
23	0x3da407fd	0.08009336
24	0xbcd79cf4	-0.026319958
25	0x3d3989a7	0.04529729
26	0x3d2acc7b	0.041698914
27	0xbd17f7d0	-0.037101567
28	0x3de63636	0.11240809
29	0xbd8afd10	-0.06786549
30	0x3e08e3fa	0.13368216
31	0xbd41bf21	-0.047301415
32	0xbda0460f	-0.078258626
33	0xbcdc73fc	-0.026910774
34	0x3da2dff8	0.07952875
35	0x3d400bc8	0.046886235
36	0xbcc54ecc	-0.024085425
37	0x3dc66e4d	0.09689007
38	0x3d6e1f23	0.058135163
39	0xbd883cfd	-0.066522576
40	0xbd2b218d	-0.041780043
41	0x3d957592	0.072978154
42	0x3cdc339c	0.026880078
43	0x3cad8941	0.021183612
44	0xbd6197d0	-0.05507642
45	0x3d855859	0.065109916
46	0xbd6b2f64	-0.057418242
47	0xbd52a677	-0.051428284
48	0xbb3dd14a	-0.0028963857
49	0x3ca341ec	0.019928895
50	0xbc64357f	-0.01392877
51	0x3d3dde7f	0.046354767
52	0x3c483009	0.012218484
53	0xb9880376	-0.0002594252
54	0x3d9e686f	0.07734763
55	0x3b4566f8	0.0030121189
56	0xbd8f8504	-0.070077926
57	0xb9a9ec7f	-0.00032410395
58	0x3d2dd935	0.042443473
59	0x3bf98d6c	0.0076157358
60	0x3b0a7607	0.0021127479
61	0x3c169c25	0.009192501
62	0xbc075f13	-0.008262414
63	0xbc131bd6	-0.008978805
64	0xbd7fc058	-0.062439293
65	0xbd86bd57	-0.065790825
66	0x3da90cfb	0.08254429
67	0x3c88c4eb	0.01669546
68	0x3da23e39	0.07922024
69	0x3b4fb170	0.0031691454
70	0x3be1fdac	0.006896695
71	0xbcc88a3f	-0.024479983
72	0xbdb3ae1d	-0.08773444
73	0x3c8971e8	0.016777948
74	0x3d3be358	0.04587111
75	0x3c1c832e	0.00955276
76	0xbd85bc47	-0.06530052
77	0x3ce34340	0.027742028
78	0x3d1bf169	0.038072024
79	0xbc3702a0	-0.011170059
80	0x3d6c4484	0.05768253
81	0x3a97d96c	0.0011585183
82	0x3ca84d81	0.02054477
83	0x3c33908d	0.010959757
84	0xbd14adf7	-0.03629872
85	0x3ce4258b	0.027849933
86	0xbcf1e22a	-0.029526789
87	0xbd7d7c6a	-0.06188623
88	0x3d00b264	0.031420127
89	0xbd526451	-0.0513652
90	0xbc93fcbf	-0.018064855
91	0x3a0b67c4	0.00053178915
92	0x3d19e9a0	0.037576318
93	0x3d3a1e86	0.045439266
94	0xbda1906c	-0.078888744
95	0x3cad3e97	0.02114801
96	0xbd511dd3	-0.051053833
97	0x3d9e51d9	0.07730455
98	0xbd29f365	-0.041491885
99	0xbdab8996	-0.08375852
100	0xbcf26bb8	-0.02959238
101	0xbd59868a	-0.053106822
102	0xbca241d1	-0.019806774
103	0xbd28e2bf	-0.041231867
104	0xbd90ee0a	-0.07076652
105	0x3c8f976c	0.017528258
106	0x3d1d2c27	0.038372185
107	0x3cb13fbc	0.021636836
108	0x3d7a7b22	0.061152585
109	0xbcc9a65a	-0.024615455
110	0x3d779c97	0.06045207
111	0x3d5f3f29	0.054503594
112	0xbc4e4dfb	-0.012591834
113	0x3dcfb30a	0.10141571
114	0xbd16d005	-0.036819477
115	0xbd9b1157	-0.07571667
116	0x3cda77a6	0.026668381
117	0x3bf8f42d	0.0075974674
118	0x3dbec4a3	0.09314849
119	0x3c5b6f5f	0.013393252
120	0xbcef2e3a	-0.029196847
121	0xbaece335	-0.0018073084
122	0x3c8f818c	0.017517827
123	0xbd154df2	-0.036451288
124	0x3cc2b1ca	0.023766417
125	0x3c8b73f0	0.017023057
126	0x3b520ccc	0.0032051085
127	0x3c47138c	0.012150656
128	0xbc35b35e	-0.011090128
129	0x3b3655d0	0.0027822144
130	0x3c83a7f9	0.016071307
131	0x3c2dd2f6	0.010609379
132	0x3d684d92	0.0567146
133	0x3ccdfa48	0.025143757
134	0xbdae5ca6	-0.08513765
135	0xbd53fe76	-0.051756345
136	0xbce60257	-0.028077288
137	0xbc86998b	-0.016430637
138	0x3d1c2a0d	0.03812604
139	0xbd08385b	-0.03325687
140	0xbbaa98e4	-0.0052062143
141	0xbb805832	-0.0039167637
142	0x3c4a896a	0.012361864
143	0xbd093ab9	-0.033503268
144	0x3cbc1eb5	0.022963861
145	0xbc37c679	-0.011216753
146	0xbd1275e1	-0.03575695
147	0xbc37e99c	-0.01122513
148	0xbda31391	-0.07962716
149	0xbc5040c5	-0.012710755
150	0x3d6ede92	0.05831773
151	0xbc2e5672	-0.010640727
152	0xbccf9177	-0.025337918
153	0xbcdc3332	-0.02687988
154	0xbd8301dc	-0.06396839
155	0x3c47a451	0.012185172
156	0x3d2091a6	0.0392014
157	0xbcec9ed4	-0.028884329
158	0xbdc3fbeb	-0.09569534
159	0x3d8a3e22	0.06750132
160	0xbdca88ff	-0.09889411
161	0x3d0e143c	0.034687266
162	0x3d14d8ee	0.036339693
163	0xbdefc2b7	-0.11707061
164	0xbdca02ec	-0.098638386
165	0xbd0b7cfe	-0.03405475
166	0xbd54aeef	-0.051924642
167	0x3cfe657e	0.031054255
168	0x3c65491d	0.013994482
169	0xbc15a11b	-0.009132649
170	0xbd865347	-0.06558853
171	0xbd547839	-0.051872466
172	0xbdc5e93d	-0.09663627
173	0x3d942263	0.07233121
174	0x3cf7c4c7	0.030245198
175	0xbc568b3c	-0.0130947195
176	0x3d077e3a	0.033079363
177	0xbcdb3e07	-0.026762975
178	0x3d672ae8	0.056437403
179	0x3da55a67	0.080738835
180	0xbd7b8c3f	-0.061413046
181	0x39f14fe5	0.00046026628
182	0x3c31b0d7	0.010845385
183	0xbd4f6c46	-0.050640367
184	0x3de2c297	0.11072271
185	0xbce3e1f3	-0.027817702
186	0xbda16480	-0.07880497
187	0x3d3decf7	0.046368565
188	0x3de39b65	0.111136235
189	0x3c1f43c0	0.009720743
190	0xbd2acbb2	-0.041698165
191	0x3d9ca34e	0.076483354
192	0xbd21e91d	-0.039528955
193	0xbdb2c371	-0.08728684
194	0x3d06a416	0.03287133
195	0xbd220a09	-0.03956035
196	0x3cca1ef6	0.024672966
197	0x3cdcb208	0.02694036
198	0xbd00d3b8	-0.03145191
199	0xbcce7c22	-0.025205676
200	0x3b6ee179	0.003645031
201	0xbd57e6a0	-0.052710176
202	0x3ce244c7	0.027620686
203	0xbc7b7cc9	-0.015349575
204	0x3cc28e27	0.023749424
205	0x3da73832	0.08165015
206	0xbd83fbf1	-0.064445384
207	0x3d8d13f5	0.06888572
208	0xbc062ff6	-0.008190146
209	0x3d7ec288	0.06219724
210	0x3d08f5d7	0.033437576
211	0x3d6b7cbf	0.057492014
212	0x3d04f361	0.032458667
213	0xbd74ef28	-0.05979839
214	0xbd274831	-0.04084033
215	0xbdaaebcb	-0.08345755
216	0xbd764b65	-0.060130496
217	0xbd68dd63	-0.056851756
218	0x3d314035	0.043274123
219	0xbc33c2fa	-0.010971779
220	0x3d0f780a	0.035026588
221	0x3d80ac7f	0.06282901
222	0x3d88572c	0.06657252
223	0x3d886c24	0.06661251
224	0xbd8cce82	-0.06875326
225	0xbd04096d	-0.03223555
226	0x3dce40c6	0.10070948
227	0xbcb01d72	-0.021498416
228	0xbda7d33b	-0.08194586
229	0x3be1a7c9	0.0068864566
230	0xbd00a4bc	-0.031407103
231	0xbb248885	-0.0025105786
232	0x3c34e3b5	0.011040618
233	0x3b0a2e10	0.0021084584
234	0x3d80fb43	0.06297924
235	0x3d03024e	0.03198462
236	0x3cfa8653	0.030581629
237	0xbc2ccfea	-0.010547617
238	0x3d4065c1	0.04697204
239	0x3d1247d2	0.035713024
240	0xbcc97ba6	-0.024595093
241	0xbd29ee2b	-0.0414869
242	0x3cb49dec	0.02204796
243	0xbcacfb5c	-0.021115951
244	0xbd8ba017	-0.06817644
245	0xbd6fb609	-0.05852321
246	0x3d807f30	0.06274259
247	0x3cee854b	0.029116293
248	0xbc21b0c7	-0.009868807
249	0x3d1762f8	0.03695962
250	0xbc8be068	-0.017074779
251	0x3d05a940	0.032632113
252	0x3d2a2056	0.041534744
253	0x3cd5cd1b	0.026098778
254	0x3d8dc452	0.06922211
255	0x38f0da74	0.00011484782

mlp_in.1.bias f4 [16]
0	0xbd6f7f7b	-0.058471184
1	0xbd1eaabd	-0.038737047
2	0xbe224b68	-0.15849078
3	0x3be534c0	0.0069948137
4	0x3e1456e2	0.14486268
5	0xbe34e700	-0.17666245
6	0xbde7addd	-0.11312459
7	0x3e3b69cb	0.18302076
8	0xbd00b597	-0.031423178
9	0x3d5b5c4f	0.05355483
10	0xbe02693c	-0.12735456
11	0x3d128444	0.03577067
12	0xbe6670aa	-0.22503915
13	0xbe66e3f6	-0.22547898
14	0x3c86de73	0.016463494
15	0x3e4f9fc5	0.20275791

model.project_0.weight f4 [256, 16]
0	0xbb28515b	-0.0025683257
1	0xbe23dfb3	-0.16003303
2	0x3e974bdb	0.2955006
3	0xbd4d5507	-0.050129917
4	0xbd8116d8	-0.06303185
5	0x3d97326e	0.073826656
6	0x3e8199a0	0.2531252
7	0xbe80edc7	-0.2518141
8	0xbe3bd000	-0.18341064
9	0xbd6fbb54	-0.05852826
10	0x3d4c86dd	0.049933303
11	0xbd3d0900	-0.04615116
12	0x3d4c6fa5	0.04991116
13	0x3dbe12a4	0.09280899
14	0x3e56aa03	0.20963292
15	0x3d1ad615	0.03780182
16	0xbe0aa1c0	-0.13538265
17	0xbe72e9ee	-0.2372205
18	0xbe083390	-0.1330092
19	0xbdeb3934	-0.1148552
20	0x3e2970f9	0.16547002
21	0x3e4dd46f	0.20100568
22	0x3e392351	0.18079878
23	0x3e34e0e9	0.17663921
24	0x3dec0b50	0.11525595
25	0xbdeafc90	-0.11473954
26	0xbd164804	-0.036689773
27	0x3e5056a4	0.20345551
28	0x3dd215d3	0.10258069
29	0x3db3592d	0.08757243
30	0x3e36b2f2	0.178417
31	0x3dfa32cc	0.1221672
32	0x3df36587	0.11884599
33	0x3c5b2bed	0.013377172
34	0x3e124726	0.14284953
35	0xbe522870	-0.20523238
36	0x3ab37b23	0.0013693314
37	0xbe84bc17	-0.2592475
38	0x3e0031f2	0.12519053
39	0xbe0bbdef	-0.13646673
40	0xbd2242b5	-0.039614398
41	0xbcdd76a2	-0.027034108
42	0x3e095511	0.13411357
43	0x3e72fefd	0.23730083
44	0x3d56ef48	0.05247429
45	0xbdf9ec2f	-0.122032516
46	0xbdd27de5	-0.10277919
47	0xbbfe7c04	-0.0077662487
48	0xbe4129ae	-0.18863556
49	0x3e008024	0.12548882
50	0xbd6bbb0e	-0.057551436
51	0x3dab4285	0.08362297
52	0xbcdd51de	-0.027016576
53	0xbe7ac482	-0.24489024
54	0xbe26121c	-0.16217846
55	0xbd26ea20	-0.040750623
56	0x3e260958	0.16214502
57	0xbec5ca46	-0.38630885
58	0x3d9281da	0.071536735
59	0x3e65b2ab	0.22431438
60	0x3db78795	0.08961407
61	0x3e242be1	0.16032363
62	0x3e657778	0.22408855
63	0x3dc9892e	0.09840618
64	0x3e137978	0.14401805
65	0x3e19aff6	0.1500853
66	0xbe5d13c0	-0.21589565
67	0xbe057160	-0.1303153
68	0x3df26f3b	0.11837622
69	0x3e61db25	0.22056253
70	0xbe61c9ca	-0.22049633
71	0xbd82d987	-0.06389146
72	0xbe6d1595	-0.23152764
73	0x3d54ac48	0.051922113
74	0xbdd34ab7	-0.10316985
75	0xbe066e79	-0.1312808
76	0xbe0dfd18	-0.13866079
77	0x3e94fd71	0.2909961
78	0x3e45a4a8	0.19301093
79	0xbdad788f	-0.0847026
80	0x3e115c0d	0.14195271
81	0x3c9961bb	0.01872336
82	0x3d278dda	0.040906765
83	0x3c88c12b	0.016693672
84	0x3e15d04c	0.1463024
85	0xbe0229ef	-0.12711309
86	0x3db2326f	0.08701026
87	0x3e43bf25	0.19115885
88	0x3c8ba5ce	0.017046835
89	0xbe8ce091	-0.2751508
90	0x3e4eac9e	0.20183036
91	0xbe8b90a0	-0.27258778
92	0xbe6e13dd	-0.23249765
93	0x3d96780c	0.07347116
94	0x3d76711e	0.06016647
95	0xbe33d30b	-0.17560975
96	0x3e64163b	0.22274105
97	0xbe3de715	-0.18545182
98	0xbd14e244	-0.036348596
99	0xbdc28cd2	-0.094995156
100	0x3cbf93e6	0.023385953
101	0xbe74a8df	-0.23892544
102	0x3e4b8a7a	0.19877043
103	0x3e0b514f	0.13605236
104	0xbe046971	-0.12930848
105	0xbe4228fa	-0.18960944
106	0x3d7151dd	0.05891596
107	0x3e5c8387	0.21534549
108	0xbe6fdbf0	-0.23423743
109	0x3c3756ac	0.011190098
110	0xbcca77b5	-0.024715284
111	0xbe0ffeff	-0.14062117
112	0xbea079bb	-0.31342873
113	0x3c633756	0.013868174
114	0xbd07cc46	-0.033153795
115	0x3d979cc3	0.07402947
116	0x3de1c2a6	0.11023454
117	0x3e0e07a4	0.13870102
118	0xbe293b5c	-0.1652655
119	0xbe3e4ec0	-0.18584728
120	0xbe570719	-0.20998801
121	0x3e1eb2a6	0.15497836
122	0x3d9b1871	0.07573021
123	0xbe81ced1	-0.253531
124	0x3e8d5f90	0.2761197
125	0x3e5478fa	0.20749274
126	0x3d02754d	0.031850148
127	0x3db59318	0.088659465
128	0x3e3cc6de	0.18435237
129	0xbc5c2cc8	-0.013438411
130	0x3e771eb4	0.24132806
131	0xbd3aa81d	-0.04557048
132	0xbdac099b	-0.084002696
133	0x3d44b3bf	0.04802298
134	0x3da67b41	0.081289776
135	0x3e2a417c	0.16626543
136	0x3e6d7b57	0.23191582
137	0xbe843259	-0.25819662
138	0x3de46abc	0.111531705
139	0x3d9e8c8f	0.07741653
140	0xbe94a5fc	-0.29032886
141	0xbeae348d	-0.34024468
142	0xbd2d4666	-0.042303465
143	0x3e84eee4	0.2596351
144	0xbe5eef4f	-0.21770976
145	0x3e074046	0.13208112
146	0xbd39ae7c	-0.045332417
147	0xbe911555	-0.28336588
148	0x3e48a7aa	0.19595209
149	0xbdbc2554	-0.09186807
150	0x3de9588a	0.113938406
151	0x3e6beac0	0.23038769
152	0x3e310458	0.17286813
153	0xbe31dc31	-0.17369153
154	0xbd151141	-0.036393408
155	0xbe00829e	-0.12549827
156	0x3dbe73ac	0.092994064
157	0xbd95c9bf	-0.07313871
158	0x3e9fa7f0	0.31182814
159	0xbe62b7d5	-0.22140439
160	0x3d86b969	0.06578333
161	0x3e8d2095	0.2756392
162	0xbd96e2fa	-0.07367511
163	0xbe0446f1	-0.12917687
164	0xbe3554c9	-0.17708124
165	0x3d3d3f7f	0.046203133
166	0xbe1001a5	-0.14063127
167	0xbda2737b	-0.079321824
168	0x3e1cf111	0.15326335
169	0x3dd8f63e	0.10593842
170	0xbd16cd76	-0.036817037
171	0xbe43c660	-0.19118643
172	0x3ea48ecc	0.32140195
173	0x3e3e1c60	0.18565512
174	0xbc6d244f	-0.014473989
175	0x3dfbd7e7	0.122970395
176	0x3e03264f	0.12807582
177	0xbe4360b4	-0.19079858
178	0xbd871c47	-0.0659719
179	0x3e7d622b	0.2474448
180	0xbe3e06da	-0.18557301
181	0x3c3c21bd	0.011482653
182	0xbd592b44	-0.053019777
183	0x3ccba842	0.024860505
184	0x3d7934fa	0.060841538
185	0xbe51a45e	-0.20472857
186	0xbe34014c	-0.1757862
187	0xbe5763a8	-0.2103411
188	0xbe5fa0a2	-0.2183862
189	0xbe14a47a	-0.14515868
190	0xbe889da5	-0.26682773
191	0x3e406afd	0.18790813
192	0xbd97006c	-0.07373127
193	0xbe15c76c	-0.14626855
194	0xbe1c6472	-0.15272692
195	0xbcb26fc1	-0.021781804
196	0x3d8acc34	0.0677723
197	0xbe39da4f	-0.18149684
198	0x3e9340b5	0.28760305
199	0xbe93bea8	-0.28856397
200	0xbeadb84d	-0.33929673
201	0x3da62227	0.08111983
202	0xbe3ac546	-0.18239316
203	0x3e04d3e3	0.12971453
204	0xbc5fbc26	-0.013655698
205	0xbcef61da	-0.029221464
206	0x3d944042	0.07238819
207	0xbd7b1893	-0.061302733
208	0xbe18938d	-0.14900036
209	0x3e4b18e8	0.1983372
210	0xbe605ab7	-0.21909605
211	0x3ca076a6	0.019587826
212	0xbd1bdec4	-0.038054243
213	0x3e4c44b9	0.1994809
214	0xbce5e81f	-0.028064786
215	0xbe39a6e8	-0.18130076
216	0x3e297491	0.16548373
217	0x3e044185	0.12915619
218	0xbe4600dc	-0.19336265
219	0x3da52900	0.08064461
220	0x3dbc9cc0	0.09209585
221	0xbcd0f438	-0.025507078
222	0xbd947c3b	-0.072502576
223	0xbcdbe621	-0.026843132
224	0xbe5b90f5	-0.21442015
225	0xbe17a943	-0.14810662
226	0xbd9bcea7	-0.07607775
227	0x3d529332	0.051409908
228	0xbe78111a	-0.24225274
229	0x3e7741e2	0.24146226
230	0x3e8c517b	0.27405915
231	0x3a970f25	0.0011524899
232	0xbe2b6505	-0.16737755
233	0xbe066c1d	-0.1312718
234	0xbd1240a1	-0.035706166
235	0xbdee1b61	-0.11626316
236	0x3d9d89d8	0.07692307
237	0xbe06af5d	-0.13152833
238	0x3dff8940	0.1247735
239	0x3ded57ee	0.11589037
240	0x3d827cdd	0.06371472
241	0xbe393511	-0.1808665
242	0xbda013e8	-0.07816297
243	0x3c9e7e7f	0.019347427
244	0xbd9e4f31	-0.07729948
245	0xbe50c7f4	-0.20388776
246	0x3e28b15b	0.16473906
247	0x3e866240	0.26246834
248	0xbdff8831	-0.12477148
249	0x3e49bd73	0.19701175
250	0xbdf1085a	-0.11769171
251	0xbd2ab28e	-0.04167419
252	0xbd881175	-0.06643955
253	0xbe805a4f	-0.250689
254	0x3dca8fe5	0.09890727
255	0x3e31bdcf	0.17357562

model.project_0.bias f4 [256]
0	0xbe1ab64c	-0.15108603
1	0xbbe7f75d	-0.0070790485
2	0x3d806a93	0.062703274
3	0xbe595d99	-0.21227111
4	0xbe32451b	-0.17409174
5	0xbe961e36	-0.29319924
6	0x3e9d542c	0.3072828
7	0xbebab18e	-0.36463588
8	0xbcd9638f	-0.026536731
9	0xbe06730f	-0.13129829
10	0xbeb692f3	-0.35658988
11	0x3bbc34d3	0.005743602
12	0xbdab2199	-0.083560176
13	0xbe3ae315	-0.18250687
14	0xbe4d45d8	-0.20046175
15	0xbe7c0830	-0.24612498
16	0x3e212a86	0.15738878
17	0xbd90b77a	-0.070662454
18	0x3e09a48f	0.1344168
19	0xbe77464e	-0.24147913
20	0xbd19ac8a	-0.03751806
21	0xbe0bc6f0	-0.13650107
22	0xbd23eed0	-0.04002267
23	0xbe5b5176	-0.21417794
24	0xbe8eb457	-0.27871963
25	0xbec0060b	-0.3750461
26	0xbdc4419a	-0.09582825
27	0xbe5c758d	-0.21529217
28	0xbcba85bc	-0.022768848
29	0x3c85d4ba	0.016336787
30	0xbc05e7ee	-0.008172972
31	0xbe88fba3	-0.26754484
32	0x3d9cccc4	0.076562434
33	0xbba84397	-0.0051350105
34	0xbe430ac3	-0.19047074
35	0x3d13368a	0.035940684
36	0x3da3e9a4	0.08003548
37	0xbc99e037	-0.018783672
38	0x3d94b57f	0.0726118
39	0xbe0bc582	-0.13649562
40	0xbe1bf564	-0.15230328
41	0xbe993adb	-0.29927716
42	0xbe7d1afd	-0.24717326
43	0xbdcfdec6	-0.101499125
44	0xbe390055	-0.18066533
45	0xbd43cd88	-0.04780343
46	0xbccaf033	-0.024772739
47	0xbe376f85	-0.17913635
48	0xbdde126c	-0.108433574
49	0xbe1987f4	-0.14993268
50	0x3da19162	0.07889058
51	0xbb041c1a	-0.0020158351
52	0x3d3cdbee	0.04610818
53	0xbe339047	-0.17535506
54	0xbea87aa1	-0.32906058
55	0x3d188293	0.0372339
56	0xbe984544	-0.29740345
57	0xbea756bb	-0.32683358
58	0xbe77c0a2	-0.24194577
59	0xbe1f0260	-0.1552825
60	0xbea25907	-0.31708547
61	0xbe37dbb8	-0.1795491
62	0xbc84a8f0	-0.016193837
63	0x3e08231b	0.13294642
64	0x3e5e8a2d	0.21732397
65	0x3d81eea8	0.06344348
66	0xbe6c3166	-0.23065719
67	0xbd612a6d	-0.0549721
68	0x3ea2fc8c	0.31833303
69	0xbdb895e8	-0.09012967
70	0xbd980bf0	-0.07424152
71	0xbd7d2deb	-0.06181137
72	0xbec5f1df	-0.38661095
73	0xbe28b9a7	-0.16477071
74	0x3cafc785	0.021457443
75	0xbecfd80f	-0.40594527
76	0xbd9fe2f7	-0.07806962
77	0xbd00062f	-0.031255897
78	0xbe76d813	-0.24105863
79	0x3de43b9d	0.11144183
80	0xbe837e90	-0.25682497
81	0xbdf1cb7c	-0.1180639
82	0xbeb8c422	-0.36087137
83	0xbec4199d	-0.3830079
84	0xbdba4a0e	-0.09096156
85	0xbddf2338	-0.10895389
86	0xbd6a4d9c	-0.05720292
87	0x3e376983	0.17911343
88	0xbed43c34	-0.4145218
89	0xbe4f9827	-0.20272885
90	0x3da0d68f	0.07853424
91	0xbd8055b9	-0.0626635
92	0xbe5a5694	-0.2132209
93	0xbd08d921	-0.033410195
94	0xbe79fa73	-0.24411945
95	0xbc14bc5f	-0.009078114
96	0xbe5919ec	-0.21201295
97	0xbca858ef	-0.02055022
98	0xbde39d4e	-0.11113988
99	0xbeaa24f3	-0.33231315
100	0xbce23808	-0.027614608
101	0xbeac552c	-0.3365873
102	0x3da8bc23	0.08239009
103	0xbe9a52e1	-0.30141357
104	0xbdadeac7	-0.08492046
105	0xbd9ef16e	-0.07760893
106	0x3d3c41b7	0.045961108
107	0x3db0c18b	0.086306654
108	0xbe270402	-0.16310123
109	0xbcbc530e	-0.022988822
110	0xbdcc29c9	-0.099689074
111	0xbe341faf	-0.17590211
112	0xbe6c43b8	-0.23072708
113	0x3d82e99b	0.06392213
114	0xbe22f84e	-0.15915033
115	0xbe47b876	-0.1950396
116	0xbe9c6fcb	-0.3055404
117	0xbe0952a3	-0.1341043
118	0xbda26ccd	-0.07930908
119	0xbcb5b7c2	-0.02218235
120	0xbe9bd3b8	-0.30434966
121	0xbe0b37d7	-0.1359552
122	0xbe0850c0	-0.13312054
123	0xbe76f6cd	-0.24117585
124	0xbe9fa688	-0.3118174
125	0xbe4182f2	-0.18897608
126	0xbeee2748	-0.46514344
127	0xbca13022	-0.019676272
128	0xbc708edb	-0.014682497
129	0xbe88a1f8	-0.26686072
130	0xbda3466c	-0.07972416
131	0xbe1e2968	-0.15445483
132	0xbe9041ec	-0.28175294
133	0x3d8c3304	0.06845668
134	0xbe78bfe9	-0.24291958
135	0xbe92e374	-0.28689158
136	0x3df71641	0.120647915
137	0xbd4566d4	-0.048193768
138	0x3e0582dc	0.130382
139	0xbe0f3c54	-0.13987857
140	0xbebef0fe	-0.37293237
141	0xbd8a6e8a	-0.06759365
142	0xbe26c89d	-0.16287465
143	0xbe8c3d0f	-0.27390334
144	0xbec4dd3e	-0.38450044
145	0xbea7cef9	-0.32775095
146	0xbe3dd336	-0.18537602
147	0x3e74c0bb	0.23901646
148	0x3d799204	0.060930267
149	0xbe576d88	-0.21037877
150	0x3e00e81f	0.12588547
151	0xbea1895e	-0.31550115
152	0xbe66c9f1	-0.22537972
153	0xbcec6bb7	-0.028859956
154	0x3cbe02e8	0.023194745
155	0xbe66640a	-0.224991
156	0xbd30f4a3	-0.043202054
157	0xbd9b6869	-0.07588274
158	0x3dbb4f86	0.09146027
159	0xbe226b09	-0.15861143
160	0xbe9a1052	-0.30090576
161	0xbcbe489c	-0.023227982
162	0xbebf50b7	-0.37366268
163	0xbea31512	-0.31852013
164	0xbe39b514	-0.18135482
165	0x3e0ae75c	0.13564819
166	0xbca23893	-0.019802367
167	0xbd56d80e	-0.05245214
168	0xbeb468e6	-0.3523628
169	0xbee85031	-0.4537368
170	0xbeca0802	-0.39459234
171	0xbe4f81f0	-0.20264411
172	0xbe676f11	-0.22600962
173	0xbda28c1e	-0.079368815
174	0x3d4b6b14	0.049662665
175	0xbe8d2bfb	-0.27572617
176	0x3cb8c42d	0.022554481
177	0x3dbf583a	0.09343
178	0x3e1b4b0b	0.15165345
179	0xbed8169b	-0.42204747
180	0xbdc80237	-0.097660474
181	0x3d22780a	0.03966526
182	0x3b9c447c	0.004768906
183	0x3c6b1a9b	0.014349605
184	0xbe958df6	-0.2920987
185	0xbd155587	-0.03645852
186	0x3d8bc7eb	0.06825241
187	0xbd114135	-0.035462577
188	0xbe9d362b	-0.3070539
189	0x3cb7867a	0.02240299
190	0xbe6b6488	-0.22987568
191	0xbdf174e8	-0.11789876
192	0xbe22e3ed	-0.1590726
193	0x3e3395e5	0.17537649
194	0xbdd99b20	-0.10625291
195	0xbe112675	-0.14174826
196	0xbe59c5fe	-0.21266934
197	0x3ce46e37	0.027884586
198	0xbe74c822	-0.2390447
199	0xbd9696e5	-0.073529996
200	0xbd1a93c6	-0.037738584
201	0xbe062249	-0.13099016
202	0xbe43ae7d	-0.19109531
203	0xbe799193	-0.24371938
204	0xbe38bd01	-0.1804085
205	0xbea2f832	-0.31829983
206	0xbe806aa3	-0.25081357
207	0xbe23d4f8	-0.1599921
208	0xbd9b24a7	-0.0757535
209	0xbd67b376	-0.05656763
210	0xbeda33d1	-0.42617658
211	0xbcad553f	-0.021158813
212	0xbe1e1335	-0.15437014
213	0xbe212b34	-0.15739137
214	0xbea46e21	-0.32115272
215	0xbce90d2d	-0.028448666
216	0xbe33aaaa	-0.17545572
217	0xbd93568b	-0.07194241
218	0xbb6f452e	-0.003650974
219	0xbd994e50	-0.0748564
220	0x3d0d61d8	0.03451714
221	0xbe9a23b6	-0.3010537
222	0x3d110e8a	0.035414256
223	0xbebe28a0	-0.3714037
224	0xbe4d3ca8	-0.2004267
225	0x3da4ec5a	0.08052893
226	0x3d69bac5	0.057062883
227	0xbe95f0aa	-0.29285175
228	0x3daef955	0.0854365
229	0xbeb3dbb3	-0.35128555
230	0xbe919f53	-0.28441867
231	0xbde750d4	-0.112947136
232	0xbe9751fb	-0.29554734
233	0xbe0e18b8	-0.13876617
234	0xbe81345b	-0.25235257
235	0xbe43e835	-0.19131549
236	0xbd8755da	-0.06608172
237	0xbd2275e9	-0.03966323
238	0xbda16f0f	-0.07882511
239	0xbc3a0ea0	-0.011356026
240	0xbc4998fa	-0.012304539
241	0xbd840f8b	-0.06448277
242	0xbe2c5d37	-0.16832434
243	0x39c0ebbd	0.00036796732
244	0xbe845178	-0.25843406
245	0xbc5546e3	-0.013017389
246	0xbde79a9a	-0.11308785
247	0xbdeca932	-0.11555709
248	0xbce5943b	-0.028024783
249	0xbe916bad	-0.28402463
250	0x3d87dc3e	0.06633805
251	0xbecd8587	-0.40140936
252	0xbd8d27dd	-0.06892369
253	0xbe930123	-0.28711805
254	0xbcd5e570	-0.02611038
255	0xbe632d21	-0.22185184

model.hidden_0.wa f4 [1, 64]
0	0x3f800000	1.0
1	0x3f800000	1.0
2	0x3f800000	1.0
3	0x3f800000	1.0
4	0x3f800000	1.0
5	0x3f800000	1.0
6	0x3f800000	1.0
7	0x3f800000	1.0
8	0x3f800000	1.0
9	0x3f800000	1.0
10	0x3f800000	1.0
11	0x3f800000	1.0
12	0x3f800000	1.0
13	0x3f800000	1.0
14	0x3f800000	1.0
15	0x3f800000	1.0
16	0x3f800000	1.0
17	0x3f800000	1.0
18	0x3f800000	1.0
19	0x3f800000	1.0
20	0x3f800000	1.0
21	0x3f800000	1.0
22	0x3f800000	1.0
23	0x3f800000	1.0
24	0x3f800000	1.0
25	0x3f800000	1.0
26	0x3f800000	1.0
27	0x3f800000	1.0
28	0x3f800000	1.0
29	0x3f800000	1.0
30	0x3f800000	1.0
31	0x3f800000	1.0
32	0x3f800000	1.0
33	0x3f800000	1.0
34	0x3f800000	1.0
35	0x3f800000	1.0
36	0x3f800000	1.0
37	0x3f800000	1.0
38	0x3f800000	1.0
39	0x3f800000	1.0
40	0x3f800000	1.0
41	0x3f800000	1.0
42	0x3f800000	1.0
43	0x3f800000	1.0
44	0x3f800000	1.0
45	0x3f800000	1.0
46	0x3f800000	1.0
47	0x3f800000	1.0
48	0x3f800000	1.0
49	0x3f800000	1.0
50	0x3f800000	1.0
51	0x3f800000	1.0
52	0x3f800000	1.0
53	0x3f800000	1.0
54	0x3f800000	1.0
55	0x3f800000	1.0
56	0x3f800000	1.0
57	0x3f800000	1.0
58	0x3f800000	1.0
59	0x3f800000	1.0
60	0x3f800000	1.0
61	0x3f800000	1.0
62	0x3f800000	1.0
63	0x3f800000	1.0

model.hidden_0.wb f4 [1, 64]
0	0x3f55f7bc	0.8358114
1	0x3f6a547d	0.9153517
2	0x3f6cc0ef	0.92481893
3	0x3f530aad	0.82438165
4	0x3f4a50db	0.79029626
5	0x3f502acb	0.81315297
6	0x3f728fb7	0.9475054
7	0x3f6f1db4	0.934047
8	0x3f59026e	0.8476933
9	0x3f40b9d8	0.75283575
10	0x3f4e883e	0.8067664
11	0x3f4f0719	0.80870205
12	0x3f3d57b7	0.7396197
13	0x3f5c6b39	0.8610111
14	0x3f78ac3b	0.971378
15	0x3f86fa05	1.054505
16	0x3f61b3a0	0.8816471
17	0x3f5b2eb3	0.8561813
18	0x3f5ae3d2	0.85503876
19	0x3f68413d	0.90724546
20	0x3f6a7118	0.9157882
21	0x3f6b5848	0.9193158
22	0x3f6d7106	0.92750585
23	0x3f6bb01b	0.9206559
24	0x3f6a42df	0.9150829
25	0x3f5da627	0.86581653
26	0x3f75852d	0.95906335
27	0x3f5a3450	0.8523607
28	0x3f6b5747	0.9193005
29	0x3f50ddbd	0.81588346
30	0x3f5de6c7	0.86680263
31	0x3f6bcac8	0.92106295
32	0x3f6fc67f	0.93662256
33	0x3f6f1b20	0.93400764
34	0x3f4f0f0b	0.8088233
35	0x3f60affb	0.87768525
36	0x3f66bb96	0.90129983
37	0x3f633d74	0.88765645
38	0x3f49c262	0.7881223
39	0x3f7b186c	0.9808414
40	0x3f3c7a1c	0.73623824
41	0x3f4ada50	0.7923937
42	0x3f6bc73a	0.9210087
43	0x3f77a130	0.9673033
44	0x3f66d93f	0.9017524
45	0x3f390bc7	0.72283596
46	0x3f621670	0.88315487
47	0x3f6ab893	0.9168789
48	0x3f453834	0.77038884
49	0x3f6ae9a6	0.9176277
50	0x3f56f2ad	0.83964044
51	0x3f6fa84e	0.9361619
52	0x3f5fbf41	0.87401205
53	0x3f5c95f6	0.8616632
54	0x3f75bb04	0.9598849
55	0x3f6c872a	0.92393744
56	0x3f6f925e	0.93582714
57	0x3f5f833b	0.87309617
58	0x3f463c07	0.77435344
59	0x3f2cd75e	0.67516124
60	0x3f4fd4fa	0.8118435
61	0x3f5ce696	0.86289346
62	0x3f59b6fe	0.8504485
63	0x3f75b6e3	0.9598219

model.hidden_0.dist_basal.w f4 [768]
0	0x3f0d8819	0.55285794
1	0x3f3531e2	0.7077924
2	0x3f3675f2	0.7127372
3	0x3f63243f	0.8872718
4	0x3f56e164	0.8393767
5	0x3f818c72	1.0120986
6	0x3f52741a	0.82208407
7	0x3f68a947	0.90883297
8	0x3f643e7e	0.89157856
9	0x3f741a75	0.9535287
10	0x3f77ec84	0.9684527
11	0x3f4d520b	0.8020331
12	0x3f5db6dd	0.8660715
13	0x3f322f39	0.69603306
14	0x3f46155f	0.7737636
15	0x3f5cf1ee	0.86306655
16	0x3f48d83b	0.7845494
17	0x3f0b30f7	0.5437159
18	0x3f2c33c3	0.6726648
19	0x3f569591	0.8382197
20	0x3ee6d894	0.4508711
21	0x3f321f61	0.6957913
22	0x3f83c242	1.0293658
23	0x3f6c3b7f	0.92278284
24	0x3f48cc1f	0.78436464
25	0x3f2672d3	0.6501896
26	0x3f6ce875	0.925422
27	0x3f5cf335	0.86308604
28	0x3f51191b	0.8167893
29	0x3f623b10	0.8837137
30	0x3f5872d4	0.84550214
31	0x3f5128fb	0.81703156
32	0x3f72adf3	0.94796675
33	0x3f437df0	0.7636404
34	0x3f6bb683	0.92075366
35	0x3f5d9216	0.86551034
36	0x3f3833d4	0.71954083
37	0x3f46ca31	0.7765227
38	0x3f584e60	0.8449459
39	0x3f4e9a12	0.8070384
40	0x3f3faa71	0.7486945
41	0x3f43049e	0.7617892
42	0x3f4ab429	0.7918115
43	0x3f384811	0.71984965
44	0x3f27be6f	0.65524954
45	0x3f3da813	0.74084586
46	0x3f5deacb	0.8668639
47	0x3f4fe05f	0.8120174
48	0x3f2c3fa8	0.6728463
49	0x3f42049c	0.75788283
50	0x3f10e7a7	0.56603473
51	0x3f4d7bd9	0.802671
52	0x3f275516	0.65364206
53	0x3f12152b	0.5706355
54	0x3f592ac0	0.84830856
55	0x3f53e725	0.82774574
56	0x3f56b51a	0.8387009
57	0x3f1fa02a	0.62353766
58	0x3f5e38fc	0.868057
59	0x3f1c3051	0.61011225
60	0x3efff2ae	0.49989837
61	0x3f56a103	0.83839434
62	0x3f5141a9	0.81740814
63	0x3f371a4e	0.7152451
64	0x3f2a192a	0.6644465
65	0x3f06e245	0.5268901
66	0x3f50dafb	0.8158414
67	0x3f1d960f	0.61557096
68	0x3f3e66d9	0.74375683
69	0x3f3cbfa8	0.73729944
70	0x3f50ed90	0.8161249
71	0x3f40c878	0.7530589
72	0x3f57da67	0.8431763
73	0x3f3ce691	0.73789316
74	0x3f50dcdc	0.81587005
75	0x3f70b113	0.94020194
76	0x3f5d1c36	0.8637117
77	0x3f0ea801	0.55725104
78	0x3f52386d	0.8211735
79	0x3f4c780a	0.79870665
80	0x3f34747e	0.7049025
81	0x3f466a55	0.77506
82	0x3f727073	0.94702834
83	0x3f6c49c9	0.9230009
84	0x3f66ef9e	0.90209377
85	0x3f83f9d3	1.0310615
86	0x3f6a4299	0.9150787
87	0x3f6e5bcf	0.9310884
88	0x3f587ea2	0.84568226
89	0x3f51a09a	0.81885684
90	0x3f6bbda2	0.9208623
91	0x3f572edc	0.84055877
92	0x3f72d86b	0.9486148
93	0x3f68bb69	0.90910965
94	0x3f6c49ec	0.92300296
95	0x3f71ae70	0.94406796
96	0x3f6426ef	0.8912191
97	0x3f53e301	0.82768255
98	0x3f42fa1c	0.76162887
99	0x3f6426ef	0.8912191
100	0x3f4dfd20	0.80464363
101	0x3f677e03	0.90426654
102	0x3f66a46a	0.90094626
103	0x3f4eb5ac	0.8074596
104	0x3f62882a	0.8848902
105	0x3f6c27dd	0.92248327
106	0x3f4bef57	0.7966208
107	0x3f55360b	0.8328559
108	0x3f5f5b82	0.87249005
109	0x3f3927ab	0.72326154
110	0x3f579b41	0.84221274
111	0x3f4ebb4c	0.8075454
112	0x3f587d2b	0.8456599
113	0x3f63f895	0.8905118
114	0x3f5bc559	0.85848004
115	0x3f534752	0.825307
116	0x3f500432	0.812564
117	0x3f5b6ef3	0.8571617
118	0x3f4259ac	0.7591808
119	0x3f549838	0.8304477
120	0x3ee10d02	0.43955237
121	0x3f017dec	0.50582767
122	0x3f2ddd6e	0.67916
123	0x3f49bd9c	0.78804946
124	0x3f32ea11	0.69888407
125	0x3f306bae	0.68914306
126	0x3f07528a	0.5286032
127	0x3f62ae24	0.8854697
128	0x3f49ba24	0.78799653
129	0x3f4140bc	0.754894
130	0x3f5f848b	0.8731162
131	0x3f2f920f	0.6858224
132	0x3f5d3749	0.86412483
133	0x3f18670b	0.5953223
134	0x3ef04aa7	0.46931955
135	0x3f543348	0.8289075
136	0x3f32162a	0.6956507
137	0x3f3309cd	0.6993683
138	0x3f259a01	0.64688116
139	0x3f418fb2	0.75609887
140	0x3f533e9d	0.82517415
141	0x3f40fde1	0.7538739
142	0x3f4c6fd7	0.79858154
143	0x3f360242	0.71097195
144	0x3f34936f	0.70537466
145	0x3f063b39	0.52434117
146	0x3f5e246b	0.8677432
147	0x3f467f41	0.77537924
148	0x3f5041fa	0.8135067
149	0x3f2b1d31	0.6684142
150	0x3f709ba7	0.93987507
151	0x3f384ca2	0.7199193
152	0x3f426ea8	0.759501
153	0x3f6aca45	0.9171489
154	0x3f47384d	0.77820283
155	0x3f5b2313	0.85600394
156	0x3f4ca7e8	0.79943705
157	0x3f2969af	0.66176885
158	0x3f5c579c	0.8607118
159	0x3ebacc50	0.36484003
160	0x3f52225a	0.82083666
161	0x3f4f5481	0.8098832
162	0x3f589ddc	0.84615874
163	0x3f628aee	0.8849324
164	0x3f33874d	0.7012833
165	0x3f6957d7	0.9114966
166	0x3f6c05e5	0.92196494
167	0x3f540538	0.82820463
168	0x3f55d87b	0.8353345
169	0x3f21e505	0.6324008
170	0x3f5a6513	0.85310477
171	0x3f67db85	0.90569335
172	0x3f30ef60	0.6911526
173	0x3f61d1b1	0.8821059
174	0x3f5f8e49	0.87326485
175	0x3f3acd6a	0.72969687
176	0x3f7dd0c9	0.99146706
177	0x3f488eed	0.7834309
178	0x3f56b295	0.83866245
179	0x3f76482b	0.9620387
180	0x3f44fb61	0.76946074
181	0x3f1b599a	0.60683596
182	0x3f16a358	0.5884299
183	0x3f166f03	0.5876314
184	0x3f3677b7	0.7127642
185	0x3f5b6e07	0.85714763
186	0x3f5fa91f	0.87367433
187	0x3f397e56	0.724584
188	0x3f742e73	0.95383376
189	0x3f6d0874	0.92591023
190	0x3f7bf3fe	0.9841918
191	0x3f5cc174	0.86232686
192	0x3f2b51c1	0.6692162
193	0x3f5a6100	0.8530426
194	0x3f30b2df	0.69022936
195	0x3f5d1f07	0.8637547
196	0x3f3fb464	0.7488463
197	0x3ee3ba1a	0.44477922
198	0x3f858b5f	1.0433158
199	0x3ee3ba1a	0.44477922
200	0x3f53f706	0.827988
201	0x3f56f1e5	0.8396285
202	0x3f487e35	0.78317577
203	0x3f62ae4b	0.885472
204	0x3f66952f	0.90071386
205	0x3f3ec4c2	0.7451898
206	0x3f316666	0.6929687
207	0x3f28c8e0	0.6593151
208	0x3f22d46c	0.6360538
209	0x3f3def2c	0.7419307
210	0x3f428802	0.7598878
211	0x3f65e9b8	0.8980975
212	0x3f50f06f	0.8161687
213	0x3f1a30c5	0.60230666
214	0x3f58e7ab	0.847285
215	0x3f80fb7b	1.0076746
216	0x3f624d7b	0.88399476
217	0x3f136eef	0.57591146
218	0x3f30a0c8	0.6899533
219	0x3ef19175	0.47181287
220	0x3f3152d2	0.69267
221	0x3f37ca4d	0.7179306
222	0x3f5a7fe1	0.8535138
223	0x3f5f9c5c	0.8734796
224	0x3f2d2b2d	0.67644006
225	0x3f2350fc	0.6379545
226	0x3f6de239	0.92923313
227	0x3f42519b	0.7590577
228	0x3f72804a	0.94727004
229	0x3f5083ad	0.8145092
230	0x3f5dd793	0.86657065
231	0x3f6f0664	0.93369126
232	0x3f3a784c	0.7283981
233	0x3f3c2fb9	0.7351032
234	0x3f774fd4	0.96606183
235	0x3f58531b	0.8450181
236	0x3f76a0e7	0.9633927
237	0x3f0827b3	0.53185576
238	0x3f57384f	0.84070295
239	0x3f7ede3d	0.9955786
240	0x3f2c80bd	0.6738394
241	0x3f5eee39	0.8708225
242	0x3f4cbfd0	0.7998018
243	0x3f4e9d59	0.80708843
244	0x3ece1fca	0.40258628
245	0x3f2cdc5b	0.67523736
246	0x3f249fb5	0.64306194
247	0x3f071bf9	0.5277706
248	0x3f7a2917	0.9771895
249	0x3f4a292e	0.78969085
250	0x3f14d510	0.5813761
251	0x3f4adede	0.7924632
252	0x3f5744d3	0.8408939
253	0x3f6fcccc	0.9367187
254	0x3f6d9dd1	0.92818934
255	0x3f49675c	0.7867334
