deeplearning_tasks/models/bci/20150801_Net_noise_0.0_best_trans_model_window_30_step_6_trans_nobap.pth (torch, 361801 bytes, 60 tensors)

mlp_in.0.weight f4 [512, 96]
-0.08423645 0.096193366 0.09527146 -0.018426308 -0.0060103806 0.09828396 0.053467073 -0.000873799
0.19019063 -0.021088744 0.117333 -0.1010604 0.032056987 -0.13388945 0.14840202 -0.05829437
-0.0436926 0.007611476 0.0870695 -0.108438015 -0.059651677 0.28992087 -0.16769737 0.0066761104
-0.113624394 -0.28610888 -0.012762449 -0.06426159 0.061867524 -0.12156877 -0.12874939 -0.12850821
-0.045665197 -0.08492981 -0.13495976 -0.002194553 0.008284661 -0.025566855 0.052376904 -0.05237366
0.23040655 0.031235063 0.20998754 -0.102308415 0.16763999 -0.09596393 0.021317745 -0.12751733
-0.16757865 0.2978451 0.013879228 0.07083667 0.17924474 0.17958508 -0.18785971 -0.041981414
0.05540898 -0.22415087 0.025795583 -0.0855637 0.017722696 -0.07293368 0.023128917 -0.027886389
0.029117784 -2.5156713e-38 -2.560849e-39 -0.112566434 0.038410135 0.07124984 0.030710353 -0.057828255
-0.13972096 -0.0679254 -0.08707659 0.17595157 -0.015470273 0.25978357 -0.033527143 0.052112024
0.08775619 -0.06989825 0.218048 -0.10615169 0.124554634 -0.08557877 -0.038384356 -0.0006875171
-0.022602452 -0.0040632775 0.049992573 0.09303142 -0.03999923 -0.14872436 0.01088077 3.4178e-40
0.108875945 -0.12950058 -0.15618628 0.07758826 -0.0042897547 -0.06293554 -0.0026972701 0.112125866
-0.1931262 -0.15675564 -0.065007515 -0.1777709 0.04819012 -0.09011459 -0.05206717 -0.08998787
-0.033783525 -0.15225662 -0.21942505 -0.071234815 -0.24249338 -0.14558613 -0.015013174 -0.12327301
-0.08058368 -0.33806628 -0.0994383 -0.10721931 -0.0756458 0.10404629 -0.088689946 -0.16713235
-0.15023197 0.0046807914 -0.011890495 0.01970748 0.0011710239 -0.0019697512 -0.13180466 -0.072386906
0.29610288 -0.03142835 -0.062445194 -0.13712779 0.26454127 0.000713246 -0.059297133 0.07286906
-0.053162705 -0.031088665 -0.0476189 -0.08891772 0.08866073 -0.00074239215 -0.027151825 -0.09517147
0.11072476 -0.32944337 0.043023404 0.034386016 0.06278398 -0.04030662 0.08043044 -0.26228696
0.061353453 -1.2209727e-37 9.91925e-39 -0.037225977 0.006458335 0.005842543 -0.0072577684 0.024870787
-0.1236395 -0.021448044 0.22866753 0.16345982 0.17913836 0.192619 -0.0108675165 0.12884954
-0.055677228 0.15280835 0.024057724 0.20125757 -0.15013644 0.028485 0.110770896 -0.04791785
0.07806909 0.021626033 -0.1463157 -0.0105086295 0.030574827 -0.041795865 0.11835645 -9.252858e-39
-0.11522984 -0.1051047 0.017308336 -0.006428957 0.025646467 -0.018164588 -0.032136284 -0.1075398
0.17028125 -0.078336716 -0.021723567 -0.04274825 0.016085207 -0.076927625 0.015547139 0.044416048
0.04620134 0.038272362 -0.065010704 -0.107537284 -0.09340127 0.057513993 -0.02080981 -0.062428188
-0.055729803 -0.017723171 -0.08002886 0.10421166 -0.05370292 -0.01583987 -0.031890344 0.07391733
0.00017751513 -0.015593558 -0.051393654 -0.03493491 -0.030669266 0.017430536 0.026180184 0.06457066
0.10884207 -0.113375224 -0.007911611 -0.05937964 -0.12982246 -0.042961456 0.06043573 0.08079473
0.027969275 0.009838819 -0.05406306 -0.053767197 -0.10159881 -0.041807864 0.04420022 -0.038445413
0.013913966 -0.08201531 0.103217416 -0.05066132 0.00082258583 -0.06323518 0.04800301 0.029890643
00000000: 2984 acbd 0701 c53d af1d c33d c5f2 96bc
00000010: baf2 c4bb 1a49 c93d 4a00 5b3d a90f 65ba
00000020: 55c1 423e 4dc2 acbc 494c f03d c1f8 cebd
00000030: 304e 033d 511a 09be b3f6 173e 14c6 6ebd
00000040: 03f7 32bd b069 f93b 7e51 b23d c014 debd
00000050: 5155 74bd 8270 943e dcb8 2bbe 46c3 da3b
00000060: e8b3 e8bd dd7c 92be 9719 51bc 959b 83bd
00000070: cd68 7d3d 0cf9 f8bd e1d6 03be a897 03be
00000080: 6e0b 3bbd aeef adbd e432 0abe 7dd2 0fbb
00000090: 63bc 073c 9571 d1bc 2a89 563d c385 56bd
000000a0: b2ef 6b3e ade0 ff3c f906 573e 1387 d1bd
000000b0: d1a9 2b3e bd88 c4bd 8da2 ae3c e793 02be
000000c0: bd99 2bbe 277f 983e b465 633c d112 913d
000000d0: ef8b 373e 27e5 373e 4c5e 40be b4f4 2bbd
000000e0: 87f4 623d ce87 65be 4251 d33c 053c afbd
000000f0: 302f 913c 415e 95bd db78 bd3c ff71 e4bc
00000100: 6b88 ee3c 57f7 0881 9be2 1b80 3b89 e6bd
00000110: f253 1d3d 70eb 913d 4794 fb3c 52dd 6cbd
00000120: 0313 0fbe 791c 8bbd 3655 b2bd a62c 343e
00000130: 0777 7dbc 5a02 853e c253 09bd 6b73 553d
00000140: 84b9 b33d d026 8fbd fa47 5f3e 0f66 d9bd
00000150: 8016 ff3d ec43 afbd ea38 1dbd 7e3a 34ba
00000160: c728 b9bc 3e25 85bb 03c5 4c3d 4287 be3d
00000170: 3cd6 23bd 334b 18be 4245 323c beb8 0300
00000180: 5afa de3d cd9b 04be 4cef 1fbe 98e6 9e3d
00000190: 1291 8cbb 59e4 80bd afc4 30bb 3fa2 e53d
000001a0: e0c2 45be 8d84 20be a922 85bd 9309 36be
000001b0: 0163 453d 008e b8bd 6344 55bd 8f4b b8bd
000001c0: 9860 0abd 29e9 1bbe f6b0 60be 8fe3 91bd
000001d0: 2f50 78be 8814 15be d1f9 75bc 8f76 fcbd
000001e0: 0e09 a5bd 0617 adbe 4fa6 cbbd cc95 dbbd
000001f0: 2fec 9abd 3916 d53d 13a3 b5bd be24 2bbe
00000200: 69d6 19be 5361 993b 5ad0 42bc 9571 a13c
00000210: 0b7d 993a f116 01bb cdf7 06be 963f 94bd
00000220: cc9a 973e 03bb 00bd 88c6 7fbd 3a6b 0cbe
00000230: f471 873e 21f9 3a3a 8de1 72bd 603c 953d
00000240: 23c1 59bd a8ad febc 090c 43bd 7e1a b6bd
00000250: c293 b53d 189d 42ba 816d debc 42e9 c2bd
00000260: aac3 e23d cdac a8be 4f39 303d 5ad8 0c3d
00000270: e394 803d 8e18 25bd b7b8 a43d 7a4a 86be
00000280: c24d 7b3d b030 2682 d502 6c00 447a 18bd
00000290: 71a0 d33b ce72 bf3b 93d2 edbb d2bd cb3c
000002a0: b536 fdbd cfb3 afbc d227 6a3e 0362 273e
000002b0: 0c70 373e ea3d 453e ab0d 32bc 22f1 033e
000002c0: ce0d 64bd cb79 1c3e b414 c53c 7716 4e3e
000002d0: 5ebd 19be 6059 e93c dadb e23d 8245 44bd
000002e0: b0e2 9f3d 1429 b13c c8d3 15be 632c 2cbc
000002f0: 0f78 fa3c 2432 2bbd de64 f23d 34c1 6480
00000300: 9ffd ebbd 2241 d7bd 36ca 8d3c 00aa d2bb
00000310: 8a18 d23c e7cd 94bc 56a1 03bd d43d dcbd
00000320: 355e 2e3e 006f a0bd 9ff5 b1bc ca18 2fbd
00000330: 20c5 833c 3b8c 9dbd 6db9 7e3c 9aed 353d
00000340: 9e3d 3d3d 7bc3 1c3d 5524 85bd 823c dcbd
00000350: 2a49 bfbd cb93 6b3d 5679 aabc b3b4 7fbd
00000360: ef44 64bd 2f30 91bc 2ce6 a3bd ec6c d53d
00000370: 98f7 5bbd 9dc2 81bc 739f 02bd f861 973d
00000380: 5b23 3a39 1f7c 7fbc 2782 52bd e817 0fbd
00000390: 1d3e fbbc 7cca 8e3c d377 d63c 9f3d 843d
000003a0: 97e8 de3d 4531 e8bd b49f 01bc 1138 73bd
000003b0: 2ef0 04be 5af8 2fbd 758b 773d b577 a53d
000003c0: d21f e53c ff32 213c 3a71 5dbd fe3a 5cbd
000003d0: 0913 d0bd b93e 2bbd 4a0b 353d f078 1dbd
000003e0: 67f7 633c a5f7 a7bd a763 d33d 3f82 4fbd
000003f0: cda2 573a 7281 81bd ce9e 443d 39dd f43c

mlp_in.0.bias f4 [512]
0.13198453 0.2611658 0.264169 0.075918905 0.16583079 0.26343125 -0.17318934 0.079452425
-0.0039919396 -0.12796606 0.015392877 -0.14518566 0.028166357 0.12929635 -0.11631076 -0.082495555
-0.07650438 0.1249736 -0.11780059 -0.24858725 0.027369525 -0.07342837 -0.09642626 -0.15866564
0.13145909 0.027366564 -0.1579779 0.051827777 -0.31981513 0.120658435 -0.18996942 0.0025873543
-0.046292335 -0.14284806 -0.14805095 0.09283359 0.14052987 -0.24170844 0.06677915 -0.099765226
0.26762614 -0.15117075 0.046238706 0.091166236 0.22168364 -0.019089473 0.23992331 0.14638527
0.26952994 -0.14693673 0.036029708 -0.23877016 0.13984342 -0.09552248 -0.14163963 0.082649216
0.12257928 0.008144222 0.03263527 0.10721259 0.09971704 -0.17998998 -0.013807554 0.04851197
-0.15549737 -0.1283319 -0.11204469 -0.09258269 -0.28215423 0.10477487 -0.19453396 -0.11852477
-0.008879858 0.19397776 -0.017990123 -0.0018519983 0.26172212 -0.1840538 -0.023095066 -0.017164517
-0.03830762 0.208881 0.06228581 0.20533647 0.02581027 0.0736505 0.27228191 0.123602346
-0.19727567 0.18984026 -0.14983377 -0.17693643 0.2495429 -0.16687989 0.00084344624 0.05226398
0.1578835 -0.15861705 -0.04361897 0.13267916 -0.045759734 0.15161103 0.26962236 -0.0061197556
-0.0075369035 0.033238947 -0.13197297 -0.044062983 -0.030347802 0.15840787 0.028458951 -0.05495285
0.15840976 -0.20177583 0.09369529 0.124456346 -0.1285803 0.17139183 -0.06902206 -0.15214239
0.109978855 -0.10343237 -0.06445204 -0.18987846 -0.11641074 -0.1167474 0.052493718 -0.074888885
-0.013406415 -0.065690205 0.07785418 -0.016591301 -0.018336855 0.14968455 0.055730212 -0.07064893
-0.19478533 0.27778965 -0.050582673 0.1762415 0.06927169 -0.011665982 0.042531956 -0.14949165
0.17722678 -0.21685037 -0.11274345 -0.09500618 0.15976402 0.07240443 0.012545974 0.16734134
0.17826937 0.17859975 0.04119395 0.14129093 -0.1648466 -0.15444207 0.11944836 -0.16151945
0.27595466 -0.011736578 -0.026558107 0.23298138 0.12220706 0.019071735 0.062375467 -0.036479626
-0.0043463795 0.084660865 -0.06222752 0.11780217 0.059086252 0.072051495 -0.013744395 0.07930401
-0.032446507 -0.06305837 -0.24409686 -0.20831437 -0.045188673 0.07305743 0.042725064 0.08086151
-0.10446637 0.13950498 0.15332668 0.11429527 -0.14897835 -0.035724908 0.24675806 0.07895377
0.08388445 0.23014013 0.04476131 0.18508421 -0.074797265 -0.060124356 -0.07858669 0.18909064
0.06384305 0.16183572 -0.025369266 -0.0068218694 0.29084688 -0.06480649 0.014372992 0.041870818
0.05519619 -0.012400984 -0.11837152 -0.30589303 0.042450428 0.00916894 0.23686527 0.20418452
0.08080785 -0.2521071 -0.041443437 0.04164735 -0.031381264 0.0832777 -0.071579695 -0.06333941
0.22917987 0.046453185 -0.12109738 0.18737836 0.1968625 0.2085679 -0.01275323 0.12486862
0.06775204 -0.16667448 -0.09724722 0.09992444 0.099089414 0.108430736 0.19057211 -0.24361204
0.20428142 0.013611782 0.13126367 0.21101002 0.20630787 0.021348337 0.035589594 -0.035752933
0.19624029 -0.027090475 0.012930477 0.09331406 0.018463315 -0.020950079 -0.1405984 -0.07757039
00000000: f426 073e 86b7 853e 2941 873e 5f7b 9b3d
00000010: 8ccf 293e 76e0 863e 8c58 31be f4b7 a23d
00000020: d1ce 82bb 8909 03be 6832 7c3c 8dab 14be
00000030: 22bd e63c 4366 043e 5634 eebd 6ef3 a8bd
00000040: 54ae 9cbd 29f2 ff3d 7041 f1bd a88d 7ebe
00000050: 0e36 e03c 9d61 96bd 227b c5bd 3f79 22be
00000060: 369d 063e d82f e03c f5c4 21be 5d49 543d
00000070: cfbe a3be c51b f73d 5887 42be 9a90 293b
00000080: 089d 3dbd c346 12be ab9a 17be 8a1f be3d
00000090: 10e7 0f3e 6b82 77be 82c3 883d b651 ccbd
000000a0: 4b06 893e 81cc 1abe cc64 3d3d 5db5 ba3d
000000b0: 0901 633e 8761 9cbc 75ae 753e 05e6 153e
000000c0: d4ff 893e 9576 16be e393 133d 2a80 74be
000000d0: 1d33 0f3e 4aa1 c3bd fb09 11be fe43 a93d
000000e0: d80a fb3d 586f 053c 90ac 053d 4692 db3d
000000f0: 7338 cc3d 4b4f 38be 1439 62bc 7db4 463d
00000100: b43a 1fbe 7069 03be b077 e5bd fe9b bdbd
00000110: 8576 90be 3594 d63d e933 47be 1dbd f2bd
00000120: d37c 11bc 1ba2 463e 0660 93bc c0be f2ba
00000130: 7100 863e 9978 3cbe dd31 bdbc 9a9c 8cbc
00000140: 73e8 1cbd e7e4 553e 681f 7f3d b943 523e
00000150: 0f70 d33c 13d6 963d 8968 8b3e 3a23 fd3d
00000160: a202 4abe 7c65 423e 066e 19be d32e 35be
00000170: 2d88 7f3e 90e2 2abe b81a 5d3a c112 563d
00000180: 36ac 213e 826c 22be cea9 32bd 0cdd 073e
00000190: 8f6e 3bbd ec3f 1b3e f10b 8a3e 3b88 c8bb
000001a0: 21f8 f6bb 9025 083d ec23 07be 637b 34bd
000001b0: f49b f8bc ac35 223e bf22 e93c 3d16 61bd
000001c0: 2b36 223e 539e 4ebe 51e3 bf3d f8e2 fe3d
000001d0: 8eaa 03be 5781 2f3e 705b 8dbd 37cb 1bbe
000001e0: 983c e13d 5ad4 d3bd 6eff 83bd 806f 42be
000001f0: c168 eebd 4319 efbd a703 573d 585f 99bd
00000200: 94a6 5bbc 9688 86bd 0372 9f3d 7bea 87bc
00000210: 2c37 96bc e846 193e 5d45 643d 63b0 90bd
00000220: ce75 47be 723a 8e3e c72f 4fbd a778 343e
00000230: 51de 8d3d ad22 3fbc fd35 2e3d 5714 19be
00000240: f07a 353e 060e 5ebe 0ae6 e6bd 9a92 c2bd
00000250: 2e99 233e c648 943d a18d 4d3c 875b 2b3e
00000260: 3f8c 363e dae2 363e fdba 283d 92ae 103e
00000270: 8ccd 28be 1026 1ebe 57a1 f43d 5b65 25be
00000280: ee49 8d3e c74a 40bc 6390 d9bc ac92 6e3e
00000290: b247 fa3d 543c 9c3c 6b7d 7f3d a96b 15bd
000002a0: 136c 8ebb ad62 ad3d 49e2 7ebd 4442 f13d
000002b0: 6d04 723d bc8f 933d 2c30 61bc 246a a23d
000002c0: a1e6 04bd bf24 81bd 87f4 79be 5d50 55be
000002d0: c217 39bd 229f 953d 7a00 2f3d b89a a53d
000002e0: 77f2 d5bd 65da 0e3e ab01 1d3e a313 ea3d
000002f0: c88d 18be 4854 12bd 25ae 7c3e 84b2 a13d
00000300: 9ccb ab3d dba9 6b3e a357 373d b786 3d3e
00000310: 4f2f 99bd f544 76bd 0ff2 a0bd faa0 413e
00000320: 25c0 823d 43b8 253e 35d3 cfbc fd89 dfbb
00000330: e2e9 943e 44b9 84bd b37c 6b3c bc80 2b3d
00000340: 6615 623d 7f2d 4bbc c46c f2bd 039e 9cbe
00000350: 80e0 2d3d 5239 163c cf8c 723e bf15 513e
00000360: 967e a53d 2f14 81be 98c0 29bd 6996 2a3d
00000370: a489 00bd 808d aa3d 6098 92bd 18b8 81bd
00000380: 21ae 6a3e b245 3e3d e701 f8bd 1de0 3f3e
00000390: 5396 493e d392 553e ecf2 50bc 1ebb ff3d
000003a0: 95c1 8a3d b7ac 2abe 8d29 c7bd 2fa5 cc3d
000003b0: 64ef ca3d ef10 de3d 5625 433e 6f75 79be
000003c0: 262f 513e f403 5f3c fc69 063e 0313 583e
000003d0: 5f42 533e b5e2 ae3c 65c6 113d ab71 12bd
000003e0: 37f3 483e d8ec ddbc 5ada 533c 711b bf3d
000003f0: 6140 973c 809f abbc 07f9 0fbe 3add 9ebd

mlp_in.1.weight f4 [16, 512]
0.030613558 -0.2035936 -0.067677125 -0.13846348 -0.092349865 -0.1662201 0.015078123 0.032360584
-0.076270364 0.017780947 0.00061558053 0.035778925 0.101644866 -0.067602314 0.09951159 -0.05136793
0.07140906 -0.15869887 0.051826432 0.03818281 -0.110391006 0.016861185 0.032766346 0.081778824
-0.03599223 0.05301906 -0.018131161 0.0062442753 0.2411735 -0.026012253 0.055540547 -0.05570668
-0.049493436 -0.075331375 0.14099176 0.011250986 -0.034490917 0.14696099 0.02236233 -0.053811286
0.007129386 0.051641256 0.093227796 -0.00033886082 -0.039940927 0.05611243 -0.10799163 -0.01077792
-0.11273164 0.04285907 0.021479724 0.12196343 -0.019955376 -0.012153333 0.0044677192 -0.038403198
-0.08170355 0.05804716 0.051402222 -0.04947997 -0.14605437 0.010690674 -0.047067907 0.017416878
-0.04100035 -0.050151076 0.08249333 -0.023813626 0.18091746 0.031497687 0.07695773 -0.055957973
0.047976263 0.050298356 0.105893396 0.0030165606 -0.149783 0.14404492 0.11998024 -0.06531427
0.0013475182 -0.006352764 0.066251636 -0.10943949 -0.03646474 0.009497308 -0.17439702 -0.0042490046
0.045706388 -0.09251247 0.13818525 -0.029660352 -0.08776395 0.037123807 -0.045907073 0.02500515
0.0102981 0.15154046 -0.110892 -0.09315992 0.048738617 -0.08128063 -0.09803338 -0.025565436
0.06356074 -0.023635523 0.042756118 0.08684435 -0.02655884 -0.0760825 -0.011039876 0.10840641
-0.12515461 0.021345483 0.03510941 0.01444581 0.102239 0.011892395 0.019914912 0.01797856
-0.021567464 0.05035189 0.041293435 -0.07806307 0.05839306 -0.0101822885 0.039294265 -0.023080477
-0.15951411 0.0007618052 -0.0055858633 -0.028239926 0.09156233 -0.075545765 -0.04373327 -0.05951839
0.058285058 -0.016371641 -0.028009776 -0.08258309 0.05467603 -0.097319044 -0.094526544 0.040694278
-0.054174457 0.11594363 -0.07412021 -0.042571865 -0.17023484 -0.048137423 0.06591581 0.0082643805
-0.11106744 -0.10552248 -0.011545015 -0.07850483 0.017323013 -0.014408184 -0.040081657 0.07924322
-0.12011026 -0.00069593254 0.08542493 -0.06277294 -0.010804861 0.025507562 -0.021738226 0.013625253
-0.1107037 -0.03551114 0.014014196 0.067286275 0.07390373 -0.034145907 0.055907037 -0.045220196
0.026609218 -0.09992072 0.064749576 0.07156783 -0.04142142 -0.052402023 0.05181092 -0.052865125
0.093560316 -0.024581188 -0.08182731 -0.08042776 0.20581098 0.015085166 -0.17777854 -0.009495385
0.017919984 -0.09989143 0.0016399582 -0.1071223 0.004550728 -0.051804103 -0.012063729 -0.07329781
-0.06423545 -0.05585255 -0.011696904 -0.05498547 -0.17123555 -0.10079211 -0.02586064 0.032270923
-0.061191183 0.08259617 0.08647405 0.096336894 0.002363342 0.049056686 0.006388145 -0.05393127
-0.08781093 0.13311054 0.020267742 -0.04993331 0.051981736 -0.022518406 0.008793219 -0.04306065
-0.18790641 0.0016502305 -0.0062041627 -0.045113813 -0.094389476 -0.052648652 0.0556182 -0.06660191
-0.028735714 0.086789295 -0.021533472 0.014669452 0.0306598 -0.021236608 0.03315337 0.08023344
0.015613417 -0.030044982 -0.10967849 -0.10846443 -0.10094424 -0.036054585 0.018966824 0.018196091
0.114417695 -0.028989645 -0.08434579 -0.07257754 -0.00066503655 -0.018694572 -0.018396985 -0.07903895
00000000: 49c9 fa3c d77a 50be 4e9a 8abd 5fc9 0dbe
00000010: ed21 bdbd 9a35 2abe 3b0a 773c 888c 043d
00000020: a333 9cbd 59a9 913c e95e 213a ec8c 123d
00000030: 2f2b d03d 1573 8abd bccc cb3d 2e67 52bd
00000040: ea3e 923d f581 22be f447 543d 9465 1c3d
00000050: ae14 e2bd 7820 8a3c 0136 063d a87b a73d
00000060: 976c 13bd 842a 593d cd87 94bc c79c cc3b
00000070: 30f6 763e a617 d5bc 7c7e 633d b02c 64bd
00000080: a1b9 4abd 5647 9abd 2560 103e 0e56 383c
00000090: 5946 0dbd f17c 163e 3531 b73c 3969 5cbd
000000a0: a09d e93b c885 533d 37ee be3d 21a9 b1b9
000000b0: 1999 23bd 26d6 653d b72a ddbd df95 30bc
000000c0: d9df e6bd fe8c 2f3d 3ff6 af3c f6c7 f93d
000000d0: 7579 a3bc c61e 47bc f265 923b ac4c 1dbd
000000e0: 3154 a7bd dcc2 6d3d 238b 523d 82ab 4abd
000000f0: 478f 15be f027 2f3c 47ca 40bd d7ad 8e3c
00000100: fcef 27bd 376b 4dbd 43f2 a83d cb14 c3bc
00000110: 6d42 393e b803 013d 049c 9d3d 3034 65bd
00000120: c282 443d a605 4e3d a3de d83d 7db1 453b
00000130: b760 19be 8380 133e 33b8 f53d 7dc3 85bd
00000140: 359f b03a d92a d0bb f0ae 873d d021 e0bd
00000150: 0d5c 15bd 999a 1b3c 2295 32be 3c3b 8bbb
00000160: 9f36 3b3d 2e77 bdbd 6f80 0d3e 44fa f2bc
00000170: 96bd b3bd 220f 183d 0e09 3cbd 9ad7 cc3c
00000180: 5db9 283c 6c2d 1b3e 581b e3bd a1ca bebd
00000190: 25a2 473d 7576 a6bd bac5 c8bd 9b6e d1bc
000001a0: 222c 823d 499f c1bc 0a21 2f3d 73db b13d
000001b0: ed91 d9bc 24d1 9bbd 99e0 34bc 2e04 de3d
000001c0: 8828 00be b9dc ae3c e2ce 0f3d 1eae 6c3c
000001d0: ae62 d13d 52d8 423c 9924 a33c c647 933c
000001e0: 40ae b0bc c93d 4e3d 4e23 293d 88df 9fbd
000001f0: 902d 6f3d 9dd3 26bc 06f3 203d 4513 bdbc
00000200: ab57 23be e2b3 473a 9e09 b7bb 6b57 e7bc
00000210: 0885 bb3d bdb7 9abd a821 33bd 8ec9 73bd
00000220: 50bc 6e3d d21d 86bc c274 e5bc 5321 a9bd
00000230: f9f3 5f3d 354f c7bd 2297 c1bd 0baf 263d
00000240: 09e6 5dbd db73 ed3d 56cc 97bd d65f 2ebd
00000250: 0b52 2ebe bf2b 45bd defe 863d 5367 073c
00000260: 5377 e3bd 2c1c d8bd 4d27 3dbc 24c7 a0bd
00000270: fee8 8d3c 4e10 6cbc aa2c 24bd 454a a23d
00000280: 5efc f5bd 3e6f 36ba 44f3 ae3d 198f 80bd
00000290: df06 31bc 3cf5 d03c 5d14 b2bc 743c 5f3c
000002a0: 9fb8 e2bd 2174 11bd cc9b 653c 63cd 893d
000002b0: d75a 973d 94dc 0bbd c7fe 643d d038 39bd
000002c0: 93fb d93c 3ca3 ccbd 6d9b 843d 2892 923d
000002d0: 82a9 29bd 81a3 56bd b037 543d 1a89 58bd
000002e0: 8d9c bf3d 7d5e c9bc 1495 a7bd 4fb7 a4bd
000002f0: 1dc0 523e c627 773c 940b 36be 8892 1bbc
00000300: eecc 923c e193 ccbd def3 d63a f062 dbbd
00000310: 461e 953b 8a30 54bd f2a6 45bc 2a1d 96bd
00000320: e08d 83bd a5c5 64bd 5fa4 3fbc 7238 61bd
00000330: 5f58 2fbe 186c cebd b1d9 d3bc 842e 043d
00000340: 9ba3 7abd 2e28 a93d 4f19 b13d 474c c53d
00000350: 4de2 1a3b aaef 483d a553 d13b 09e7 5cbd
00000360: 38d6 b3bd 214e 083e 8908 a63c df86 4cbd
00000370: cdea 543d 8578 b8bc 6f11 103c 5d60 30bd
00000380: 8a6a 40be 8c4c d83a 4a4c cbbb 43c9 38bd
00000390: 454f c1bd 1da6 57bd e9cf 633d 9566 88bd
000003a0: 2967 ebbc 96be b13d f766 b0bc 2458 703c
000003b0: 432a fb3c 65f8 adbc d4cb 073d 6e51 a43d
000003c0: 6bcf 7f3c e520 f6bc 1e9f e0bd 9922 debd
000003d0: dbbb cebd f9ad 13bd 5060 9b3c f80f 953c
000003e0: d353 ea3d b17b edbc 7cbd acbd 89a3 94bd
000003f0: d955 2eba 5c25 99bc 46b5 96bc 2cdf a1bd

mlp_in.1.bias f4 [16]
-0.12451769 -0.04340912 -0.093602136 0.05153169 0.11714105 -0.18844171 -0.07717276 -0.010332976
-0.028006034 0.15691519 0.08044253 -0.0135921575 -0.1289642 0.09830682 0.04178588 0.02492321
00000000: 2103 ffbd c3cd 31bd 7ab2 bfbd e512 533d
00000010: a6e7 ef3d ddf6 40be c10c 9ebd a44b 29bc
00000020: e96c e5bc 60ae 203e 0ebf a43d a4b1 5ebc
00000030: 310f 04be 1655 c93d ac27 2b3d c22b cc3c

model.project_0.weight f4 [256, 16]
-0.099499084 0.0055142865 0.18962516 -0.2530957 -0.022827236 0.01800715 0.055712454 -0.18092969
-0.21364298 -0.11038276 0.04871793 -0.07186247 -0.092419006 0.06469119 0.03165059 0.075053394
0.023857895 -0.3224402 -0.13387522 0.055664558 -0.14558747 0.26437628 0.14538892 0.15681587
0.07777291 -0.22130147 -0.009273544 0.13085318 0.07344058 0.22800244 0.16957712 0.11428353
0.06639151 0.01699228 0.07400015 -0.2410904 0.1434077 -0.14072777 0.23977825 -0.22801718
-0.14607258 0.13961992 0.013972832 0.049467016 0.097857505 -0.046034563 -0.082254544 -0.0398843
-0.09410564 0.109766155 -0.086523525 0.15443638 0.050501034 -0.15127845 -0.09556136 -0.18323451
0.10683112 -0.19352593 0.051734123 0.07187992 0.12622914 -0.0128312865 0.14401802 0.06807232
0.07258216 0.10922656 -0.07596396 -0.133482 0.11369024 0.13798921 -0.16726081 -0.09253297
-0.09443977 -0.097600274 0.1155065 -0.25918168 -0.167133 -0.03559771 0.034367014 -0.07027533
0.033341408 0.043985844 -0.022912847 0.0038136768 0.3060952 -0.16708495 0.12779425 0.24326864
-0.015388592 0.038650073 0.019598624 -0.20808806 -0.26425242 0.108334444 0.17839493 -0.2150304
0.14672017 -0.11417425 -0.05582758 0.0015597126 0.17901506 0.026493542 0.14613278 0.1057948
-0.28473008 -0.20792472 -0.0152988015 0.14541379 -0.12852585 0.20380576 -0.0023280121 -0.31810072
-0.33499473 -0.0694213 0.06341166 -0.23525117 0.21495934 0.15589488 -0.10608421 -0.12165727
-0.1993824 0.1682634 0.17477548 0.036351416 0.25241464 0.17352568 -0.026574003 0.13971111
0.27193063 -0.010234782 0.17869201 -0.14462088 -0.3803292 0.064632855 0.22058786 0.0076561724
0.2482622 -0.17952074 0.039634876 0.14358169 -0.0676945 -0.35678414 -0.03788227 0.28063294
-0.24179016 0.10856866 -0.07891587 -0.32500798 0.20262383 -0.16434151 0.16162956 0.044665974
0.23704448 -0.1168835 0.11389068 -0.105970666 0.091204576 -0.091231324 0.21667051 -0.2207566
-0.0177814 0.21825585 -0.11416994 -0.3098615 -0.047313273 0.009107696 -0.022819502 -0.21220914
0.036735736 0.33094755 0.12360154 -0.27918118 -0.007820814 -0.08016559 -0.0912713 0.16097116
0.07744519 -0.15768936 0.15090954 0.23949973 0.02035844 0.13743219 0.094985336 -0.10143259
-0.24966204 -0.26272112 -0.0543309 -0.21204121 -0.15678377 -0.016223887 -0.19454989 -0.016538668
-0.13913454 -0.09430237 -0.19906428 0.15782867 0.24472134 -0.20624594 0.19140583 -0.17836498
-0.34593928 -0.088656425 -0.21636337 -0.113713 -0.21695694 -0.06304484 0.06986616 0.037989546
-0.116956286 0.15813015 -0.1506687 0.031591542 -0.0038694288 0.17457724 0.1102422 -0.12093196
0.14750928 0.18612905 -0.06941356 0.011908732 0.106470585 0.06982629 -0.2628269 0.090351254
-0.26465175 -0.10795908 -0.05541021 -0.05668097 -0.2060016 0.23577483 0.22338659 0.03567567
-0.0986811 -0.113019355 -0.034228034 -0.18003212 0.0063590095 -0.121181615 0.017173406 0.13533929
0.16995826 -0.21097714 0.11893439 0.004454102 -0.18590295 -0.035538327 0.22441462 0.19324052
0.15919483 -0.103826456 -0.079147674 -0.19219562 0.03358543 -0.15807767 0.18501842 -0.069477886
00000000: 2dc6 cbbd 30b1 b43b 192d 423e c295 81be
00000010: 2f00 bbbc bb83 933c be32 643d a245 39be
00000020: 3ac5 5abe 5b10 e2bd 748c 473d a12c 93bd
00000030: 2d46 bdbd d17c 843d 0da4 013d 98b5 993d
00000040: a271 c33c e216 a5be 9616 09be 8500 643d
00000050: e214 15be 545c 873e d5e0 143e 5794 203e
00000060: 6747 9f3d da9c 62be 10f0 17bc 60fe 053e
00000070: 0468 963d 7979 693e a0a5 2d3e 7c0d ea3d
00000080: 46f8 873d 6533 8b3c 648d 973d 67e0 76be
00000090: 78d9 123e f11a 10be 6e88 753e 567d 69be
000000a0: 0d94 15be 86f8 0e3e 4eee 643c ed9d 4a3d
000000b0: 8469 c83d bd8e 3cbd 1275 a8bd b85d 23bd
000000c0: 75ba c0bd 14cd e03d 3f33 b1bd 9224 1e3e
000000d0: 2cda 4e3d bde8 1abe adb5 c3bd d4a1 3bbe
000000e0: 46ca da3d a92b 46be 29e7 533d c835 933d
000000f0: 3642 013e 513a 52bc 7679 133e 8069 8b3d
00000100: f5a5 943d 2db2 df3d fe92 9bbd 81af 08be
00000110: 6ed6 e83d 0b4d 0d3e 6b46 2bbe ed81 bdbd
00000120: a369 c1bd a7e2 c7bd ac8e ec3d 76b3 84be
00000130: ea24 2bbe e8ce 11bd 6dc4 0c3d 83ec 8fbd
00000140: 0091 083d 802a 343d b9b3 bbbc e1ee 793b
00000150: 83b8 9c3e 5118 2bbe 7fdc 023e 6a1b 793e
00000160: 6f20 7cbc 8a4f 1e3d 4b8d a03c 0915 55be
00000170: 184c 87be 73de dd3d 29ad 363e ee30 5cbe
00000180: d03d 163e 30d4 e9bd 76ab 64bd 456f cc3a
00000190: b94f 373e fc08 d93c d5a3 153e f2aa d83d
000001a0: 24c8 91be 38ea 54be d3a7 7abc 5ae7 143e
000001b0: 489c 03be 75b2 503e 9091 18bb 19de a2be
000001c0: 6e84 abbe c12c 8ebd f9dd 813d afe5 70be
000001d0: 4d1e 5c3e e8a2 1f3e ae42 d9bd 7227 f9bd
000001e0: e62a 4cbe 3e4d 2c3e 58f8 323e 39e5 143d
000001f0: 7e3c 813e b7b0 313e b9b1 d9bc 6e10 0f3e
00000200: 7e3a 8b3e c9af 27bc 0afb 363e 7f17 14be
00000210: 82ba c2be 3b5e 843d c9e1 613e a1e0 fa3b
00000220: 7238 7e3e 49d4 37be 2e58 223d 1407 133e
00000230: 6aa3 8abd 69ac b6be 702a 1bbd 1faf 8f3e
00000240: d797 77be 3f59 de3d a59e a1bd 7267 a6be
00000250: 9f7c 4f3e 2449 28be 3882 253e abf3 363d
00000260: cabb 723e 9e60 efbd 843f e93d 2607 d9bd
00000270: 77c9 ba3d 7dd7 babd e0de 5d3e 050e 62be
00000280: 4caa 91bc 767e 5f3e eed1 e9bd 2ba6 9ebe
00000290: 90cb 41bd 7238 153c f7ef babc 5a4d 59be
000002a0: 3678 163d f571 a93e ce22 fd3d d6f0 8ebe
000002b0: df22 00bc db2d a4bd 73ec babd a0d5 243e
000002c0: 959b 9e3d 5279 21be 0888 1a3e 6b3f 753e
000002d0: bec6 a63c 06bb 0c3e ac87 c23d e4bb cfbd
000002e0: 68a7 7fbe 6283 86be 148a 5ebd 5521 59be
000002f0: ed8b 20be f5e7 84bc 1638 47be 1a7c 87bc
00000300: 4979 0ebe 9a21 c1bd 82d7 4bbe d79d 213e
00000310: 3b98 7a3e 2332 53be e4ff 433e 4fa5 36be
00000320: f41e b1be 8091 b5bd 5c8e 5dbe 5de2 e8bd
00000330: f629 5ebe a71d 81bd fd15 8f3d ed9a 1b3d
00000340: c786 efbd dfec 213e e548 1abe 2266 013d
00000350: 3e96 7dbb 60c4 323e aac6 e13d 2dab f7bd
00000360: ac0c 173e 9d98 3e3e b228 8ebd d81c 433c
00000370: 400d da3d 1601 8f3d 3f91 86be 140a b93d
00000380: 6f80 87be a619 ddbd d1f5 62bd 4e2a 68bd
00000390: 15f2 52be f56e 713e 74bf 643e a720 123d
000003a0: 5119 cabd b176 e7bd b232 0cbd 575a 38be
000003b0: 3d5f d03b 112e f8bd 3eaf 8c3c 6296 0a3e
000003c0: 8a09 2e3e 640a 58be e093 f33d b7f3 913b
000003d0: 585d 3ebe a390 11bd f2cc 653e d8e0 453e
000003e0: f803 233e f7a2 d4bd 2d18 a2bd eece 44be
000003f0: e090 093d 1ddf 21be 7875 3d3e 6c4a 8ebd

model.project_0.bias f4 [256]
0.09131294 0.110706724 -0.1839564 -0.18075462 -0.034634825 -0.2587605 -0.034435567 -0.37896273
-0.19835177 -0.0028111206 -0.20319933 -0.17651759 0.045564517 -0.16097066 -0.18489306 -0.16277866
-0.08899343 -0.09229219 0.047745105 -0.21783407 0.18067211 0.025177749 0.08631097 -0.09272155
-0.2358709 -0.2716603 -0.11816291 -0.21713713 -0.08569773 0.024435112 0.07784411 -0.21593204
-0.08990166 -0.053541064 -0.22517051 -0.061043758 -0.002259282 -0.18606718 -0.02817035 -0.010594325
-0.19433625 -0.1306611 -0.35281464 -0.062379614 -0.16772424 -0.039100982 -0.2374974 0.06406964
-0.22499241 0.10639682 0.18307345 0.059830848 0.011398752 -0.18782657 -0.13490665 -0.12613282
-0.19943397 -0.27558059 -0.32701406 -0.31138164 -0.09115131 -0.1365308 0.08254647 0.09723056
0.04833544 0.0022323409 -0.24410458 -0.2937772 0.014749831 0.13430314 -0.079162955 -0.12863782
-0.30026257 -0.10944619 -0.12643014 -0.29401302 0.065857865 0.024703758 -0.09174425 -0.027162973
-0.24559449 -0.0088932915 -0.26350465 -0.17819625 -0.07484192 -0.15759483 -0.05439577 0.0129948845
-0.29498386 -0.24351221 -0.0781673 -0.05169567 -0.07609357 0.02180597 -0.29554775 0.029056333
-0.14600652 0.013675445 0.0454631 -0.27561265 -0.12119699 -0.336385 0.18489836 -0.3238327
-0.24462134 0.16704638 0.1597128 -0.022779888 -0.2504643 -0.039068863 -0.07576445 -0.09819932
-0.22441296 -0.110049695 -0.3324889 -0.22836389 -0.2177245 -0.32134047 -0.049178254 -0.114327036
-0.3342045 -0.21822749 -0.147059 -0.24932921 -0.21890916 -0.19700019 -0.2752972 -0.21029854
-0.07917086 -0.15273239 -0.030425044 -0.16466853 -0.13859488 0.08421365 -0.13165407 -0.3462985
0.10706302 -0.13745548 -0.034704577 -0.13006113 -0.28101793 0.043394733 -0.04288088 -0.36353624
-0.36396512 -0.24456553 -0.34011477 0.004298372 -0.02715914 -0.22347632 0.080316104 -0.24292754
-0.2323932 0.008839168 0.16144976 0.042783428 -0.08043129 0.020789014 0.021310601 -0.14264762
-0.18918711 -0.027826266 -0.37367278 -0.25945717 -0.1722135 -0.0003970538 0.11870338 -0.114994705
-0.23304144 -0.20197165 -0.35489598 -0.27563548 0.0007324799 -0.10295665 0.11929841 -0.32940772
-0.14344595 -0.19356766 0.17439638 -0.14881806 -0.1522125 -0.07607418 0.039852932 0.2023468
-0.41150036 -0.15531434 0.09571211 -0.30125841 -0.21626358 0.07175959 -0.12331684 0.028537372
-0.22703096 0.062326938 -0.069210075 -0.11287378 -0.32658848 0.11075555 -0.17231666 -0.13650137
-0.14351338 -0.031421628 -0.02416075 -0.10981423 -0.1080746 -0.34873828 -0.22200337 -0.053561073
0.07527896 -0.05009148 -0.27366766 0.046512105 -0.14006664 -0.12442404 -0.17540058 0.046851862
-0.14064632 -0.007968192 -0.052803062 0.04048747 0.22677252 -0.24072412 -0.13832329 -0.232443
-0.12466526 0.16140154 0.044858564 -0.26297128 0.008814833 -0.29173344 -0.19095112 -0.19175921
-0.14091767 -0.044235513 -0.16245091 -0.11735957 -0.07687734 -0.1495578 -0.27106076 0.06482341
0.09931535 -0.06807582 0.029621497 0.009391416 -0.25478873 0.07240461 -0.019377133 0.011959111
-0.075801544 -0.288713 0.05752828 -0.22747652 -0.07052837 -0.3012669 -0.056056213 -0.285115
00000000: 4702 bb3d 35ba e23d 115f 3cbe bd17 39be
00000010: 3fdd 0dbd 427c 84be 4f0c 0dbd 6707 c2be
00000020: ba1c 4bbe c73a 38bb 7c13 50be 07c1 34be
00000030: dca1 3a3d 7ed5 24be 9b54 3dbe 73af 26be
00000040: 3042 b6bd b003 bdbd 5f90 433d e50f 5fbe
00000050: 1c02 393e 9141 ce3c cec3 b03d cce4 bdbd
00000060: 2488 71be 0f17 8bbe 65ff f1bd 3259 5ebe
00000070: 4b82 afbd 252c c83c bc6c 9f3d 4a1d 5dbe
00000080: 5d1e b8bd e04d 5bbd 1993 66be 0509 7abd
00000090: 7610 14bb 6588 3ebe 81c5 e6bc d293 2dbc
000000a0: 1500 47be 06cc 05be 1fa4 b4be c481 7fbd
000000b0: e7bf 2bbe 5a28 20bd 8532 73be f236 833d
000000c0: 6964 66be 93e6 d93d 9b77 3b3e 3111 753d
000000d0: d5c1 3a3c 9c55 40be f824 0abe f628 01be
000000e0: 6b38 4cbe e618 8dbe 636e a7be 6a6d 9fbe
000000f0: 8aad babd bbce 0bbe 200e a93d d120 c73d
00000100: 62fb 453d 774c 123b 8df6 79be f769 96be
00000110: 46a9 713c c386 093e 3020 a2bd a2b9 03be
00000120: 04bc 99be 5325 e0bd e776 01be e088 96be
00000130: 7de0 863d 895f ca3c 69e4 bbbd e284 debc
00000140: 1f7d 7bbe 2bb5 11bc 15ea 86be 1479 36be
00000150: b846 99bd 8a60 21be 19ce 5ebd 7fe8 543c
00000160: 2008 97be 445b 79be 2d16 a0bd d7be 53bd
00000170: f2d6 9bbd 6fa2 b23c 0952 97be 8c07 ee3c
00000180: bc82 15be f90e 603c 8437 3a3d 1a1d 8dbe
00000190: 2136 f8bd a83a acbe ff55 3d3e 66cd a5be
000001a0: 047e 7abe 350e 2b3e c18b 233e e39c babc
000001b0: db3c 80be ac06 20bd 642a 9bbd ba1c c9bd
000001c0: 83cc 65be bc61 e1bd fc3b aabe 39d8 69be
000001d0: 2cf3 5ebe bd86 a4be 236f 49bd 4b24 eabd
000001e0: da1c abbe 0777 5fbe a296 16be 2850 7fbe
000001f0: b929 60be 6bba 49be c1f3 8cbe 8058 57be
00000200: 5524 a2bd e165 1cbe f13d f9bc de9e 28be
00000210: d1eb 0dbe 3578 ac3d 53d0 06be 094e b1be
00000220: db43 db3d 21c1 0cbe 6326 0ebd bf2e 05be
00000230: 95e1 8fbe adbe 313d dda3 2fbd 6c21 babe
00000240: a359 babe 636f 7abe 8623 aebe 5cd9 8c3b
00000250: d87c debc fad6 64be c57c a43d ffc1 78be
00000260: 7cf8 6dbe 28d2 103c 1653 253e ad3d 2f3d
00000270: 29b9 a4bd b94d aa3c 9293 ae3c 3812 12be
00000280: 44ba 41be e9f3 e3bc 0a52 bfbe 92d7 84be
00000290: bc58 30be a92b d0b9 c21a f33d 5882 ebbd
000002a0: 6aa2 6ebe a8d1 4ebe edb4 b5be 1820 8dbe
000002b0: e503 403a f0da d2bd ba52 f43d 21a8 a8be
000002c0: 7fe3 12be 9a36 46be f794 323e c363 18be
000002d0: 98dd 1bbe c8cc 9bbd d43c 233d 0034 4f3e
000002e0: 2db0 d2be b90a 1fbe b604 c43d 8b3e 9abe
000002f0: 3374 5dbe b1f6 923d 8a8d fcbd 35c7 e93c
00000300: ce7a 68be 884a 7f3d 03be 8dbd 5e2a e7bd
00000310: 9b36 a7be ced3 e23d c773 30be 04c7 0bbe
00000320: 2cf5 12be f7b3 00bd c4ec c5bc 48e6 e0bd
00000330: 3756 ddbd d38d b2be da54 63be db62 5bbd
00000340: db2b 9a3d b92c 4dbd 2b1e 8cbe 7a83 3e3d
00000350: a16d 0fbe 08d2 febd 369c 33be bde7 3f3d
00000360: 9705 10be 058d 02bc 0648 58bd 30d6 253d
00000370: 0e37 683e 6280 76be 9fa4 0dbe 8a05 6ebe
00000380: 8050 ffbd 7246 253e 9dbd 373d 2ca4 86be
00000390: 176c 103c 165e 95be b188 43be 875c 44be
000003a0: b94c 10be 4c30 35bd 8859 26be 375a f0bd
000003b0: de71 9dbd ae25 19be 7ac8 8abe 23c2 843d
000003c0: d965 cb3d 566b 8bbd c8a8 f23c 74de 193c
000003d0: ab73 82be de48 943d cbbc 9ebc 26f0 433c
000003e0: d73d 9bbd 31d2 93be c6a2 6b3d 9bef 68be
000003f0: 2e71 90bd a83f 9abe 339b 65bd 98fa 91be

model.hidden_0.wa f4 [1, 64]
0.7790697 0.9348649 0.8161069 0.9473004 1.0368369 0.7717448 0.7765745 0.89761305
0.99695873 0.8046518 0.97324944 0.9656789 0.8188502 0.98437697 0.7527564 0.895922
0.9894233 0.9452336 1.0013671 0.9626289 0.6886443 0.8635185 1.0050479 0.92815834
0.99189204 0.79262966 0.9412155 0.87612265 0.58529925 0.95420766 0.90616983 1.1103204
0.9766448 0.83242875 0.7710787 0.78959244 0.5972312 0.80194646 0.87738806 1.0303595
0.97537297 0.99247664 1.0838002 0.85778725 0.7418344 0.87327725 1.0067052 0.8884964
0.6927807 0.9023624 0.98614836 0.81136173 1.0552889 0.9353525 0.98438656 1.0646915
1.0448465 0.8564823 1.0180839 0.8580058 1.0712236 0.99628234 0.72960186 0.9373444
00000000: 1d71 473f 4e53 6f3f 62ec 503f 4782 723f
00000010: 12b7 843f 1191 453f 96cd 463f f8c9 653f
00000020: b038 7f3f a9fd 4d3f e026 793f bb36 773f
00000030: 2ba0 513f 2100 7c3f a5b4 403f 255b 653f
00000040: d84a 7d3f d4fa 713f cc2c 803f d96e 763f
00000050: fe4a 303f 8c0f 5d3f 69a5 803f c99b 6d3f
00000060: a3ec 7d3f c7e9 4a3f 80f3 703f 9349 603f
00000070: 2cd6 153f f446 743f bffa 673f fb1e 8e3f
00000080: 6505 7a3f 0d1a 553f 6a65 453f bb22 4a3f
00000090: 25e4 183f 5d4c 4d3f 819c 603f d2e2 833f
000000a0: 0bb2 793f f312 7e3f f7b9 8a3f f297 5b3f
000000b0: dce8 3d3f 198f 5f3f b7db 803f 8074 633f
000000c0: 135a 313f 3901 673f 3874 7c3f 67b5 4f3f
000000d0: b513 873f 4373 6f3f c200 7c3f d047 883f
000000e0: 88bd 853f 6d42 5b3f 9350 823f 45a6 5b3f
000000f0: db1d 893f 5c0c 7f3f 30c7 3a3f cdf5 6f3f

model.hidden_0.wb f4 [1, 64]
0.64350635 1.0403452 0.93890417 0.83330166 0.8547159 0.9572851 0.8818574 0.8449974
0.9000367 0.8536569 0.92895216 0.8668481 0.8892127 0.9466025 0.97457695 0.86839354
0.89468884 0.96173584 0.9226402 0.8907044 0.9308889 0.88364035 0.9142221 0.93417794
0.95675 0.99402535 0.9239451 0.9390091 0.763931 0.82778573 0.9008278 0.86687684
0.83991575 0.93688107 1.0363597 0.8008289 1.0334404 0.85404193 0.90872407 0.9217565
0.8425896 0.8021039 0.75453717 0.8486492 0.88879055 0.8741412 0.76508015 0.9195957
0.84546167 0.9192699 0.91388756 0.90224934 0.8590728 0.85927564 0.8859077 0.8755721
0.878311 0.9195439 0.89284134 1.0148644 0.8597684 0.8045978 0.91534406 0.71685976
00000000: d5bc 243f 082a 853f 065c 703f 4253 553f
00000010: a9ce 5a3f a310 753f 68c1 613f c051 583f
00000020: ce68 663f 4289 5a3f cfcf 6d3f c2e9 5d3f
00000030: 72a3 633f 8b54 723f e07d 793f 0a4f 5e3f
00000040: 540a 653f 5234 763f 2632 6c3f 3405 643f
00000050: bc4e 6e3f 4136 623f 760a 6a3f 4926 6f3f
00000060: 91ed 743f 7278 7e3f ab87 6c3f e662 703f
00000070: fb90 433f c4e9 533f a79c 663f a4eb 5d3f
00000080: b804 573f 70d7 6f3f 6fa7 843f 1f03 4d3f
00000090: c647 843f 7ea2 5a3f 24a2 683f 3cf8 6b3f
000000a0: f4b3 573f ae56 4d3f 5929 413f 1341 593f
000000b0: c787 633f b8c7 5f3f 4bdc 433f a06a 6b3f
000000c0: 2d70 583f 4655 6b3f 89f4 693f d0f9 663f
000000d0: 32ec 5b3f 7df9 5b3f d9ca 623f 7e25 603f
000000e0: fdd8 603f 3b67 6b3f 4091 643f 14e7 813f
000000f0: c819 5c3f 1ffa 4d3f fd53 6a3f 1f84 373f

model.hidden_0.dist_apical.w f4 [768]
0.30240828 0.5687292 0.4703484 0.42198032 0.17281966 0.50995064 0.50995064 0.13282691
0.01482076 0.19715384 0.21019591 0.073160104 0.53274214 0.6489253 0.68318486 0.7070821
0.6036947 0.6827212 0.73425645 0.45329264 0.4629885 0.35051987 0.28064734 0.2573151
0.42633307 0.25305092 0.46793452 0.5102942 0.09369968 0.42484355 0.36648998 0.4980156
0.33131474 0.20684984 0.19511539 0.1707683 0.65106696 0.35344934 0.50733036 0.1796357
0.5208819 0.5010514 0.5286152 0.5286152 0.22661248 0.66056234 0.32899702 0.26515815
0.720899 0.46844718 0.78047025 0.4552849 0.16906148 0.6884637 0.37228653 0.6884637
0.84484446 0.629652 0.8111334 0.5681638 0.1201505 0.5539856 0.432376 0.45929465
0.28255326 0.14328231 0.105330996 0.4781477 0.38877478 0.49012843 0.38877478 0.5509698
0.22317836 0.10936102 0.5745633 0.29324186 0.1131634 0.10443484 0.16064055 0.10443484
0.33142638 0.16721268 0.07503635 0.32251123 0.5965884 0.50931895 0.5965884 0.74941564
0.33944046 0.5419984 0.74920356 0.4149165 0.8011962 0.4633231 0.63907385 0.5956643
0.49400237 0.63050836 0.5852685 0.44134393 0.8233054 0.6881936 0.89055914 0.7450306
0.60409725 0.6692181 0.34202906 0.63060325 0.5116346 0.6996162 0.42365244 0.4259286
0.27465683 0.49835396 0.29417372 0.19326362 0.39538494 0.5885323 0.54860646 0.43866274
0.1753726 0.5633309 0.5135803 0.27548996 0.5805932 0.80682683 0.7435134 0.11064754
0.6967329 0.5998969 0.6268084 0.48983836 0.51050466 0.70159113 0.2162052 0.32635292
0.24133039 0.7084379 0.7084379 0.6052638 0.40514582 0.52295655 0.7508177 0.28025463
0.12145171 0.3993884 0.2477396 0.3993884 0.042922802 0.39936358 0.32173204 0.19179803
0.6176848 0.61746097 0.61746097 0.53781605 0.7421024 0.29838476 0.5313747 0.5313747
0.43640304 0.48811433 0.2988842 0.507848 0.40738958 0.771896 0.7530061 0.44456425
0.28300488 0.44678694 0.34978062 0.48172083 0.4489585 0.35422978 0.058621027 0.21423358
0.27413613 0.3905361 0.20261203 0.20718396 0.1332988 0.37409747 0.38526738 0.16772288
0.75212884 0.7520957 0.21416682 0.44177333 0.26500398 0.44155648 0.37238565 0.26500398
0.5085859 0.223507 0.7288909 0.5431512 0.6980661 0.78403586 0.4860843 0.5215184
0.40132385 0.2809391 0.747896 0.29421794 0.7617803 0.52040905 0.4196574 0.32506576
0.66572165 0.66186106 0.76561546 0.6537898 0.15669972 0.5904227 0.5457245 0.6501049
0.7790408 0.7357801 0.37682238 0.51004523 0.65191466 0.6259507 0.6259507 0.54179215
0.48908013 0.84927094 0.7196591 0.5212392 0.8407995 0.45249406 0.6180282 0.18887646
0.41479704 0.28704712 0.41479704 0.47421986 0.64842206 0.32553506 0.5256465 0.33828834
0.5834509 0.19611031 0.55628586 0.5168812 0.31962174 0.5314901 0.5092982 0.39761198
0.44069803 0.5675966 0.58814764 0.5425729 0.3202306 0.22317517 0.38558373 0.53523535
00000000: 42d5 9a3e 3d98 113f 81d1 f03e ce0d d83e
00000010: a3f7 303e 208c 023f 208c 023f c703 083e
00000020: c6d2 723c b2e2 493e 993d 573e f7d4 953d
00000030: ca61 083f f81f 263f 34e5 2e3f 5503 353f
00000040: bc8b 1a3f d1c6 2e3f 3bf8 3b3f f915 e83e
00000050: d40c ed3e 5777 b33e 02b1 8f3e cebe 833e
00000060: 5448 da3e e48f 813e 1d95 ef3e a4a2 023f
00000070: 9ee5 bf3d 1885 d93e 93a4 bb3e e7fb fe3e
00000080: 16a2 a93e 72d0 533e 54cc 473e e3dd 2e3e
00000090: 53ac 263f 50f7 b43e 67e0 013f 6cf2 373e
000000a0: 8458 053f e844 003f 5353 073f 5353 073f
000000b0: 1a0d 683e 9d1a 293f 4c72 a83e cfc2 873e
000000c0: d68c 383f 4fd8 ef3e e6cc 473f 1a1b e93e
000000d0: 741e 2d3e 283f 303f 579c be3e 283f 303f
000000e0: ba47 583f e030 213f 70a6 4f3f 2f73 113f
000000f0: 7711 f63d 00d2 0d3f 6360 dd3e ab28 eb3e
00000100: d2aa 903e 99b8 123e c7b7 d73d c6cf f43e
00000110: 7d0d c73e 1df2 fa3e 7d0d c73e 5b0c 0d3f
00000120: de88 643e acf8 df3d 9516 133f cc23 963e
00000130: 36c2 e73d efe1 d53d f57e 243e efe1 d53d
00000140: b8b0 a93e cd39 2b3e a8ac 993d 3120 a53e
00000150: 04ba 183f ba62 023f 04ba 183f b4d9 3f3f
00000160: 24cb ad3e 68c0 0a3f cecb 3f3f ef6f d43e
00000170: 321b 4d3f af38 ed3e 589a 233f 757d 183f
00000180: e1ed fc3e ff68 213f 28d4 153f d5f7 e13e
00000190: 25c4 523f 752d 303f affb 633f 53ba 3e3f
000001a0: 1ea6 1a3f e151 2b3f 6f1e af3e 376f 213f
000001b0: 7cfa 023f 0c1a 333f f9e8 d83e 5013 da3e
000001c0: d29f 8c3e 4028 ff3e f09d 963e e6e6 453e
000001d0: e56f ca3e 0eaa 163f 7971 0c3f 6798 e03e
000001e0: e094 333e 7436 103f 007a 033f 050d 8d3e
000001f0: c2a1 143f 348c 4e3f e556 3e3f 2d9b e23d
00000200: 165d 323f d892 193f 8476 203f 18cc fa3e
00000210: 6fb0 023f 7a9b 333f e564 5d3e bb17 a73e
00000220: 501f 773e 305c 353f 305c 353f 92f2 1a3f
00000230: 466f cf3e 7be0 053f 9735 403f 897d 8f3e
00000240: adbb f83d a37c cc3e 73af 7d3e a37c cc3e
00000250: d2cf 2f3d 6279 cc3e 10ba a43e b466 443e
00000260: 9720 1e3f ec11 1e3f ec11 1e3f 50ae 093f
00000270: 6cfa 3d3f e3c5 983e 2c08 083f 2c08 083f
00000280: 3870 df3e 1fea f93e 5a07 993e 5402 023f
00000290: 5e95 d03e fa9a 453f 02c5 403f ed9d e33e
000002a0: 04e6 903e 42c1 e43e 7216 b33e 1da4 f63e
000002b0: e3dd e53e 9b5d b53e 9a1c 703d 0c60 5b3e
000002c0: 925b 8c3e 59f4 c73e 8779 4f3e 0828 543e
000002d0: 7b7f 083e b489 bf3e c441 c53e 8cbf 2b3e
000002e0: 848b 403f 5889 403f 8c4e 5b3e 1d30 e23e
000002f0: 9aae 873e b113 e23e 55a9 be3e 9aae 873e
00000300: af32 023f 05df 643e 9898 3a3f f50b 0b3f
00000310: 76b4 323f 93b6 483f 0be0 f83e 3b82 053f
00000320: 527a cd3e 40d7 8f3e 1d76 3f3f bca3 963e
00000330: 0904 433f 8739 053f 56dd d63e 056f a63e
00000340: bc6c 2a3f ba6f 293f 60ff 433f c55e 273f
00000350: e475 203e f125 173f 9ab4 0b3f 466d 263f
00000360: 386f 473f 165c 3c3f ddee c03e 5392 023f
00000370: e1e3 263f 4e3e 203f 4e3e 203f e4b2 0a3f
00000380: b668 fa3e d269 593f 943b 383f ef6f 053f
00000390: a33e 573f 4dad e73e 1937 1e3f d568 413e
000003a0: 4760 d43e d7f7 923e 4760 d43e f2cc f23e
000003b0: fdfe 253f 88ac a63e c590 063f 2134 ad3e
000003c0: 0a5d 153f 24d1 483e c068 0e3f 5452 043f
000003d0: 76a5 a33e bc0f 083f 5e61 023f cc93 cb3e
000003e0: 2ca3 e13e 034e 113f d890 163f 0fe6 0a3f
000003f0: 44f5 a33e 0888 643e 3b6b c53e 2f05 093f

model.hidden_0.dist_basal.w f4 [768]
0.55118734 0.5924384 0.7552046 0.51509804 0.5853719 0.61326045 0.30903378 0.5383706
0.5979967 0.58812916 0.7158443 0.69368315 0.5450371 0.8056495 0.7573136 0.61430687
0.92053014 0.86023164 0.8704006 0.77022624 0.8431231 1.0042783 0.9493281 0.95964944
0.5863162 0.50992316 0.76381737 0.77292806 0.48354858 0.68173534 0.5749212 0.68173534
0.8828062 0.82222027 0.4905471 0.84498906 0.3560658 0.76400495 0.6540839 0.7951773
0.60081273 0.8012902 0.68537647 0.64983827 0.73158586 0.8399777 0.6682341 0.90455794
0.82601404 0.86602676 0.67536265 0.7543986 0.59291244 0.772872 0.69810045 0.75027966
0.49811867 0.74716294 0.7449853 0.8973999 0.6546095 0.86681867 0.86497897 0.9764433
0.75738895 0.81804264 0.8259785 0.8561355 0.9569205 0.8345011 0.84209216 0.943352
0.8080741 0.80064934 0.51645875 0.87328523 0.7852502 0.8170887 0.59959584 0.76509506
0.7398973 0.6403153 0.80673724 0.68149716 0.8928835 0.8477214 0.79782915 0.7535018
0.6324712 0.86676484 0.67184955 0.7691288 0.73422575 0.8999797 0.76199514 0.7553692
0.8596727 0.88703525 0.8398626 0.8121983 0.8363127 0.9203647 0.81729454 0.9212074
0.96977055 0.66325223 0.84604496 1.0598985 0.8412678 0.8197933 0.6578111 0.70600307
0.6153529 0.6862141 0.6113441 0.9672183 0.78584 0.55866855 0.581409 0.67239887
0.9826018 0.8843459 0.76146436 0.8812585 0.95714426 0.85381615 1.0051267 0.7223579
0.7724475 0.8813413 0.92992246 0.899625 0.67641914 0.73371446 0.90887016 0.81112474
0.84515274 0.7748904 0.8070258 0.93230146 0.6959196 0.9048212 0.7099763 0.9067974
0.772436 0.6756564 0.6828562 0.7110165 0.6050264 0.6870611 0.6632562 0.76249033
0.63699967 0.78331286 0.8153613 0.97482634 0.6954705 0.81879133 0.7048566 0.47783366
0.75337404 0.9971408 0.88066393 0.8433806 0.8396028 0.97291136 0.9969544 0.7061348
0.6540342 0.89430064 0.56432354 0.8409526 0.78690326 0.6811051 0.6421252 0.7491574
0.8808336 0.8766486 0.80530316 0.77617705 0.57919914 0.5364274 0.6613657 0.78187895
0.74922395 0.6850051 0.7842049 0.67915845 0.83201 0.77618676 0.9161088 0.8099065
0.6219634 0.70685476 0.82551 0.8895035 0.8536711 0.882991 0.830641 0.8769701
0.8480949 0.7537521 0.77926517 0.8297931 0.7887771 0.7850168 0.9582098 0.8275455
0.9153696 0.84468216 0.88220507 0.8050301 0.8801444 0.910707 0.9978087 0.9285121
0.59656286 0.8880638 0.9202658 0.73059356 0.7738848 0.6826308 0.86487025 0.8220858
0.8687577 0.5720606 0.7724612 0.9267254 0.77427495 0.7314731 0.7928992 0.83664393
0.6917046 0.735416 0.8608121 0.8818411 0.750634 0.57861865 0.9145978 0.750634
0.9351226 0.7866849 0.72179383 0.90513647 0.97212267 0.92483604 0.8887575 0.74725914
0.9113378 0.84549 0.85996085 0.84919375 0.77199775 0.85626954 0.7081321 0.76662594
00000000: 9d1a 0d3f 0baa 173f 1755 413f 77dd 033f
00000010: efda 153f a3fe 1c3f ad39 9e3e a8d2 093f
00000020: 5016 193f a28f 163f 9241 373f 3895 313f
00000030: 8d87 0b3f 0c3f 4e3f 4edf 413f 3743 1d3f
00000040: dda7 6b3f 2438 5c3f 93d2 5e3f 8c2d 453f
00000050: ead6 573f 318c 803f 2b07 733f 96ab 753f
00000060: d218 163f 538a 023f 8989 433f 9dde 453f
00000070: ae93 f73e 3586 2e3f 092e 133f 3586 2e3f
00000080: 96ff 613f 077d 523f fd28 fb3e 3451 583f
00000090: 424e b63e d495 433f 0b72 273f bd90 4b3f
000000a0: ddce 193f 5b21 4d3f d574 2f3f cd5b 263f
000000b0: 3649 3b3f c708 573f 6411 2b3f 1c91 673f
000000c0: a875 533f eeb3 5d3f 91e4 2c3f 4420 413f
000000d0: 1cc9 173f f0da 453f b6b6 323f 5412 403f
000000e0: 6909 ff3e 1246 3f3f 5bb7 3e3f 00bc 653f
000000f0: 7d94 273f d4e7 5d3f 436f 5d3f 30f8 793f
00000100: 3ee4 413f 3e6b 513f 5473 533f b22b 5b3f
00000110: bef8 743f dda1 553f 5a93 573f 847f 713f
00000120: f2dd 4e3f 5bf7 4c3f a436 043f 9f8f 5f3f
00000130: 2806 493f ba2c 513f 1d7f 193f 45dd 433f
00000140: e969 3d3f b4eb 233f 5586 4e3f 9976 2e3f
00000150: 0394 643f 4504 593f 883e 4c3f 7ee5 403f
00000160: a2e9 213f 4de4 5d3f 55fe 2b3f a0e5 443f
00000170: 38f6 3b3f 1265 663f 1d12 433f e05f 413f
00000180: 8313 5c3f be14 633f 3c01 573f 3aec 4f3f
00000190: 9718 563f 059d 6b3f 373a 513f 40d4 6b3f
000001a0: e242 783f e6ca 293f 6796 583f c1aa 873f
000001b0: 545d 573f f9dd 513f 4f66 283f 9ebc 343f
000001c0: c587 1d3f baab 2f3f 0c81 1c3f 9e9b 773f
000001d0: cf2c 493f e704 0f3f 38d7 143f 5522 2c3f
000001e0: cb8b 7b3f 7e64 623f 54ef 423f 289a 613f
000001f0: 6807 753f b293 5a3f fea7 803f 73ec 383f
00000200: 1fbf 453f 959f 613f 660f 6e3f d34d 663f
00000210: ce29 2d3f b6d4 3b3f b7ab 683f dfa5 4f3f
00000220: ee5b 583f 385f 463f 3e99 4e3f 4fab 6e3f
00000230: c927 323f 5da2 673f 02c1 353f e023 683f
00000240: 5ebe 453f d1f7 2c3f aacf 2e3f 2d05 363f
00000250: 03e3 1a3f 3ce3 2f3f 29cb 293f 9132 433f
00000260: 6912 233f 3187 483f 85bb 503f 388e 793f
00000270: 5b0a 323f 4f9c 513f 7b71 343f 9da6 f43e
00000280: 1fdd 403f 9f44 7f3f 3173 613f cae7 573f
00000290: 36f0 563f b810 793f 6738 7f3f 40c5 343f
000002a0: c96e 273f e3f0 643f 8277 103f ab48 573f
000002b0: 7e72 493f e75c 2e3f 5162 243f c8c8 3f3f
000002c0: 507e 613f 0b6c 603f 5928 4e3f 8ab3 463f
000002d0: 6546 143f 4e53 093f 434f 293f 3829 483f
000002e0: 24cd 3f3f 7f5c 2f3f a7c1 483f 54dd 2d3f
000002f0: 9bfe 543f 2db4 463f 1b86 6a3f 0856 4f3f
00000300: fe38 1f3f 6ff4 343f a054 533f 80b6 633f
00000310: 308a 5a3f b30b 623f e3a4 543f 1d81 603f
00000320: bf1c 593f e6f5 403f ec7d 473f 526d 543f
00000330: 4ced 493f dcf6 483f 3d4d 753f 06da 533f
00000340: a955 6a3f 173d 583f 31d8 613f 7416 4e3f
00000350: 2551 613f 1824 693f 6470 7f3f f8b2 6d3f
00000360: 58b8 183f 2658 633f 8a96 6b3f 2e08 3b3f
00000370: 501d 463f e4c0 2e3f 2368 5d3f 3774 523f
00000380: e866 5e3f 9072 123f 04c0 453f e03d 6d3f
00000390: e236 463f d241 3b3f 71fb 4a3f 4c2e 563f
000003a0: 8d13 313f 3944 3c3f 2f5e 5c3f 57c0 613f
000003b0: 8d29 403f 5a20 143f 1523 6a3f 8d29 403f
000003c0: 3264 6f3f 2e64 493f 7bc7 383f 06b7 673f
000003d0: 08dd 783f 0ec2 6c3f 9d85 633f 604c 3f3f
000003e0: 6f4d 693f 0872 583f 6526 5c3f c364 593f
000003f0: a5a1 453f 7b34 5b3f 2548 353f 9941 443f
