deeplearning_tasks/models/bci/20150801_Net_noise_0.0_best_trans_model_window_30_step_6_trans_noburst.pth (torch, 362029 bytes, 60 tensors)

mlp_in.0.weight f4 [512, 96]
000000 9e 88 c2 bd d9 a3 52 3d 9f d7 9b 3d 61 58 0d bd
       -0.09498714 0.05142579 0.07609486 -0.034508113
000010 65 43 c6 bb b3 e8 c8 3d 66 d1 de 3d ef 4e 75 3d
       -0.0060505145 0.09810009 0.10879783 0.05988973
000020 e0 ef 30 3e 65 61 d9 bc 76 19 a8 3d 31 a9 1b be
       0.17279005 -0.0265357 0.08207981 -0.1520126
000030 b8 49 15 bd f8 11 db bd 92 de 31 3e c9 59 0f bd
       -0.036447257 -0.10696787 0.1737006 -0.034997735
000040 80 25 71 bd c8 76 36 3d 56 9a 3d bd 69 fb 6f bd
       -0.058873653 0.044546872 -0.046289764 -0.058589373
000050 a0 6e 09 bd 30 ee 8e 3e 14 74 10 bd 3a 9f 93 bc
       -0.033552766 0.27916098 -0.03526695 -0.018020261
000060 9f 78 24 be f2 d6 7d be 18 8b 3d 3d 9a 34 88 bd
       -0.16061638 -0.24789026 0.04627523 -0.06650658
000070 ac e3 e5 3d 24 14 8c bd cd 57 ae bd 3f a1 d0 bd
       0.112250656 -0.06839779 -0.085128404 -0.10187005
000080 b7 f5 bb bd ae 8d 40 bd 27 36 f1 bd 59 18 15 3d
       -0.09177726 -0.047010116 -0.11777907 0.036400173
000090 f6 4a d6 3c 41 68 b4 bc 34 81 3a 3d 48 66 42 bd
       0.026158791 -0.022022368 0.045533374 -0.047460824
0000a0 f1 eb 06 3e ce b0 47 bc 48 e0 26 3e 9b 54 b9 bd
       0.13175942 -0.01218815 0.16296494 -0.0904934
0000b0 9e 3b 0a 3e a2 42 c2 bd de d1 db 3d 00 2e a5 bc
       0.13499305 -0.094853655 0.10733388 -0.020163536
0000c0 51 87 33 be 20 9a 9d 3e 97 42 8a bd 10 80 3b 3d
       -0.17532088 0.3078165 -0.06750982 0.045776427
0000d0 8b 18 01 3e 37 e5 36 3d e4 5e a9 bd 5d 9a 5d bd
       0.12607019 0.04465219 -0.08270052 -0.05410229
0000e0 56 6f b8 3d 87 22 6c be e0 14 5a 3d 3a c7 d4 bd
       0.09005611 -0.23060046 0.053242564 -0.10389562
0000f0 ec 06 b6 bb 32 86 95 bd c2 66 06 3d f8 08 a3 bd
       -0.0055550244 -0.07300986 0.03281284 -0.07960695
000100 8e c9 8e 3d 69 ed 01 00 63 32 03 00 3a 3a ee bd
       0.06972037 1.77002e-40 2.93582e-40 -0.116321996
000110 f4 44 b9 3c 09 22 42 3d aa e1 fc 3c 56 e1 34 bd
       0.022615887 0.04739574 0.030869324 -0.04416021
000120 82 02 19 be ff e7 70 bd 95 05 85 bd 85 02 72 3e
       -0.14942363 -0.058815 -0.06495205 0.23633774
000130 ef ef 3f bd e1 a1 8b 3e 58 02 25 bd 3a ec 0c 3d
       -0.046859678 0.2727194 -0.04028544 0.03440497
000140 55 5a 23 3d 90 93 bc bd 6f 08 51 3e d7 28 e6 bc
       0.03988107 -0.09207833 0.20413373 -0.028095646
000150 84 83 f9 3d ec 47 26 bd 9c 2f 42 bc eb 09 82 bc
       0.12183288 -0.040595934 -0.011852171 -0.01587387
000160 7e e9 b9 bb ac ee e3 bc 92 6e 9d 3d 49 88 97 3d
       -0.0056735864 -0.027823769 0.07687105 0.07399041
000170 ae 04 0b bd 33 38 18 be 6c cf 99 bc 1a a3 00 00
       -0.03394001 -0.14865188 -0.018775664 5.851e-41
000180 78 19 9c 3d 29 14 8c bd 37 8e 14 be c4 26 1b 3c
       0.07622045 -0.06839783 -0.14507376 0.009469692
000190 9b df f0 3c 05 d0 0d be fa 30 c7 3b 3e 3c 12 3e
       0.029403498 -0.13848884 0.0060788365 0.14280793
0001a0 33 2d 41 be 0a 08 ff 3b 93 1b 1b be c1 c0 54 bd
       -0.18864898 0.0077829408 -0.15147237 -0.051941637
0001b0 ae 25 5f ba a4 c7 02 3d ff b3 e4 bc 18 ed c1 bb
       -0.00085123896 0.031928673 -0.02791786 -0.0059181564
0001c0 fc 03 05 bd b3 54 ae 3b 12 2b 45 be b4 15 88 3c
       -0.032474503 0.0053201555 -0.19254711 0.016611911
0001d0 07 7e 89 bd d7 c0 ef bc 8b 4a 85 3d 8c 99 06 bd
       -0.06713491 -0.029266758 0.065083586 -0.032861277
0001e0 ed aa f3 bc 30 d2 fb bd 0a 3d 75 bc fe 39 b3 bd
       -0.02974459 -0.122959495 -0.014968166 -0.087512955
0001f0 4a 9e 6c bc e6 cd 86 3d 69 06 1b 3c 23 5f 49 bc
       -0.014442036 0.06582241 0.0094619775 -0.012290749
000200 36 3f 80 bd e9 41 54 3d af 08 9f bc 6b e4 50 bb
       -0.062620565 0.05182067 -0.01941332 -0.003187443
000210 73 f2 4f 3c fc ad cb bc 52 5e 01 be bf df 35 bd
       0.012692082 -0.024863236 -0.12633637 -0.044402834
000220 b1 0c 04 bc 50 cb a2 bd 5d 80 19 3d 7f 9a d0 bd
       -0.0080596665 -0.07948935 0.037475932 -0.10185718
000230 2f 3c 19 3e be ec 19 bd 47 19 63 bc 7d bf da 3c
       0.14964364 -0.03757929 -0.013861007 0.026702637
000240 9e d3 fc bd cc 4f 0c 3e 32 50 17 3d de 19 87 bd
       -0.1234505 0.13702315 0.036941715 -0.06596731
000250 48 d6 aa 3d 10 d1 34 bd 71 aa bb 3c b4 5c 6a 3c
       0.08341652 -0.04414469 0.022908421 0.014304329
000260 9c a5 9b 3d 2c a7 57 be 18 11 d1 bc 18 b7 5d 3d
       0.07599947 -0.21059865 -0.025520846 0.05412969
000270 8d 77 ac 3c a2 14 0e bd 45 5c ca 3d 0b 4a c9 bd
       0.0210531 -0.034687646 0.0988088 -0.09828576
000280 86 8b 13 3d c4 22 05 00 ba cc 01 80 08 cd 0a bd
       0.03602173 4.71649e-40 -1.65278e-40 -0.03388694
000290 d9 80 61 3d b3 12 d0 3a 28 59 16 3d 3d 45 d2 bc
       0.05505452 0.0015874713 0.03670612 -0.025667781
0002a0 2a 9d 0e be cd 79 59 3c c9 6b 16 3e ee 88 9e 3d
       -0.13927141 0.0132736685 0.14689554 0.07740961
0002b0 4a d8 12 3e ab 69 60 3c 03 93 82 3c 67 f1 16 3e
       0.1434032 0.013697068 0.015939241 0.14740525
0002c0 94 18 4c bd 2d 48 ca 3d 78 99 e9 3d 1a 8e b6 3d
       -0.049828127 0.09877048 0.11406225 0.089138225
0002d0 97 1b cc bd 66 1f 3f 3d 65 6b 86 3d 85 2a e9 3b
       -0.099662 0.046660803 0.06563453 0.0071156644
0002e0 29 11 ce 3d 51 c0 a4 3b 54 4d a5 bd a1 98 cc bd
       0.10061867 0.0050278087 -0.0807139 -0.09990049
0002f0 4c 68 38 3c 34 c1 35 bc 05 18 d3 3d 63 b0 03 80
       0.011255335 -0.0110934265 0.10307316 -3.38782e-40
000300 07 a7 1c bd 6c d4 f2 bc 57 6e 00 3d 6a 51 36 3d
       -0.038245227 -0.029642306 0.03135523 0.044511236
000310 b8 ae c0 bb 42 1d 91 3d 75 93 64 bb 80 d7 f3 3c
       -0.005880203 0.070856586 -0.003487793 0.029765844
000320 e3 82 95 bb 37 7e 3e bc df 1c f7 3c f2 ac bb 3c
       -0.004562722 -0.011626772 0.030165134 0.022909615
000330 53 13 92 3c d5 d4 d1 bd 9b d1 26 bd 94 69 33 3c
       0.01783148 -0.102456726 -0.04072724 0.010950465
000340 28 f5 11 bb 22 db 87 3c af 6a 8e 3c fe c1 bd bc
       -0.0022271369 0.016583983 0.017384855 -0.023163792
000350 90 99 bd bd a0 43 a3 3c 25 c4 83 bd d2 01 25 3c
       -0.09257805 0.019929707 -0.06433896 0.010071235
000360 03 fa 0c 3d 6b 4a 07 bd e3 da 1d bd e1 4c bb 3d
       0.034418117 -0.033029955 -0.038538825 0.09145523
000370 e5 a0 fe bd 54 83 28 bd e7 dc 87 3c 17 78 61 bc
       -0.12433032 -0.04114087 0.016584827 -0.013761542
000380 9f 17 13 bb 10 69 3d bc e0 81 86 bd 9b 00 31 bc
       -0.00224445 -0.011560693 -0.065677404 -0.010803367
000390 f7 39 37 bc 7b ff 84 3c 0f 91 35 3c dd d1 d6 3c
       -0.0111832535 0.016235104 0.011081948 0.026223117
0003a0 37 33 27 bc 96 2c 89 3b 22 31 e4 3d 91 d9 c9 bc
       -0.010205082 0.0041862233 0.11142184 -0.024639877
0003b0 cd ce 9f bd ab 21 03 3c 6a 5c 7e 3d 9a 94 9c bc
       -0.07803116 0.008003633 0.06209985 -0.019113827
0003c0 14 e4 88 3c bf f7 43 3c 25 88 5a bb 78 e1 56 bc
       0.016710319 0.011960923 -0.0033345309 -0.013115279
0003d0 97 59 c6 3b 6d 40 ac 3d c9 d0 f3 3b 56 c4 02 3c
       0.0060531604 0.08410726 0.0074406606 0.00798138
0003e0 cf cf a0 bc 96 22 85 3c 16 63 9d bc 6d 2f 3c bb
       -0.01963034 0.016251843 -0.019212287 -0.0028714791
0003f0 74 7b d2 3c 86 dd 80 bc cd 82 2b 3d 3b 24 52 3c
       0.025693633 -0.01573063 0.04187279 0.012826021

mlp_in.0.bias f4 [512]
000000 51 1f ed 3d fb 8f 78 3d 0e 10 2e 3e 5b 0b 28 3e
       0.11578239 0.060684185 0.16998312 0.16410582
000010 72 f6 f2 3d 25 78 8c 3e b4 10 0a be fb 40 0b 3e
       0.11863412 0.27435413 -0.13482934 0.13599007
000020 dd 6e 87 3c 50 83 23 be c8 bb 49 bc 10 8f 06 be
       0.016532356 -0.1596806 -0.012312837 -0.13140512
000030 82 4f 19 3e a4 a6 e7 3d f3 c7 82 bd 27 51 80 bd
       0.14971736 0.11311081 -0.063857935 -0.062654786
000040 77 e8 a1 bb e8 60 2d 3e 35 19 09 bd fa 9f 52 be
       -0.004941042 0.16931498 -0.033471305 -0.20568839
000050 e5 9e d2 3d e6 41 b5 bd a3 fa f3 bd 1a ae 02 be
       0.10284213 -0.0885046 -0.119130395 -0.12761727
000060 76 af 29 3e a0 88 30 3d 18 a0 a3 bd 21 9a 57 3d
       0.1657084 0.043099046 -0.0798952 0.052637223
000070 2b e1 8d be 3a 3f 18 3e 72 d8 05 be 17 4f 1a bd
       -0.27710852 0.14867869 -0.13070849 -0.037673082
000080 8d d5 d0 bc 5d 0e 57 be 5f c7 19 be 11 c3 da 3d
       -0.025492454 -0.21001573 -0.1501746 0.10681737
000090 ef a9 34 3e 0b 8c 8f be 2a e4 20 3d 56 10 43 bc
       0.1764295 -0.28036532 0.039280094 -0.01190575
0000a0 9c 68 87 3e 4c 97 19 be ca 26 44 3d 92 4c 17 3e
       0.26446998 -0.14999121 0.047888555 0.14775303
0000b0 de bb 2c 3e 7d ca e7 bc 79 61 2e 3e 64 94 e9 3d
       0.1686854 -0.028294796 0.1702937 0.114052564
0000c0 15 4b 31 3d 61 b1 30 be dc 0f 4f bc 09 b2 8c be
       0.043284494 -0.17255165 -0.0126380585 -0.2747958
0000d0 ad 68 19 3d d0 58 6c bd 90 58 1d be b1 d5 4d 3c
       0.037453342 -0.057701886 -0.15365815 0.012563155
0000e0 29 34 98 3d 86 12 65 bd 80 7b b7 bd d5 03 f3 3d
       0.07431824 -0.05592587 -0.08959103 0.11865965
0000f0 27 9a d2 3d a5 60 86 bc 89 96 7c bd ed 81 f0 3d
       0.102833085 -0.016403506 -0.061667 0.117435314
000100 12 f0 14 be 72 7a b3 bd f3 51 ca bd 95 a3 fd bd
       -0.14544705 -0.08763589 -0.09878912 -0.123847164
000110 1b 01 86 be 48 ba 12 3e 4a d6 40 be 31 4f 10 be
       -0.26172718 0.14328873 -0.18831745 -0.14092709
000120 bc b4 9b 3b 31 3e 48 3e 0b 4f 30 3d cb a9 a3 bc
       0.00475177 0.19554974 0.04304413 -0.019978425
000130 34 a1 49 3e 26 3f 3b be aa 55 02 bd ad 8e 86 3d
       0.196904 -0.18285808 -0.031819977 0.06570182
000140 b9 c7 81 3c 28 c4 60 3e 8c 83 6b 3c fa 2d 5e 3e
       0.015842305 0.21949828 0.014374625 0.21697226
000150 6e a5 42 3c ca 6e 0d be 18 02 80 3e a3 6e b3 3d
       0.011880262 -0.13811794 0.25001597 0.08761337
000160 ec 11 1f be 43 c6 51 3e 11 fe 3f be 12 af 32 be
       -0.1553418 0.20485787 -0.18749262 -0.17449597
000170 12 39 67 3e c2 50 d7 bd 40 f7 af 3b de 7a 23 bc
       0.22580364 -0.1051345 0.0053700507 -0.009978024
000180 6a 8c a6 3d 72 16 42 be b2 2a bb bd 5a 3c 0c 3e
       0.081322506 -0.18953875 -0.09139003 0.13694897
000190 7f cc be bd 17 e7 21 be 5f bd 34 3e 68 ba 0b bd
       -0.09316348 -0.1581081 0.17650364 -0.034113318
0001a0 f1 86 fb bb ff 2f 95 3d 51 71 f8 bd f0 28 d8 bc
       -0.0076759984 0.07284545 -0.121309884 -0.026386708
0001b0 82 77 26 bd 56 d0 10 3e 14 06 0a 3e 62 bb 74 bd
       -0.040641315 0.14141974 0.13478881 -0.059749015
0001c0 50 d5 50 3e 43 8b 5e be 00 8d 9f 3d 10 3b 83 3d
       0.20393872 -0.21732812 0.077905655 0.0640775
0001d0 9c 4c 9e bd af 77 ab 3d 61 02 b4 bd e8 76 08 be
       -0.07729456 0.08372437 -0.08789516 -0.13326609
0001e0 39 49 ab 3d 25 ec 10 bd f6 9f 53 be 16 ee d7 bd
       0.083635755 -0.035381455 -0.20666489 -0.10543458
0001f0 ca 47 b5 3c 08 b9 ee bd 7f c2 18 3d 19 36 26 bb
       0.022128958 -0.11656386 0.03729486 -0.0025361835
000200 fc 41 62 bd b4 94 d0 bd e9 c4 cc bd bd 5c 2a bc
       -0.05523871 -0.10184613 -0.09998495 -0.010398087
000210 b9 af e3 bc 66 c8 f7 bb ae f0 79 3d 54 99 30 be
       -0.027793752 -0.007561731 0.061020546 -0.1724599
000220 96 0e 71 be cd 05 50 3e d3 ce 82 bd ea e7 68 3e
       -0.2354072 0.20314713 -0.06387105 0.22744718
000230 03 ae 92 3d 34 04 09 3e aa 73 59 bc c2 07 ea bd
       0.07162096 0.1338051 -0.013272205 -0.11427261
000240 b3 b0 2f 3e c7 4d 53 be d9 97 38 be 77 76 fc bd
       0.17157249 -0.20635138 -0.18026675 -0.12327283
000250 82 67 1e 3e 5c 56 13 3e 73 45 65 3d 7b 83 3c 3e
       0.15469173 0.14388412 0.055974435 0.18409531
000260 45 79 0b 3e 04 13 00 3e 5d a6 2f 3c 61 47 07 3e
       0.1362048 0.12507254 0.010720816 0.13210823
000270 3d f5 32 be 93 1d 59 bd 0b 82 ba 3d 60 ea e2 bd
       -0.17476363 -0.05300672 0.09106835 -0.1107986
000280 2c 8e 8c 3e c9 3c 44 3d 4b b2 87 bd 8e 66 54 3e
       0.2745222 0.04790953 -0.066258036 0.20742247
000290 53 86 32 3e 01 8a 20 3d cf da 88 3d 7b 0e 85 3c
       0.17434053 0.03919411 0.066823594 0.016242256
0002a0 7b 71 01 bb e7 3e de bc bc a3 b6 bd 39 87 39 3e
       -0.0019751478 -0.027129604 -0.089179486 0.1811799
0002b0 cd ad c8 3d 02 32 18 3e 07 2d f4 bc 9e 1e d9 bb
       0.09798775 0.14862826 -0.029806627 -0.0066259643
0002c0 63 db 97 bb 8f a4 94 bd ba c7 7e be 63 9b 40 be
       -0.004634307 -0.072579496 -0.24880877 -0.18809275
0002d0 fb 11 cb 3c ec 2a 7e 3d cf 49 36 bc 9b 51 fe bc
       0.024788847 0.062052652 -0.011125996 -0.031044772
0002e0 48 7b e5 bd 5d dc b1 3d a4 b4 d1 3d 21 e6 fc 3d
       -0.11205155 0.08684609 0.102395326 0.12348581
0002f0 53 dd f3 bd e1 b7 06 be 96 73 2d 3e 73 76 91 bc
       -0.119074486 -0.13156082 0.16938624 -0.017756676
000300 11 78 e6 3c 49 57 8d 3e 1f 0b e3 3d b9 f4 b5 3d
       0.028133424 0.27605656 0.110861056 0.08884568
000310 b3 a0 d9 bd 2e 36 1b bd 9a ae 03 bd 65 90 52 3e
       -0.10626354 -0.037893467 -0.032148935 0.20562895
000320 f3 53 6e 3d 18 37 f2 3d 5e b0 9d bd f7 9d 4b 3c
       0.05818553 0.118269145 -0.07699655 0.0124277985
000330 6c bb 6c 3e f3 24 ba bd 1d 2e ae bd 2d d2 8e 3d
       0.23118371 -0.09089079 -0.08504889 0.069736816
000340 05 ae db 3c 30 9c 88 3b a7 4e c4 bd de 6d b0 be
       0.026816377 0.0041690096 -0.09585314 -0.34458822
000350 a3 18 3e 3e e2 e6 cf 3d 3d 26 28 3e 11 9b 6f 3e
       0.18564086 0.10151459 0.16420837 0.23398997
000360 cb 7d a2 3d 8c f2 2b be 49 a4 52 3d d6 dd a5 3c
       0.07934149 -0.16791743 0.051426206 0.020247381
000370 51 d9 47 bd 2c 42 02 3e d7 ad bd bd d1 e1 91 bd
       -0.048791233 0.12720555 -0.09261673 -0.07123149
000380 20 d5 35 3e 31 42 d0 3c 72 d5 d5 bd 41 09 24 3e
       0.17757082 0.025422188 -0.10441102 0.16019155
000390 43 60 86 3e 6f e3 15 3e a2 fe 45 bb e8 4d 2f 3e
       0.26245317 0.1463754 -0.0030211587 0.17119563
0003a0 f9 56 c3 3c 1a 99 06 be be 65 c7 bd e7 13 7f 3d
       0.023845183 -0.13144341 -0.09736203 0.06227484
0003b0 d2 9a 8d 3d 64 26 31 bd 53 c7 60 3d ee bc 84 be
       0.06914295 -0.043249503 0.05487759 -0.25925392
0003c0 a2 19 22 3e a6 1a bb 3d a0 1d fe 3d 3e d6 76 3e
       0.1583009 0.09135942 0.12407994 0.24105164
0003d0 5a 0d 41 3e d8 c6 c2 bc 04 e3 a6 3d a4 f7 90 bd
       0.1885275 -0.023776457 0.081487685 -0.07078484
0003e0 1a ad c9 3d 29 44 f4 bc a0 42 59 3b fc 9e 80 3d
       0.0984747 -0.029817658 0.0033151284 0.06280324
0003f0 d6 31 5e 3d 83 68 40 3b bd c1 0e be 5e ab ad bc
       0.054246746 0.002935917 -0.13941093 -0.021199878

mlp_in.1.weight f4 [16, 512]
000000 fc 9b 47 bc f6 b5 4b bd 07 bf 41 bd 34 06 25 be
       -0.012183186 -0.04973408 -0.04730132 -0.16115648
000010 4d d8 73 bd 88 e7 4e be 18 f1 af bb a9 84 15 3d
       -0.059532452 -0.2020551 -0.005369317 0.036503468
000020 e9 fd dc bd 11 ec 85 3d b9 ed c6 3d 47 42 4a bc
       -0.10790617 0.06539167 0.09713311 -0.012344903
000030 3d e6 9f 3d 0c 42 d5 bc 0f 09 9c 3d 94 4e 83 bb
       0.07807586 -0.02603247 0.07618915 -0.00400717
000040 ca eb e5 3d 48 03 83 bd 46 72 11 3d e5 9d 6a 3d
       0.11226614 -0.0639711 0.03550937 0.057279486
000050 2f d3 b9 bd a1 49 72 3d 75 d7 96 3d 32 61 4d 3d
       -0.09073483 0.05915225 0.07365314 0.05014152
000060 96 d5 91 bd d3 4b ec bb 1f 6e d5 3c 05 d6 00 bd
       -0.071208164 -0.0072111874 0.026053486 -0.031454105
000070 e9 76 4e 3e 27 32 e0 bd 4f 19 3a 3d 8e 26 a0 3c
       0.20162548 -0.10947066 0.045434292 0.019549634
000080 7c e8 88 bc 53 1d df bc 4a 13 f9 3d a6 2e 2e 3d
       -0.01671242 -0.027235663 0.12161882 0.042524956
000090 40 9e 92 3c 88 e2 1f 3e b7 33 8c 3d 77 01 95 3c
       0.017897725 0.15613759 0.06845801 0.018189175
0000a0 2b c8 bd bc cc a3 75 3d f3 94 32 3d 43 bb f1 3c
       -0.023166737 0.059970662 0.04359908 0.029508239
0000b0 62 ad bb bd 59 2c 8e 3d 7b 03 88 bd 89 c8 0b bd
       -0.091639295 0.069420524 -0.06641289 -0.034126792
0000c0 75 d7 15 bd 06 c7 7f 3b 08 85 71 3c 50 00 75 3d
       -0.03658243 0.003902854 0.01474119 0.05981475
0000d0 66 3b 16 bc ed 19 36 3d d3 fb 22 3d 78 fe 74 bc
       -0.009169435 0.04445832 0.03979094 -0.014953248
0000e0 a8 f8 2f bc cc 7a f6 3c 01 5d 20 3e cb ee 10 3d
       -0.010740437 0.030087851 0.15660478 0.03538398
0000f0 f2 a3 fc bc 3b fe 1c bd 44 84 02 bc e2 a9 3c bd
       -0.030839894 -0.03832839 -0.007966105 -0.04606045
000100 6e 69 54 bd 3e c7 a1 bc 2c 6a 82 3d 98 66 8c 3b
       -0.051858358 -0.019748326 0.06367907 0.004284691
000110 3c 24 27 3e 5a 3d 4a 3d 14 d2 66 3d 63 1a fd bc
       0.16322416 0.049374916 0.05635269 -0.030896371
000120 7c 4d c2 3b 03 78 cc bc 9a 48 a0 3d ad 22 05 3b
       0.005929647 -0.02495957 0.07826348 0.0020314858
000130 65 8c cb bd f3 c5 0b 3e 2b dd e9 3d c1 f4 89 bc
       -0.099388875 0.1364973 0.114191376 -0.01684034
000140 06 f7 a2 3d 6a 3a a7 3c 0f 12 51 3b f0 00 bf bd
       0.07957272 0.020413596 0.0031901633 -0.09326351
000150 c0 39 bb bb 27 00 c9 3d d2 c3 fe bd a0 6e a9 bd
       -0.0057136714 0.09814482 -0.124396935 -0.08273053
000160 b4 77 5d 3d c4 b8 ae bd ff 29 91 3d 31 f1 2d bc
       0.054069236 -0.08531335 0.07088088 -0.010616587
000170 51 f2 7a 3b 44 ee 95 3d 58 74 5f 3c 8c ee b1 3a
       0.0038291404 0.07320836 0.013638578 0.0013575121
000180 a3 75 91 3c 2b 99 5a 3e e5 9b ae bd fa 5b 66 bd
       0.017756289 0.21347491 -0.08525828 -0.05624006
000190 51 3c 3c 3d b1 06 01 bc 10 00 57 3c ba e7 5b bd
       0.04595596 -0.0078751305 0.0131225735 -0.05368779
0001a0 9f 77 e6 3c 3e c5 8a bd 13 ee 6d 3d ff 1a 8b 3d
       0.028133212 -0.06775902 0.058088373 0.067922585
0001b0 40 06 95 bd 34 33 09 be 11 c7 03 3c b4 9f 68 3d
       -0.07276583 -0.13398439 0.008043067 0.05679293
0001c0 7d 1d 00 be 98 52 91 3d 06 a1 11 bd 96 f9 3b 3d
       -0.12511249 0.07095832 -0.035553955 0.04589232
0001d0 35 72 99 3d da 8d 91 3c f1 6c b3 3d 21 38 bb 3c
       0.074924864 0.017767835 0.08761013 0.022853913
0001e0 dd ce 89 bd 9a 73 9f 3d 36 fb fc 3d 72 5a 62 3d
       -0.06728909 0.07785721 0.12352602 0.055262037
0001f0 a4 8f b5 bb 12 ac 27 3d 01 dc a6 3c 03 0c 84 3d
       -0.005540805 0.040935583 0.020368578 0.064476036
000200 96 02 08 be 93 ba 21 bd f4 ab c5 3c 52 01 1d ba
       -0.13282236 -0.03948457 0.024129845 -0.00059892714
000210 04 d6 b6 3b 8b a5 99 bc 32 d5 e7 bd 17 ff 12 bd
       0.005579712 -0.018755695 -0.11319961 -0.035887804
000220 d0 c6 90 3d 60 fe 61 3c ae ce 91 3d 97 ee ce bd
       0.070691705 0.013793558 0.07119499 -0.10104101
000230 3c 61 c1 3c 23 e1 5e bd 68 d7 17 bd bf 31 cd 3c
       0.023605935 -0.054413926 -0.03707066 0.025048135
000240 d6 61 0a be 02 98 f6 3d d1 7e 5c ba 3e 02 71 bc
       -0.13513884 0.12040712 -0.0008411231 -0.014710007
000250 97 91 40 be e1 0e 9b bd 6e 30 b4 3c 64 ad 98 bc
       -0.18805538 -0.07571197 0.02199575 -0.018637367
000260 91 08 ac bc 7e 8d b8 bd 4d 50 d4 bd 11 60 62 bd
       -0.021000179 -0.090113625 -0.10366879 -0.055267397
000270 01 ca 6b 3d 49 4d 29 3c 7c ab 3d bd 8b aa ef 3d
       0.057565693 0.010333368 -0.04630612 0.1170245
000280 67 93 1a be 68 ce ae 3d 8d 2c 05 3d 13 a5 2e be
       -0.15095292 0.085354626 0.03251319 -0.17055158
000290 e8 4b 63 bd 4c 99 17 bc 57 1b 30 bd 33 b7 f3 3c
       -0.05549231 -0.009252857 -0.042994823 0.029750442
0002a0 82 d4 02 3d ce ff 07 3e 8a 1f da bc ba db ad bd
       0.031940944 0.13281175 -0.026626367 -0.08489175
0002b0 5d d7 5b 3b d1 15 91 3b 94 e7 5d 3d 2e 70 a7 bd
       0.0033545115 0.0044276495 0.05417593 -0.081756935
0002c0 e7 e6 9e bb c5 ad cd 3c 5c ad 85 3d 73 d0 f5 3c
       -0.004849303 0.025107274 0.06527206 0.030006623
0002d0 b4 25 8c bd 6e 28 dd bd e1 73 57 3d 39 e6 15 3c
       -0.06843129 -0.10798727 0.052600745 0.009149128
0002e0 87 b3 d2 3d 58 7a 60 bd e2 5f a5 bc a6 6f e0 bb
       0.102881484 -0.054804176 -0.020187322 -0.006849247
0002f0 62 25 fd 3d f6 94 1f 3d ea da 0e bd 4a 57 ab 3c
       0.12360646 0.03896042 -0.03487674 0.020915646
000300 6d 2f 47 3d 5b 2d 16 be 5f dd 84 bd 5c f3 e4 bc
       0.048629213 -0.14665739 -0.06487536 -0.027948074
000310 d5 0f 17 3d 83 5b 32 bc 0b f0 5d bc 2a c6 b0 bd
       0.036880333 -0.010886076 -0.013546 -0.08631547
000320 90 c6 ed bc 22 ed 46 bd e8 d3 bb bc f3 f6 0d bd
       -0.029025346 -0.04856599 -0.022928193 -0.034659337
000330 03 13 24 be 3e f4 c2 ba a2 53 ec bc 2d 29 cf 3d
       -0.16022877 -0.0014873815 -0.028848473 0.101152755
000340 bf b2 14 3c 11 12 7c 3d c1 bc e5 3d dc 9f c4 3d
       0.0090758195 0.061540667 0.112176426 0.09600803
000350 59 93 0a bd 84 f8 52 bb b6 8a 1d bd 6e a9 db bd
       -0.033831928 -0.0032191584 -0.038462363 -0.107256755
000360 82 b3 0e be 07 d3 7c bd d9 6b 1f bd ea 8d 31 bc
       -0.13935664 -0.06172469 -0.03892121 -0.010837058
000370 a1 cb 3a 3d b0 af ef 3c c8 88 e2 bc 89 b1 6b 3c
       0.045604352 0.029258579 -0.027653113 0.014385589
000380 7d d7 c0 bd 4b f2 62 bc ee 40 8a 3d bb 0f 3f bc
       -0.09416101 -0.013851712 0.067506656 -0.011661465
000390 12 65 5f be d3 e9 7e 3c 5c bb 14 3c 5b bd f9 bc
       -0.21815899 0.015558678 0.009077873 -0.0304858
0003a0 ea 2b 93 3b f2 f4 76 3c 92 6b e1 3d cb 13 91 3d
       0.004491319 0.015073048 0.110068455 0.07083853
0003b0 34 5a f0 bc f4 28 7d bd 56 f1 4a 3d 4b e5 ac 3d
       -0.029339887 -0.061806634 0.049546562 0.08442172
0003c0 5e 1d d0 3b 54 89 23 be d9 a0 ed bc 8a d6 dc bd
       0.006351157 -0.15970355 -0.029007362 -0.107831076
0003d0 db 3b e2 bd 1e b6 7c bc a8 66 ee 3c f7 6a 23 3d
       -0.11046573 -0.0154242795 0.029101685 0.03989693
0003e0 01 d1 81 bd 2a 51 5e 3c 66 05 9e bd 3b 17 56 bd
       -0.063386925 0.013569156 -0.077158734 -0.052268248
0003f0 06 20 b6 bc 30 67 86 bd c4 25 b0 3d d8 7c 27 3b
       -0.022232067 -0.0656265 0.08600953 0.002555659

mlp_in.1.bias f4 [16]
000000 6e 84 01 be ea 6a 1e be 79 95 01 bd 40 78 de 3d
       -0.12648174 -0.15470472 -0.03163669 0.108627796
000010 e6 eb 8c 3d 0a 72 fa bd ed c9 56 bd e8 3c 54 3d
       0.068809316 -0.122287825 -0.052438665 0.051815897
000020 af 25 7f bd b3 33 37 3e 70 73 db 3c 08 b1 8e 3d
       -0.062291797 0.17890815 0.026788443 0.0696736
000030 97 fc 3b be 5f de 11 3e 6f 59 99 3c d5 81 ca 3d
       -0.18358074 0.14244984 0.018719403 0.09888045

model.project_0.weight f4 [256, 16]
000000 8c 29 08 3d 84 07 ea bd c5 8b 66 3e b7 ff bd bd
       0.033242747 -0.11427215 0.22514255 -0.09277289
000010 d5 fc 6a bd 09 59 dc 3d fb ec 49 3e 63 a0 4d be
       -0.057370026 0.107591696 0.19719307 -0.20080714
000020 b4 1f 10 be ae 5b 2c be 07 b9 a1 3a c5 c0 53 3d
       -0.14074594 -0.16831848 0.0012338468 0.05169751
000030 a2 2e f6 3d d7 42 e5 bd 97 0e 8c 3d 49 dc 1e 3e
       0.12020613 -0.11194389 0.0683872 0.1551372
000040 54 28 e0 bd 8a 08 49 be 23 46 19 be b0 dc ee bd
       -0.10945192 -0.19632164 -0.14968161 -0.116631866
000050 a4 33 2d be db 6b f7 3e d1 b9 1d 3e 49 d3 8d 3d
       -0.1691423 0.48324475 0.15402915 0.06925065
000060 23 3c 8a 3d 33 69 54 be 10 d4 b1 3d d9 13 1d 3e
       0.067497514 -0.20743255 0.08683026 0.15339603
000070 f0 69 ae bc 12 50 d4 3d a7 a1 16 bd bc 08 0c 3d
       -0.02129075 0.10366835 -0.036775257 0.034188017
000080 57 6d 46 bc b3 06 aa bd cc 5a 05 3e 1d 74 48 be
       -0.01211103 -0.08302059 0.13022918 -0.19575544
000090 0c c8 27 3e cc c7 fd bd 43 ac 94 3e de 9b 15 3c
       0.16384906 -0.12391624 0.29037675 0.0091314
0000a0 46 ae be bd a6 22 9d bd 52 9a 82 bc e5 89 c5 bd
       -0.09310584 -0.07672624 -0.015942726 -0.09645442
0000b0 39 fd e8 bd 7b 0d e7 bc f8 30 6a bd dc 1c 51 bd
       -0.113764234 -0.02820467 -0.057175606 -0.051052913
0000c0 6d 39 3b bd 42 00 15 3e e5 59 fc bd 14 96 c5 3d
       -0.045709062 0.1455088 -0.123218335 0.09647766
0000d0 50 2b 7a 3c bb 4e 4d be 1d d3 8d bd 48 86 13 be
       0.015269116 -0.20049565 -0.06925032 -0.14406693
0000e0 79 a6 ef 3d 79 ef 89 be 74 65 df 3c 8e c3 10 3e
       0.11701674 -0.26940516 0.027270056 0.14137098
0000f0 bc f5 78 3d 10 64 fa 3d d0 07 90 3e 78 30 0b be
       0.060781226 0.12226117 0.2813096 -0.13592708
000100 23 7f 3d 3e 6e 93 f0 3d a2 27 5c be b8 b0 6a be
       0.1850553 0.1174687 -0.21499494 -0.22918975
000110 0a 8b 80 3d 85 29 81 3e 94 2d 27 be 3e 0c 4f bd
       0.062765196 0.2522699 -0.1632598 -0.050548784
000120 7c db 73 be 99 7a 1f bd df be 6a 3d 8d 2a 44 be
       -0.23814195 -0.038935278 0.057310935 -0.19156857
000130 22 e0 65 be ea 80 c3 3d d9 be 96 3d 40 87 46 bd
       -0.22448781 0.09546073 0.0736062 -0.04846883
000140 ce d6 3e 3d b5 16 b7 3d 7b b4 90 bd af b1 81 3d
       0.046591572 0.08939878 -0.07065674 0.063327186
000150 f8 7b 89 3e 6b 40 bd bd 26 b8 f3 3d f9 28 99 3d
       0.26852393 -0.092408024 0.11900358 0.07478518
000160 12 ea ee bd 3e 90 90 bd 08 85 a4 3c 36 a1 27 be
       -0.11665739 -0.07058762 0.020082965 -0.16370091
000170 55 6c 62 be 95 17 2f 3e 6c 28 63 3e 4c e8 91 be
       -0.22111638 0.1709884 0.22183388 -0.2849754
000180 03 ec 11 3e e5 98 30 3c 89 65 ee bc 1e d3 70 be
       0.14250188 0.01077864 -0.02910115 -0.23518035
000190 40 80 62 3d 9b 6e c8 3b 4a 19 4d 3e b1 24 d9 3d
       0.05529809 0.006116701 0.20029178 0.106027015
0001a0 c9 2b 6e be 6d c5 b2 be 0d c2 49 bd b1 26 55 3d
       -0.2325889 -0.3491625 -0.049257327 0.052038852
0001b0 80 16 0f bd 54 f1 d3 3d 21 6e 2e bd 1b a0 ad be
       -0.034933567 0.10348764 -0.042585496 -0.33911213
0001c0 ca ba 88 be 69 5e c9 bd 2d 71 34 3d 91 57 f7 3c
       -0.2670501 -0.098324604 0.044053245 0.030193122
0001d0 6f 4a 0b 3e de 1c 51 3e bc 30 27 be 5b 0b 81 be
       0.13602613 0.20421168 -0.16327184 -0.25203976
0001e0 b1 8e 0e be e9 ee 02 3e 8a 70 79 3e 6a 72 7e 3d
       -0.1392162 0.1278645 0.24359336 0.062120833
0001f0 75 dd 83 3e 03 5f de 3d fe 98 12 bd a2 84 82 3e
       0.25754896 0.10857966 -0.035790436 0.25491816
000200 a1 2e 5a 3e d4 18 9a 3c 50 71 3a 3e 27 bb ec bc
       0.2130685 0.018810667 0.18207288 -0.028897835
000210 07 01 68 be a2 5a 05 3e 01 ef 25 3e 5b 31 92 bd
       -0.22656642 0.13022855 0.16204454 -0.0713832
000220 46 af 4c 3e 54 af 1b be 2f 99 92 3c 3d 26 e0 3d
       0.19988737 -0.15203601 0.01789531 0.109447934
000230 bd 35 ad bd b7 bd 9e be 7e f4 d2 bd 10 06 69 3e
       -0.084575154 -0.31004116 -0.103005394 0.22756219
000240 e0 e2 4f be fb e2 80 bc 26 78 4a bc b8 c9 80 be
       -0.2030139 -0.015733233 -0.012357747 -0.251539
000250 a1 89 4b 3e 2c 8e 7c be 6a 5f 18 3e 50 8b af 3d
       0.1987672 -0.2466361 0.14880148 0.085714936
000260 e4 96 0f 3e d4 60 b7 bd 1b 8d 40 3d 16 f4 3d be
       0.14022404 -0.089540154 0.04700957 -0.18550143
000270 b3 12 29 3e 57 2b ba bd 14 37 99 3e ed 03 25 be
       0.1651104 -0.09090298 0.29924834 -0.16114779
000280 2f a2 eb 3d 00 d3 2e 3e 81 8d f0 bd 90 f9 2c be
       0.115055434 0.17072678 -0.1174574 -0.16892076
000290 79 67 19 be 35 82 31 3d c4 ed bd bd b3 a5 91 bd
       -0.14980878 0.043337066 -0.09273866 -0.07111683
0002a0 dd 17 a0 3b bc 88 4b 3e c4 74 02 3d ba 8d fe be
       0.004885657 0.19876379 0.031849638 -0.49717504
0002b0 b9 c1 35 3e 22 1d ca bb b5 31 10 be ba e6 6f 3e
       0.1774968 -0.0061680237 -0.14081462 0.23427859
0002c0 e4 b2 8b 3d 9e 23 d1 bd 7b 75 28 bd 45 67 07 3e
       0.0682123 -0.102118716 -0.041127663 0.13222988
0002d0 1e c3 4c be 1a 5d 2c 3e 90 59 74 bd 42 99 30 bd
       -0.19996306 0.1683239 -0.059655726 -0.043114908
0002e0 ae 96 ad bc 08 5f d4 bd 0f dc 18 be e7 9d c1 bd
       -0.021190014 -0.10369688 -0.14927696 -0.094539456
0002f0 06 c6 28 be 93 e3 63 bd 9a 36 1d be e5 b2 42 bd
       -0.1648179 -0.055636954 -0.1535286 -0.04753389
000300 08 65 14 be 03 ba 28 be 86 e3 60 be 4e c3 a6 bc
       -0.14491665 -0.16477208 -0.21961793 -0.0203568
000310 51 d0 45 3c 59 58 8e bd 6f 33 42 3e c2 46 28 bd
       0.012073592 -0.06950445 0.18964933 -0.041083105
000320 f9 d5 ac be 9f bc aa bd fd 99 e9 bd 5a 61 2f bc
       -0.33756998 -0.08336758 -0.11406324 -0.010704363
000330 da 05 d3 bc b1 8c 2c be fb fc 0b 3d 4d b0 11 3e
       -0.025759626 -0.16850545 0.034176808 0.1422741
000340 6e 58 83 be 0d 4a 70 3d f3 8f c7 bd e1 c1 1f 3e
       -0.25653404 0.05866437 -0.09744253 0.15601303
000350 01 4a 8d 3d 83 f3 19 3e e1 16 20 3e 13 25 59 be
       0.06898881 0.15034299 0.15633728 -0.21205549
000360 32 ec ca 3d 88 cb 43 3e 13 16 5e bd fd 29 e7 bc
       0.09908332 0.1912061 -0.05422027 -0.028218264
000370 2e 88 93 bc 57 36 81 3e 9c 24 f1 3c 20 6a db 3b
       -0.018009271 0.2523677 0.029436402 0.0066960007
000380 8a 1e 6c be 07 e2 2f bd 37 4b ce bd d9 c4 fa bb
       -0.23058525 -0.042940166 -0.1007294 -0.0076528606
000390 d2 81 90 be 66 a9 85 3e 54 74 5d 3e 37 e3 ae 3d
       -0.28224045 0.26105803 0.21626407 0.085394315
0003a0 82 06 16 be 03 7e 3a be 13 84 77 bd bb 53 16 3d
       -0.1465092 -0.18212132 -0.06042869 0.036700945
0003b0 72 e1 46 3e 91 47 b5 bd 1d 31 b8 3d 72 2c 26 3e
       0.19421938 -0.08851541 0.089937426 0.16227892
0003c0 c1 58 45 3e c5 75 00 be 4b 0f 27 bd 38 88 a6 3d
       0.19272138 -0.12544926 -0.04078607 0.081314504
0003d0 e3 07 16 bd 7d 3f 0f be 03 9d eb 3d 64 f7 75 3d
       -0.036628615 -0.13989063 0.11504557 0.060050383
0003e0 1d 04 ce bd 95 21 0d 3e c3 69 25 be 26 25 2e be
       -0.10059378 0.13782342 -0.16153626 -0.17006359
0003f0 11 2b 38 3e 8c 7f 32 be 2d 21 80 3d 4a 50 10 3d
       0.17985179 -0.17431468 0.06256328 0.03523282

model.project_0.bias f4 [256]
000000 56 55 cf bd cb 99 b3 3d 71 98 1a be 70 d8 8f be
       -0.101236984 0.08769568 -0.15097214 -0.28094816
000010 89 8f 6b be f6 c9 08 be 51 9a 96 3d 7b 3a 79 be
       -0.23003973 -0.13358292 0.07353652 -0.24338715
000020 2f 9b 81 be cb 1b bc bc c4 54 96 be 67 cd 4d bd
       -0.25313708 -0.022962471 -0.29361546 -0.050244715
000030 8e fc 8f 3d 8d 4d 9d bd 82 22 2d be c9 04 46 be
       0.07030593 -0.07680807 -0.16907695 -0.19337763
000040 2f 85 a8 bb 3f 50 bc bd 97 19 dd 3d 0f 6a 87 bd
       -0.00514283 -0.09194993 0.107958965 -0.06612026
000050 90 f9 27 3d 19 9b ca 3d 48 65 7f 3b 7d 23 a5 be
       0.041009486 0.09892864 0.003897028 -0.32253638
000060 e7 68 b8 be e2 71 01 be bb 29 bb 3d c1 b6 40 be
       -0.36017534 -0.12641099 0.09138819 -0.18819715
000070 1f 9a 89 bd 97 e5 4d bd 61 8a 02 3d 7c fd 59 be
       -0.067188494 -0.050267782 0.03187025 -0.21288103
000080 04 8f 0e be d2 4c aa bd 70 83 48 be de de f0 bb
       -0.13921744 -0.083154336 -0.1958139 -0.0073507866
000090 c8 43 c1 3c 39 0b 18 be 79 db 5c 3c 4c cf 05 bc
       0.02359189 -0.14848031 0.013480061 -0.008167099
0000a0 44 7f 41 bd d6 7c 13 be e2 78 a4 be 5c 5d 83 bd
       -0.04724051 -0.1440309 -0.32123476 -0.06414291
0000b0 05 4e 24 be de 34 c3 3c 9b 09 5c be f5 eb 0f 3c
       -0.16045387 0.02382892 -0.21488039 0.008784284
0000c0 29 96 fe bd 87 41 93 bd ad bd 63 3c 12 e7 21 3e
       -0.124309845 -0.07190233 0.013900203 0.15810803
0000d0 d6 83 82 3c 8d 27 52 be 87 76 1c bd 1c 4c 2f be
       0.015932005 -0.205229 -0.038198974 -0.17118877
0000e0 f5 f6 6d be 04 68 81 be c8 b0 93 be ce ac 74 be
       -0.23238738 -0.2527467 -0.2884581 -0.23894045
0000f0 73 48 d9 3d 90 3e 43 be f8 b0 75 3c 48 8c 4b 3d
       0.10609522 -0.19066834 0.014995806 0.04969433
000100 39 18 99 3d b0 35 53 bd 4c de 22 be 92 bb a5 be
       0.07475323 -0.051564872 -0.15905112 -0.32369667
000110 52 fc 25 3e 5d 92 6b 3b b2 f6 91 bd 72 3e c2 bd
       0.16209534 0.0035945394 -0.071271315 -0.09484567
000120 e2 84 f8 bd 0b 42 61 be 37 9e a2 3d 90 36 1f be
       -0.121347204 -0.2199785 0.07940333 -0.15548158
000130 fd cf e2 07 ec d7 ef bc 2a 06 22 be 7c c6 a9 3d
       3.4126945e-34 -0.029277764 -0.15822664 0.08289811
000140 54 8c ad be e8 57 60 bd 70 6a d9 bd 18 68 3a be
       -0.33896124 -0.054771334 -0.106160045 -0.18203771
000150 a9 aa 0f be da 6d 31 be f7 10 05 be 1f 02 b3 3b
       -0.14029945 -0.17327061 -0.12994753 0.0054628993
000160 7f 06 66 be 85 0c 6e be 75 86 c2 3d 00 29 8f bd
       -0.22463416 -0.23246963 0.09498302 -0.06990242
000170 5e db 63 3d 6c 17 ab 3c db ee 6f be 99 b4 93 3d
       0.055629127 0.020885192 -0.2343096 0.07212181
000180 23 89 c2 bd 82 e0 d0 3b 82 a7 bc 3b 96 f0 7e bd
       -0.09498813 0.0063744197 0.005757273 -0.06224116
000190 fc 6a 19 be d0 d6 95 be 46 25 23 3e 50 58 92 be
       -0.14982218 -0.2926545 0.15932187 -0.28583002
0001a0 2e 70 95 be bf ff 8a 3c ea 62 20 3e 84 09 c2 bb
       -0.2918715 0.016967652 0.15662733 -0.0059215445
0001b0 a8 d7 a1 be 82 e2 cd bd 90 88 ee bc 68 9a e7 bd
       -0.31609845 -0.100529686 -0.029117852 -0.113087475
0001c0 3f 0c 92 be e3 2e 50 3b f3 dc 0d be 57 d2 57 be
       -0.28524968 0.0031766228 -0.13853817 -0.21076332
0001d0 12 7c 22 be c5 80 55 be 5f 7b ce bd b5 3b 68 bd
       -0.15867642 -0.20849903 -0.10082125 -0.056697566
0001e0 da f9 9d be 6e 88 1b be 22 01 72 be 2a a2 82 be
       -0.30854684 -0.15188763 -0.23633245 -0.25514346
0001f0 be ab 2c be 24 5c b5 bd 8f a1 6a be a8 56 c7 bd
       -0.1686239 -0.08855465 -0.22913192 -0.09733325
000200 4e b8 a9 3b c6 49 59 be 56 e3 26 be 59 e9 24 be
       0.0051794415 -0.21219549 -0.1629766 -0.1610464
000210 b5 fa c0 bd ce 1d 9c 3b 54 16 99 be 4b 09 5a be
       -0.094228186 0.004764295 -0.29899848 -0.21292607
000220 70 0f fe 3d 02 93 06 3c 1d 76 2c bd 05 75 d1 bd
       0.12405288 0.00821376 -0.04210483 -0.10227398
000230 fe 78 a9 be 6f 5c bc 3d ca 23 3a bd 43 7d 92 be
       -0.33100122 0.09197318 -0.045444287 -0.28611192
000240 2b 91 0b be e6 a6 80 be e6 64 98 be 3b ef 14 bc
       -0.13629596 -0.25127333 -0.2976448 -0.00909024
000250 6a ba 1d 3c a6 f9 62 be b3 ef b3 3d 42 04 86 be
       0.009626964 -0.22165546 0.087859534 -0.26175123
000260 57 a5 56 be 83 3f 5f bd ac d5 9c 3d 4f fe 13 bd
       -0.2096151 -0.05450393 0.07657942 -0.0361312
000270 d5 0c 0f 3d 27 dc 91 3d df 4a 40 bb 2d 74 39 be
       0.034924347 0.07122069 -0.0029341502 -0.18110724
000280 a8 1b 55 be 56 c6 cb bd c4 29 8f be 48 4b 40 be
       -0.20811331 -0.09949939 -0.27961552 -0.18778718
000290 2e dc 19 3d e2 f9 a8 bb b8 e0 f5 3d f6 b0 df bd
       0.037563495 -0.0051567415 0.12005752 -0.109224245
0002a0 e1 25 48 be 93 cb 9e be e3 0d 90 be 06 be 17 be
       -0.195457 -0.3101469 -0.28135595 -0.14818582
0002b0 e8 c3 28 3d 8b 6e 3d bd 4b 69 8a 3d 6b 33 cd be
       0.041202456 -0.046248 0.06758364 -0.4007829
0002c0 51 f1 4d 3d 12 28 24 bc 67 73 27 3e 37 5f 47 be
       0.050278965 -0.010019319 0.16352616 -0.19469915
0002d0 66 ee 34 bd 42 ef 55 3c e6 64 92 3d ba 89 18 3e
       -0.044172667 0.013057532 0.07148151 0.14896289
0002e0 59 27 95 be cc 2a ab bd 04 f8 a1 3d c2 c9 7b be
       -0.29131582 -0.08357772 0.07908633 -0.24588683
0002f0 4e 69 6e be ce 67 f1 3d ee ce 8e bd 68 81 10 3c
       -0.23282358 0.11787377 -0.069730625 0.008819915
000300 c0 c2 97 be 26 f9 77 3d c6 46 8b bc ad 03 2f bd
       -0.2964077 0.06054034 -0.01700152 -0.042728115
000310 95 dc 57 be a9 1a 1d 3e e4 44 db bd a5 f6 c4 bd
       -0.21080239 0.15342201 -0.10706499 -0.09617356
000320 3e 8d 14 be 38 94 bd bc 5b 7f 80 3c 91 31 e7 bd
       -0.14507005 -0.023141965 0.015685728 -0.11288751
000330 1a 90 df bd e0 f1 83 be 00 a5 3f be 1f 96 2a 3d
       -0.10916157 -0.25770473 -0.18715286 0.041647073
000340 95 76 14 3e 12 3e 93 bd 70 fa 7b be 97 da c6 3d
       0.1449836 -0.07189573 -0.24607253 0.097096615
000350 38 8f eb bd 3e ad 46 be e4 47 39 be 78 f2 86 bd
       -0.11501926 -0.19402024 -0.1809383 -0.06589216
000360 5a 6b 07 be 59 f9 3c 3d f1 53 ee bb 88 1f ad 3d
       -0.13224545 0.046136234 -0.00727319 0.0845328
000370 f3 a2 c6 bb bc 70 53 be 52 96 5c bd 22 63 13 be
       -0.0060619055 -0.20648474 -0.053854294 -0.14393285
000380 05 8d 2a bc b5 31 88 3d 68 38 d4 3d ce e6 91 be
       -0.010409598 0.06650106 0.10362321 -0.28496403
000390 39 bf 9a 3d 25 c4 95 be e1 c0 98 be 88 5a 51 be
       0.07556004 -0.2925121 -0.29834655 -0.20444691
0003a0 13 3f fb bd 41 6a 1a be cf 2e 62 be f7 5c f8 bd
       -0.1226789 -0.15079595 -0.22088169 -0.12127107
0003b0 35 a2 14 be da fb 73 bd fa 92 67 be 33 85 fd 3d
       -0.14515002 -0.059566356 -0.22614661 0.12378921
0003c0 90 ca 6c bb 07 1e ee bd 2a 6c 23 3c d2 c4 58 bb
       -0.003613148 -0.11626821 0.009974519 -0.0033076298
0003d0 73 da 2d be 3e ae 80 3d 63 0f cb 3c a1 b7 25 3d
       -0.16977863 0.06283234 0.02478761 0.040458325
0003e0 eb 88 0d be 7c cd a5 be 31 a9 57 3a 61 31 36 be
       -0.13821761 -0.32383335 0.00082268106 -0.17792274
0003f0 82 4a 9f bd 77 66 4c be 99 40 c0 bd bf ec 76 be
       -0.07777883 -0.19960962 -0.09387321 -0.24113749

model.hidden_0.wa f4 [1, 64]
000000 cb b4 6b 3f 3a 13 47 3f a5 11 4f 3f ed d4 73 3f
       0.92072743 0.7776371 0.808863 0.95246774
000010 a8 c2 80 3f e2 d6 50 3f 31 1d 7d 3f 4f 2c 59 3f
       1.0059404 0.81577885 0.9887267 0.84833235
000020 4f ba 53 3f b7 b3 87 3f 8d f2 60 3f f1 d6 ed 3e
       0.8270616 1.060172 0.87870103 0.4645305
000030 75 ce 71 3f fa 40 72 3f ae cd 77 3f 1b a2 7f 3f
       0.94455653 0.94630396 0.9679822 0.9985673
000040 08 af 54 3f 0b c2 71 3f a5 6b 69 3f a0 d7 80 3f
       0.83079576 0.9443671 0.9117988 1.0065804
000050 2c 00 44 3f 78 39 5b 3f 45 30 74 3f db a7 84 3f
       0.7656276 0.85634565 0.95386153 1.0363725
000060 d1 95 7c 3f 95 71 58 3f 10 e2 5c 3f 6f 14 6a 3f
       0.986661 0.8454831 0.86282444 0.9143743
000070 47 57 35 3f d2 b1 7d 3f 9c dc cb 39 3f ff 83 3f
       0.708363 0.9909946 0.00038883544 1.031227
000080 04 90 5c 3f 25 e3 66 3f b0 ea 17 3f f5 07 6a 3f
       0.8615725 0.90190345 0.5934248 0.9141839
000090 49 22 49 3f ff 31 46 3f 0e fa 6d 3f c7 2d 89 3f
       0.7856794 0.7742004 0.9295968 1.0717095
0000a0 4e fc c1 3e 5c a9 7c 3f 4f 9c 46 3f f6 af 5a 3f
       0.37887806 0.9869592 0.7758226 0.85424745
0000b0 16 6c 70 3f 75 17 65 3f 20 82 1d 3f 08 39 49 3f
       0.93914926 0.8948892 0.6152668 0.7860265
0000c0 35 f9 2a 3f 88 b3 88 3f 3c ca 70 3f 6f 70 8b 3f
       0.6678651 1.0679789 0.94058585 1.0893687
0000d0 82 42 70 3f 12 62 68 3f 6c 27 74 3f 20 a3 89 3f
       0.9385148 0.90774643 0.95372653 1.0752907
0000e0 36 73 68 3f c2 4b 6e 3f 88 2e 8a 3f c9 bf 5d 3f
       0.908008 0.9308435 1.079545 0.86620766
0000f0 42 43 88 3f 31 f3 7d 3f 08 41 30 3f b6 da 43 3f
       1.0645525 0.99199206 0.6884923 0.765056

model.hidden_0.wb f4 [1, 64]
000000 84 46 5a 3f cf 26 81 3f c1 6f 6c 3f c8 db 78 3f
       0.8526385 1.0089968 0.9235802 0.9721036
000010 83 87 6b 3f be b4 76 3f 10 4f 60 3f 16 36 64 3f
       0.9200365 0.9636954 0.8762064 0.8914503
000020 4d ea 65 3f e3 1a 62 3f b7 5e 62 3f 97 8a 37 3f
       0.8981064 0.88322276 0.88425773 0.71695846
000030 0d 53 5f 3f a7 1d 76 3f f6 17 5a 3f ca 46 67 3f
       0.872361 0.96138996 0.8519281 0.9034239
000040 b1 b3 5a 3f 2b 7d 7a 3f 6d 79 7a 3f 39 ad 62 3f
       0.8543044 0.9784724 0.9784153 0.88545567
000050 7b 26 64 3f 41 82 6a 3f 76 5b 6d 3f 31 20 6f 3f
       0.89121217 0.91605 0.92717683 0.93408495
000060 e5 a2 55 3f 18 94 71 3f 3d 04 6d 3f b7 03 6a 3f
       0.8345168 0.943666 0.9258459 0.9141192
000070 0f 3c 82 3f 3d 19 4a 3f f7 2c e7 39 2b d8 64 3f
       1.0174578 0.7894476 0.00044093255 0.89392346
000080 0a 8b 6a 3f d8 d6 45 3f 62 d3 82 3f d7 63 57 3f
       0.91618407 0.7728095 1.0220759 0.8413672
000090 9a 48 5e 3f 47 2d 3a 3f 27 6b 6b 3f 1e 55 58 3f
       0.8682953 0.7272534 0.91960377 0.8450488
0000a0 b6 36 32 3f df 1e 5c 3f 3a b2 76 3f 71 cb 71 3f
       0.6961473 0.85984606 0.963657 0.9445105
0000b0 b9 62 56 3f c2 a0 4f 3f 2e bf 5d 3f cf b8 61 3f
       0.8374439 0.8110467 0.8661984 0.8817262
0000c0 e6 8e 79 3f 12 b0 5e 3f 8a 4d 67 3f 7b 96 59 3f
       0.9748367 0.8698741 0.9035269 0.8499524
0000d0 c2 fc 61 3f 15 3f 4e 3f 44 90 6e 3f 8a 38 4a 3f
       0.882763 0.80565006 0.9318888 0.7899252
0000e0 3e b5 69 3f 7b 08 59 3f 95 80 4f 3f 35 75 7c 3f
       0.9129218 0.84778565 0.81055576 0.98616344
0000f0 6e 8e 60 3f 80 e6 63 3f c6 2a 5b 3f cd ca 66 3f
       0.8771733 0.8902359 0.8561214 0.901532

model.hidden_0.dist_apical.w f4 [768]
000000 0c e8 1c 3f 7f ba d8 3e ea 7e ba 3e 59 2f bb 3e
       0.61291575 0.42329785 0.36424953 0.3655956
000010 03 3a 2e 3f 9b 34 e5 3e 9b 34 e5 3e aa 3b 31 3f
       0.6805727 0.44766697 0.44766697 0.69231665
000020 00 59 a6 3e a6 c6 1c 3f 32 d1 29 3f 43 c6 c2 3e
       0.32489777 0.61240613 0.6633483 0.38041887
000030 12 b2 bd 3e 91 09 d4 3e 55 c2 87 3e 3e 0a dd 3e
       0.3704992 0.4141355 0.2651545 0.43171877
000040 31 87 a5 3e 1f 27 ae 3e d9 89 d9 3e 51 b3 d3 3e
       0.32329705 0.34014222 0.42487982 0.41347745
000050 03 6d a1 3e 12 fc 89 3e ba 41 77 3e 22 79 b9 3d
       0.31528482 0.26950127 0.24146166 0.090563074
000060 7f 6e 01 3f d4 81 a5 3e 18 b9 4d 3e 55 be 71 3e
       0.5055923 0.32325613 0.20090139 0.23607762
000070 0b b9 91 3e 84 43 01 3f 3c 0d 6f 3e e6 96 d5 3e
       0.2846149 0.50493646 0.23344892 0.4171669
000080 65 68 a4 3e 05 ec 51 3e cd 38 6f 3e d3 a4 3c 3d
       0.32110897 0.2050019 0.23361512 0.046055626
000090 a6 a0 56 3f ee 9d 0f 3f 0b 6e 30 3f 5d a3 19 3f
       0.8383888 0.56100357 0.6891791 0.600149
0000a0 e0 7b 1f 3f 79 df 18 3f da 76 0f 3f da 76 0f 3f
       0.62298393 0.5971599 0.5604073 0.5604073
0000b0 9d ed 2b 3f c2 73 2e 3f ae 2b b2 3e 76 a8 be 3e
       0.67159444 0.6814538 0.3479895 0.372379
0000c0 84 15 4d 3f ec 73 0e 3f 20 1d 3f 3f f9 d2 3a 3f
       0.80110955 0.5564563 0.74653816 0.7297817
0000d0 5c a0 34 3f 8d e1 3a 3f b5 ea c0 3e 8d e1 3a 3f
       0.7055719 0.73000413 0.37679067 0.73000413
0000e0 f6 99 cc 3e 45 a4 29 3f 3e 66 08 3f 53 12 ed 3e
       0.39961213 0.6626628 0.5328101 0.46303043
0000f0 1c e4 fb 3d e5 b4 ef 3e a4 f0 e3 3e 62 18 d7 3e
       0.12299368 0.468177 0.44519532 0.4201079
000100 78 bf 05 3e fa 3e ac 3d f9 ea c6 3e 32 ae c9 3e
       0.13061321 0.08410449 0.38851145 0.39390713
000110 7f 58 72 3e d7 83 f4 3e 7f 58 72 3e 92 14 01 3f
       0.23666571 0.47756836 0.23666571 0.5042201
000120 75 04 0f 3f e7 ac 84 3e 69 b8 5e 3f 98 25 5e 3f
       0.55866176 0.25913164 0.8700014 0.86776114
000130 ca 6b c5 3e 3a 67 60 3e 36 7d c0 3e 3a 67 60 3e
       0.385588 0.21914378 0.37595528 0.21914378
000140 5a 45 f8 3e b0 c1 34 3f 4d 9f 1e 3f 71 c9 45 3f
       0.4849041 0.70608044 0.61961824 0.772605
000150 bf f8 a4 3e ef 50 b6 3e bf f8 a4 3e 22 66 26 3f
       0.32221028 0.35608622 0.32221028 0.6499959
000160 70 52 f7 3e 66 d8 0e 3f 18 76 2a 3f f3 91 ae 3e
       0.48305082 0.5579895 0.66586447 0.34095725
000170 ad 79 17 3f e0 d6 07 3f 78 8a f2 3e 3d 77 e5 3e
       0.5917004 0.5306225 0.47371268 0.44817534
000180 ff f6 92 3e 6b 0d 05 3f 42 c3 ad 3e 95 c0 0a 3f
       0.28704068 0.519736 0.33938032 0.54200107
000190 18 d7 00 3f 4e db c9 3e 77 56 0e 3f 41 02 fd 3e
       0.50328207 0.3942513 0.55600685 0.49415782
0001a0 ca 77 b5 3e 19 30 02 3f 61 69 04 3f e5 a6 f7 3e
       0.35442954 0.5085464 0.51723295 0.48369518
0001b0 e7 a1 3e 3f 8e f1 2e 3f d4 3f 5d 3f d8 98 6d 3f
       0.74465793 0.68337333 0.8642552 0.92811346
0001c0 29 9a 47 3f 25 d9 af 3e c2 a9 4b 3f 2b 01 1b 3f
       0.77969605 0.34345356 0.79555905 0.6054866
0001d0 35 fd 1f 3f 45 9c 32 3f 72 11 40 3f 82 55 29 3f
       0.6249574 0.697697 0.7502662 0.661461
0001e0 5a 20 cc 3e f9 c7 07 3f 5b 4f c3 3d 29 b7 92 3e
       0.39868432 0.5303951 0.0953662 0.28655365
0001f0 7a 44 c4 3d 95 0d 23 3f 5e dc de 3e 07 57 b2 3e
       0.09583373 0.636926 0.43527502 0.34832022
000200 3f e3 9d 3e 96 58 1c 3f 66 34 ee 3e d5 1c 02 3f
       0.30837438 0.6107267 0.46524352 0.50825244
000210 c4 2c 65 39 52 18 75 3d 2d 33 4f 3d 67 64 51 3c
       0.00021855818 0.059837647 0.050585914 0.012780285
000220 f7 a2 39 3c 5f 0b ed 3c 5f 0b ed 3c e5 e5 3d bb
       0.011330358 0.028936086 0.028936086 -0.002897614
000230 8f d0 dd 3d d7 24 5b 3e f2 5f 51 3e 45 80 31 3e
       0.10830795 0.21400772 0.20446756 0.17334087
000240 0a 44 44 3d 6c 54 d7 3e e3 17 13 3e 6c 54 d7 3e
       0.04791645 0.42056596 0.14364581 0.42056596
000250 50 b7 da 3e 46 8c 0f 3f de 59 d6 3e 94 09 03 3e
       0.4271798 0.56073415 0.41865438 0.12796623
000260 e5 9f cc 3e af 25 86 3e af 25 86 3e 4a da 2a 3f
       0.3996574 0.26200625 0.26200625 0.6673933
000270 a2 bd 34 3f ec c2 a2 3e ef 9c bf 3e ef 9c bf 3e
       0.70601857 0.3178934 0.37424418 0.37424418
000280 37 ba 2e 3d 01 bd a4 3e c9 57 a5 3e 6f 93 ea 3e
       0.042658057 0.3217545 0.32293537 0.45815608
000290 12 02 b0 3e 3a d4 22 3f a9 a8 35 3f 16 dc 6e 3e
       0.3437658 0.6360508 0.7096048 0.23326144
0002a0 6c 2e 9e 3e 9c b3 56 bd 19 6c c3 3e 7f fb 0e 3f
       0.30894792 -0.052417383 0.3816841 0.558525
0002b0 ef c1 1c 3f e3 46 f0 3e 99 fd 1a 3f e1 f7 e0 3e
       0.6123342 0.46929082 0.6054321 0.43939117
0002c0 b7 32 e5 3e 1e 4e fd 3e 64 54 0f 3f 3b 21 c0 3e
       0.44765255 0.4947366 0.55988145 0.37525353
0002d0 ef 6b 31 3f 32 c6 04 3f 46 bd c3 3e 0d e2 ec 3e
       0.6930532 0.5186492 0.38230342 0.46266213
0002e0 52 cb 49 3f 0c cc 30 3f 85 b4 f1 3e 17 b1 22 3f
       0.7882587 0.6906135 0.47208038 0.6355147
0002f0 d1 1a 5b 3f 32 10 1b 3f e8 43 46 3f d1 1a 5b 3f
       0.85587794 0.6057159 0.77447367 0.85587794
000300 ee a2 bb 3e 2d 88 39 3e 95 74 38 3f 03 62 b7 3d
       0.36647743 0.18118353 0.7205289 0.08954241
000310 8e cc a6 3e 94 0b 01 3f 2a 70 bd 3e 42 e2 a4 3e
       0.32577938 0.5040829 0.36999637 0.3220387
000320 22 58 b1 3e db e0 be 3e ea e5 fa 3e d1 0b df 3e
       0.34637552 0.37280926 0.49003536 0.43563703
000330 e8 6b 6c 3f 39 46 28 3f 91 a8 e1 3e ab 8f 54 3f
       0.9235215 0.6573215 0.44073918 0.8303172
000340 5a f1 eb 3e b2 9c 4c 3f d2 76 52 3f ea d5 22 3f
       0.46082574 0.799266 0.82212555 0.63607657
000350 aa 5d 0d 3f 67 d9 20 3f 96 2e 2d 3f 2d b8 21 3f
       0.55221045 0.6283173 0.6764921 0.63171655
000360 fd ef 0e 3f 87 88 f0 3e 0a 63 82 bb 49 65 fe 3d
       0.55834943 0.46979162 -0.0039790915 0.12421662
000370 ef 87 7b 3e 76 d2 c2 3e 76 d2 c2 3e b7 37 9e 3e
       0.24563573 0.38051194 0.38051194 0.30901882
000380 19 bf 8b 3e 9e d5 25 3f 8e a7 0f 3f 15 29 81 3e
       0.27294233 0.6477908 0.56115043 0.25226656
000390 71 d4 34 3f 54 d2 e9 3e df 6b 34 3e 4e 82 ba 3e
       0.7063666 0.4566828 0.17619275 0.3642754
0003a0 bb 87 1c 3f 22 34 de 3e bb 87 1c 3f 52 b5 0d 3f
       0.6114461 0.4339915 0.6114461 0.553548
0003b0 d1 d1 39 3f 08 5f 0f 3f 6e b3 58 3f ee 06 0b 3f
       0.7258578 0.5600438 0.8464879 0.5430745
0003c0 b8 3f b7 3e 6c aa 3c 3e ea fc f2 3e fd 7a 8e 3e
       0.357908 0.18424386 0.47458583 0.27828208
0003d0 4f ef a4 3e bd 8b fc 3e a2 5a 90 3e 30 8e c3 3e
       0.32213828 0.49325362 0.28194147 0.38194418
0003e0 01 d9 af 3e e1 8e 0a 3f bd 45 92 3e 5e 5d d1 3d
       0.34345248 0.54124266 0.2856883 0.102228865
0003f0 a0 bc df 3e 85 a7 c0 3e 66 8c 09 3e 2b d4 00 3f
       0.43698597 0.37627807 0.13432464 0.5032374
