deeplearning_tasks/models/bci/20150801_Net_noise_0.0_best_trans_model_window_30_step_6_trans_nobi.pth (torch, 361719 bytes, 60 tensors)

mlp_in.0.weight f4 [512, 96]
0	0xbd9e8b44	-0.077414066
1	0x3d893328	0.066992104
2	0x3d851e32	0.064999
3	0xbbc5e8b9	-0.0060397056
4	0x3c6c1064	0.014408205
5	0x3e001472	0.125078
6	0x3d2ebdf0	0.042661607
7	0x3d06bac3	0.032892954
8	0x3e203960	0.15646887
9	0x3c9523ca	0.018205542
10	0x3e044be6	0.12919578
11	0xbdb0459a	-0.086070254
12	0xbc309254	-0.010777075
13	0xbd9bd364	-0.07608679
14	0x3e1dabd3	0.15397577
15	0xbd319a17	-0.043359842
16	0xbd495030	-0.04914874
17	0x3c701fa8	0.014655985
18	0xbb317ffd	-0.0027084344
19	0xbcc1bcd1	-0.023649605
20	0xbcdb36df	-0.026759563
21	0x3e65356d	0.22383662
22	0xbe05513e	-0.13019273
23	0x3ae643a4	0.0017567766
24	0xbe0e2300	-0.13880539
25	0xbe40fc60	-0.18846273
26	0x3c41ab4f	0.011820628
27	0xbd8503a9	-0.06494839
28	0x3d9cf80f	0.07664501
29	0xbd9982f8	-0.074956834
30	0xbd02c498	-0.031925768
31	0xbdfa0e0f	-0.12209713
32	0xbcfe9aa4	-0.031079598
33	0xbd0ddc4c	-0.03463392
34	0xbde02d48	-0.10946137
35	0x3d2ef487	0.04271367
36	0x3b7e5fe2	0.0038814475
37	0xbcce002e	-0.02514657
38	0x3d777ca8	0.060421616
39	0xbd33e371	-0.043918077
40	0x3e00c133	0.125737
41	0x3d18b5ba	0.037282683
42	0x3e2d34ff	0.16914748
43	0xbdb07b32	-0.08617248
44	0x3e104361	0.14088203
45	0xbde50289	-0.11182124
46	0x3d93adb5	0.07210866
47	0xbcb27764	-0.021785446
48	0xbe23a233	-0.15979843
49	0x3e73e5f9	0.23818196
50	0xbd5a36cc	-0.053274915
51	0x3d5e4b7a	0.0542712
52	0x3e0797c1	0.13241483
53	0x3e0b2d20	0.13591433
54	0xbe129f60	-0.14318609
55	0xbc1122b6	-0.008858373
56	0x3db71228	0.0893901
57	0xbe2ef0b5	-0.1708401
58	0x3d10199a	0.035180666
59	0xbdb0598c	-0.0861083
60	0x3c7aa6ae	0.015298529
61	0xbd8f1b0d	-0.069875814
62	0x3d23cf7a	0.039992787
63	0xbd98d2c5	-0.07462076
64	0x3c84db9f	0.016218005
65	0x8c0b66c7	-1.0739099e-31
66	0x8b040f9b	-2.5434016e-32
67	0xbdf1abdc	-0.11800358
68	0x3d368be1	0.044566993
69	0x3d6fba67	0.058527377
70	0x3d095152	0.03352482
71	0xbd171d11	-0.036892954
72	0xbe0c635e	-0.1370978
73	0xbd57a93c	-0.05265163
74	0xbd6edabc	-0.05831407
75	0x3e432943	0.19058709
76	0xbcf27c82	-0.029600386
77	0x3e7a9703	0.24471669
78	0xbcc74096	-0.02432279
79	0xbcdde77f	-0.027087925
80	0x3d1f4e85	0.03889324
81	0xbd535fd0	-0.051605046
82	0x3e44e41f	0.19227646
83	0xbd6f7043	-0.05845667
84	0x3dfba873	0.122879885
85	0xbd84df33	-0.06487884
86	0x3a30486b	0.00067246583
87	0xbd0af148	-0.03392151
88	0x3d0d404c	0.034485146
89	0xbc10df0d	-0.008842242
90	0x3da79747	0.08183151
91	0x3dafa190	0.085757375
92	0xbd2398b7	-0.039940562
93	0xbe002568	-0.1251427
94	0xbb197cdc	-0.002342037
95	0x8ae91a62	-2.2447008e-32
96	0x3c8d7141	0.017265918
97	0xbc44e0f2	-0.012016522
98	0xbe0778c4	-0.13229662
99	0x3d6f12db	0.05836759
100	0x3cbd4bed	0.023107493
101	0xbcabb231	-0.020958992
102	0x3bbca7c3	0.0057573034
103	0x3e18f053	0.14935426
104	0xbdfd84a5	-0.123788156
105	0xbc1ee52e	-0.009698195
106	0xbd40189c	-0.04689847
107	0xbd1e6fe6	-0.038680933
108	0xbb3e56a7	-0.0029043348
109	0xbc453094	-0.012035508
110	0x3ca5a69e	0.02022105
111	0xbd78e51c	-0.06076537
112	0xbd252d4b	-0.040326398
113	0xbd3f47ca	-0.046699323
114	0xbde5a205	-0.112125434
115	0xbbcc7861	-0.006239936
116	0xbd7f6917	-0.06235608
117	0xbcac6134	-0.021042444
118	0x3dab85c7	0.083751254
119	0xbd21b1eb	-0.039476316
120	0xbdb9522e	-0.09048878
121	0xbe4ae352	-0.19813278
122	0xbd8f4729	-0.069959946
123	0xbde3bae6	-0.111196324
124	0x3ad16113	0.0015974365
125	0x3d9c4f44	0.07632306
126	0x3d53eb74	0.051738217
127	0xbdf38070	-0.11889732
128	0xbd7ce7ae	-0.061744384
129	0x3d558a22	0.052133687
130	0xbdcd4063	-0.100220464
131	0x3d1b152c	0.037861988
132	0x3cd43576	0.025904398
133	0x3ccf7d96	0.025328439
134	0xbda1ccaf	-0.079003684
135	0xbd7723d9	-0.06033692
136	0x3e378794	0.17922813
137	0x3b36a1f7	0.0027867535
138	0x3baecf02	0.005334736
139	0xbdf3c958	-0.11903638
140	0x3e5896cc	0.21151274
141	0xbd2869fd	-0.041116703
142	0x3bb8321d	0.0056212083
143	0x3d885a44	0.06657842
144	0xbdf77d27	-0.12084418
145	0x3e0f2587	0.1397916
146	0x3c5bd37c	0.013417121
147	0xbdc00bb3	-0.093772314
148	0x3dde9cb7	0.10869735
149	0xbcfe3fca	-0.031036276
150	0xbd93e9c6	-0.07222323
151	0xbd082ea2	-0.033247598
152	0x3df57b30	0.11986387
153	0xbe49b47b	-0.19697754
154	0x3a8f8857	0.0010950667
155	0x3d2b52d1	0.041827027
156	0x3cb3816c	0.0219123
157	0xbcaf61d9	-0.021408962
158	0x3d94cca5	0.07265595
159	0xbe51e2f0	-0.20496726
160	0x3d1a9177	0.037736382
161	0x8fbd86ad	-1.8688714e-29
162	0x0b153f5f	2.874403e-32
163	0xbdb31391	-0.08743966
164	0x3c2f212d	0.010689062
165	0x3d08ca28	0.033395916
166	0x3d639e38	0.05557081
167	0xbcc187d9	-0.023624348
168	0xbe1aafaf	-0.1510608
169	0xbc5788c0	-0.013155162
170	0x3e3ea1f5	0.18616469
171	0x3dce551e	0.100748286
172	0x3dada161	0.08478046
173	0x3d7d59c2	0.061853178
174	0xbce52cf8	-0.027975544
175	0x3db337e1	0.087508924
176	0xbbd89e6d	-0.0066106827
177	0x3e1ccd62	0.15312722
178	0x3e13cb67	0.1443306
179	0x3e29519a	0.16535035
180	0xbd48d463	-0.049030673
181	0x3d1d1b5e	0.038356178
182	0x3e0764c8	0.13222039
183	0xbc50b5b0	-0.01273863
184	0x3d4b8528	0.049687535
185	0x3ca43cd0	0.020048529
186	0xbccc207a	-0.02491783
187	0x3c5e8cd4	0.013583381
188	0x3d1db3a4	0.038501397
189	0x3cf46b42	0.0298363
190	0x3debc17a	0.11511512
191	0x8ee741f1	-5.7009396e-30
192	0xbbf3a79e	-0.007435753
193	0xbd54b3c8	-0.051929265
194	0xbc8689ae	-0.016423073
195	0x3c8bf688	0.017085329
196	0x3c99b0ad	0.018761003
197	0xbdb4bfdd	-0.088256575
198	0x3aea92f8	0.0017896583
199	0xbd63da8c	-0.055628344
200	0x3d36ab5a	0.044597007
201	0xbd059043	-0.03260828
202	0xbd4b8d60	-0.049695373
203	0xbd457ba0	-0.0482136
204	0xba0ec9de	-0.00054469507
205	0x39bfee03	0.0003660769
206	0xbcf33e6c	-0.029692851
207	0x3d3963af	0.04526108
208	0x3cedb2f8	0.029016003
209	0x3d2a2f6c	0.04154913
210	0xbc945c07	-0.018110288
211	0xbd66d585	-0.05635597
212	0xbd1067e2	-0.03525532
213	0x3de2e74b	0.11079272
214	0x3c7cc1e8	0.01542709
215	0xbd640690	-0.05567032
216	0x3ce088b9	0.027408944
217	0x3b798403	0.003807307
218	0xbdc1aa43	-0.09456303
219	0x3ce89065	0.028389165
220	0xbc90fe07	-0.017699255
221	0xbc31c628	-0.010850467
222	0x3d8adca8	0.06780368
223	0x3dbc7794	0.09202495
224	0x3c08fd00	0.008361101
225	0x3cd6c750	0.026218086
226	0xbc9e33e3	-0.01931185
227	0xbb03007f	-0.001998931
228	0x3b821d5f	0.0039707865
229	0x3c4aae28	0.012370624
230	0xbd44c3d8	-0.048038334
231	0x3d6754f4	0.056477502
232	0x3c912071	0.017715665
233	0xbd92333e	-0.0713868
234	0xbd1994e6	-0.037495516
235	0xbd86bc8a	-0.0657893
236	0xbdb282f5	-0.08716384
237	0x3d205a34	0.039148524
238	0x3d488811	0.048957888
239	0x3d6249bd	0.055246104
240	0xbcd22a82	-0.025655035
241	0xbcbad599	-0.02280693
242	0x3c168ede	0.009189336
243	0xbd80a37b	-0.062811814
244	0xbd19172f	-0.037375625
245	0xbd84d7fa	-0.06486507
246	0xbc6b3817	-0.014356635
247	0x3d273758	0.040824264
248	0xbc6ca65e	-0.014443962
249	0xbdb07a20	-0.086170435
250	0x3dc000aa	0.09375127
251	0xbd1d42a7	-0.038393643
252	0x3ce3cf94	0.027808942
253	0xbdace7ae	-0.08442627
254	0x3d8674cc	0.06565246
255	0xbd638d45	-0.055554647

mlp_in.0.bias f4 [512]
0	0x3dba5471	0.09098137
1	0x3d9e70b9	0.07736344
2	0x3e4a2314	0.19739944
3	0x3dc301f3	0.09521856
4	0x3d6560c0	0.05600047
5	0x3e4f2de1	0.20232345
6	0xbe0fe682	-0.14052776
7	0x3d9a599c	0.07536623
8	0xbd9bf54b	-0.07615145
9	0xbdfcb3ae	-0.12338959
10	0xbd0d5674	-0.034506276
11	0xbda6adf4	-0.08138648
12	0x3d9da2e6	0.07697086
13	0x3dcc8664	0.099865705
14	0xbd2c9ca1	-0.04214156
15	0xbd755e72	-0.059904523
16	0x3cc9bc21	0.02462584
17	0x3dc06518	0.09394282
18	0xbd217a8e	-0.039423518
19	0xbe481c3e	-0.19542024
20	0xba4804c4	-0.00076301047
21	0xbd3c4c8f	-0.04597145
22	0xbd155111	-0.036454264
23	0xbdcbebf5	-0.099571146
24	0x3dc25d53	0.094904564
25	0x3ce9733c	0.02849733
26	0xbd6d4e64	-0.057936087
27	0x3d491066	0.049087904
28	0xbe77feb0	-0.2421825
29	0x3dc0f59c	0.09421846
30	0xbdc61e95	-0.09673802
31	0x3c62e813	0.013849276
32	0xbd15b413	-0.036548685
33	0xbdcbba94	-0.09947696
34	0xbe06fd20	-0.13182497
35	0x3d1c439b	0.03815041
36	0x3dd66556	0.10468547
37	0xbe320844	-0.17385966
38	0x3c8fb9c5	0.017544637
39	0xbdb3b3de	-0.08774541
40	0x3e50a727	0.20376264
41	0xbe018a03	-0.12650304
42	0x3c47e766	0.012201166
43	0x3dab3d54	0.08361307
44	0x3e098d09	0.13432707
45	0xbd62b077	-0.05534407
46	0x3e25bf9f	0.16186379
47	0x3cf503f2	0.029909108
48	0x3d51bf1e	0.051207654
49	0xbe01105c	-0.12603897
50	0xbcaa5cfc	-0.020796292
51	0xbe57b3c0	-0.21064663
52	0x3d323279	0.043505166
53	0xbdb4cca1	-0.08828092
54	0xbde2552f	-0.11051404
55	0x3d9c04e5	0.07618121
56	0x3d01dd48	0.03170517
57	0xbc2d0f06	-0.010562664
58	0xbd84f8d9	-0.064927764
59	0x3d576379	0.0525851
60	0x3dc4eacc	0.096150964
61	0xbd86df9d	-0.065856196
62	0xbbef9aa8	-0.0073121376
63	0x3ddfd613	0.10929503
64	0xbd483dd8	-0.048887104
65	0xbd16a4d9	-0.036778305
66	0xbdfbcc5a	-0.12294836
67	0xbe05bdfd	-0.13060756
68	0xbe5e7dee	-0.21727726
69	0x3ddca5bb	0.10773798
70	0xbe0ef042	-0.13958839
71	0xbe1cc62f	-0.15309976
72	0xbca2e796	-0.01988582
73	0x3e40e0fc	0.18835825
74	0x3d37d428	0.044880062
75	0xbd768d67	-0.060193446
76	0x3e0e5761	0.1390052
77	0xbdbd4ef2	-0.09243573
78	0xbd27b02c	-0.040939495
79	0x3d7c3cce	0.061581425
80	0x3cb049b1	0.021519514
81	0x3dfda485	0.12384895
82	0xbc220e5a	-0.009891117
83	0x3e366cff	0.17815016
84	0x3cf0e58d	0.029406333
85	0xbba6a9bd	-0.0050861523
86	0x3e49395a	0.19650784
87	0x3e03225c	0.12806076
88	0xbde395f8	-0.11112589
89	0x3e22f4b5	0.15913661
90	0xbe0d1348	-0.13776886
91	0xbe08ba16	-0.13352236
92	0x3e507744	0.20357996
93	0xbdca241e	-0.0987017
94	0xbbc298fb	-0.005938647
95	0xbcb37291	-0.021905215
96	0x3dd042e9	0.10169012
97	0xbe1a1a71	-0.15049149
98	0xbd6b6f00	-0.057478905
99	0x3d43ab42	0.047770746
100	0xbcf37736	-0.02971993
101	0xbd33373f	-0.04375386
102	0x3e437f9d	0.1909165
103	0xbda22c5d	-0.07918618
104	0xbc0ab461	-0.008465857
105	0x3ce3f5d7	0.027827187
106	0xbe001e28	-0.12511504
107	0xbca9eae3	-0.020741886
108	0xbc26a17b	-0.010170336
109	0x3d9b9787	0.07597261
110	0x3d8a7d5d	0.067621924
111	0xbcbe9f8d	-0.02326944
112	0x3e20034d	0.15626259
113	0xbe104e75	-0.14092429
114	0x3d4b64d4	0.049656704
115	0x3d589ac7	0.052881982
116	0xbd58c432	-0.05292148
117	0x3dae6579	0.08515448
118	0xbd0e86ef	-0.03479665
119	0xbdba57bd	-0.09098766
120	0x3d8c2f10	0.06844914
121	0xbcff54ca	-0.03116836
122	0xbe0fc735	-0.14040835
123	0xbdd5a4c6	-0.10431819
124	0x3d18eb6a	0.037333883
125	0xbe0318e5	-0.12802465
126	0x3ba3b316	0.004995714
127	0xbc129e9d	-0.008948949
128	0xbd88aafd	-0.066732384
129	0xbd941785	-0.072310485
130	0xbd58656e	-0.052831106
131	0xbc9eac96	-0.019369405
132	0xbd45b2ca	-0.04826621
133	0x3d754c08	0.059886962
134	0x3d4085a6	0.047002457
135	0xbdb14bbd	-0.08657024
136	0xbe5fd3e8	-0.2185818
137	0x3e3b5312	0.18293408
138	0xbd6927a9	-0.05692259
139	0x3e56b45d	0.2096724
140	0x3d0252d7	0.031817283
141	0x3d8e4e58	0.06948537
142	0x3cbe60ab	0.023239454
143	0xbe0081ee	-0.12549564
144	0x3df67c3e	0.12035416
145	0xbe26b9ef	-0.16281866
146	0xbe03783e	-0.12838838
147	0xbe063bf2	-0.13108805
148	0x3dffed14	0.12496391
149	0x3e14bb4a	0.1452457
150	0xbc01a523	-0.007912907
151	0x3e558ceb	0.20854537
152	0x3e19a21c	0.15003246
153	0x3dfb86ee	0.12281595
154	0xbc75d46f	-0.015004261
155	0x3db8d174	0.09024325
156	0xbdf538cb	-0.11973723
157	0xbdb61088	-0.08889872
158	0x3d8fd222	0.070225015
159	0xbda928c7	-0.08259731
160	0x3e567d13	0.2094615
161	0xbb61e371	-0.003446784
162	0x3bf59e21	0.007495657
163	0x3e4890dd	0.19586511
164	0x3e17f489	0.14839377
165	0x3c8e4926	0.017368864
166	0x3dade260	0.08490443
167	0xbc553a4a	-0.0130143855
168	0x3c826107	0.015915407
169	0x3c783bb5	0.015150954
170	0xbdf3050b	-0.11866196
171	0x3db1b1b7	0.086764745
172	0x3e15bf74	0.14623815
173	0x3df4ec8c	0.1195918
174	0x3bf01fb5	0.0073279985
175	0x3db0394f	0.08604681
176	0x3d0e711e	0.034775846
177	0xbcef0f19	-0.029182004
178	0xbe3a9c7e	-0.1822376
179	0xbe1d8349	-0.15382113
180	0xbc8fd37c	-0.017556898
181	0x3d5aa00c	0.05337529
182	0xbd6afd1f	-0.0573703
183	0xbd75efcf	-0.060043152
184	0xbcc7540b	-0.024332067
185	0x3d4de04b	0.05026273
186	0x3dd09ee1	0.10186554
187	0x3daa8210	0.08325589
188	0xbdb916b3	-0.09037533
189	0xbd3fb5bc	-0.046804175
190	0x3e319e49	0.17345537
191	0x3cc56af3	0.024098849
192	0x3d9c5974	0.07634249
193	0x3e5ed4ee	0.21760914
194	0x3d87fbae	0.06639801
195	0x3d9557d3	0.07292142
196	0xbdb00f42	-0.0859666
197	0xbcd9c782	-0.02658439
198	0xbd9cbfd0	-0.07653773
199	0x3e10ae74	0.14129049
200	0x3dcd7b4b	0.10033282
201	0x3e06d319	0.13166465
202	0x3ae289cb	0.0017283497
203	0x3cdcce41	0.026953818
204	0x3e2969ce	0.16544268
205	0xbd965bad	-0.073417045
206	0xbd709b5f	-0.058741923
207	0x3d15e784	0.036597744
208	0x3d203e84	0.03912212
209	0x3cb209b3	0.02173314
210	0xbd7b42e3	-0.061343085
211	0xbe70823c	-0.2348718
212	0x3da45250	0.08023512
213	0x3d7a1aba	0.061060645
214	0x3e2c50bb	0.16827671
215	0x3e486eb6	0.19573483
216	0x3da1f75c	0.07908508
217	0xbdd09b1f	-0.10185837
218	0x3d811497	0.06302755
219	0xbbb300ca	-0.0054627405
220	0xbbde7f25	-0.006790059
221	0x3dbe6dd5	0.092982925
222	0xbd26ebc8	-0.040752202
223	0xbd5881e8	-0.052858263
224	0x3deb74bb	0.11496874
225	0xbbb4d650	-0.005518712
226	0xbd62186b	-0.055199068
227	0x3e003634	0.12520677
228	0x3e5caf7c	0.21551317
229	0x3ded5b3b	0.115896665
230	0xbd01a753	-0.031653713
231	0x3de01e9f	0.109433405
232	0x3d918528	0.07105476
233	0xbe1462d2	-0.14490822
234	0xbd782ee7	-0.060591605
235	0x3ca24b04	0.01981116
236	0x3d13a8eb	0.036049765
237	0xbcb59a22	-0.022168223
238	0x3e18c15e	0.14917514
239	0xbe5e1ac6	-0.21689901
240	0x3e1f4374	0.15553075
241	0x3d369f4c	0.04458551
242	0x3da1594d	0.07878361
243	0x3e2b99c8	0.16757882
244	0x3e086c79	0.13322629
245	0x3c3a8ad8	0.011385642
246	0x3d463577	0.04839083
247	0xbd3c608d	-0.045990516
248	0x3de7d9e6	0.11320858
249	0x3bb7cdfc	0.005609272
250	0x3d05adcf	0.03263646
251	0x3d8fa779	0.07014365
252	0xbd371eec	-0.044707224
253	0xbd247c5b	-0.040157657
254	0xbdbb4991	-0.09144891
255	0xbc3ce471	-0.011529074

mlp_in.1.weight f4 [16, 512]
0	0xbc329c60	-0.0109015405
1	0xbd5305c3	-0.051519167
2	0xbdb790cf	-0.08963167
3	0xbdbf9745	-0.09355024
4	0xbd8cf300	-0.06882286
5	0xbdcd1622	-0.10013987
6	0xbc8d8266	-0.017274093
7	0xb992dbe3	-0.00028011118
8	0xbd9efb3c	-0.07762763
9	0x3cbf615e	0.023361858
10	0x3c906c21	0.017629685
11	0x3d15eaca	0.036600865
12	0x3d2debe7	0.042461302
13	0xbd3b87b6	-0.04578372
14	0x3d696cb0	0.056988418
15	0x3cc02b89	0.02345826
16	0x3da4222b	0.080143295
17	0xbc78afd9	-0.015178644
18	0xbd3b062a	-0.045660175
19	0x3c543f49	0.0129545415
20	0xbdccde37	-0.100033216
21	0x3daa60ed	0.083192684
22	0xbbf549db	-0.007485611
23	0x3d58b9cb	0.05291156
24	0xbda3ebaa	-0.08003934
25	0xbce5a6f6	-0.028033715
26	0x3d462ed7	0.048384514
27	0x3c6fc362	0.014633985
28	0x3e5d56be	0.21615121
29	0xbdbcedbc	-0.09225032
30	0x3da39bb8	0.07988685
31	0xbc18de5f	-0.009330361
32	0xbd93f7f2	-0.07225026
33	0xbd71fed5	-0.059080917
34	0x3e0ac344	0.1355105
35	0xbca07204	-0.019585617
36	0xbcf16a5a	-0.029469658
37	0x3dc41bb4	0.095755965
38	0x3dafac3a	0.085777715
39	0xbdc5f091	-0.09665025
40	0xbd5a6b22	-0.053324826
41	0x3daf76d3	0.08567586
42	0xbc15b8ea	-0.009138325
43	0xbcec6c38	-0.028860196
44	0xbd445706	-0.047934555
45	0x3db2a147	0.087221675
46	0xbd85922a	-0.06522019
47	0xbbc7e965	-0.006100821
48	0xbd102406	-0.035190605
49	0x3d99c6d1	0.07508624
50	0xbbaea16b	-0.005329301
51	0x3e1348ab	0.1438319
52	0xbd5d1d71	-0.053983156
53	0xbc93e1e6	-0.018052053
54	0xbc2fe5b0	-0.010735914
55	0x3d4029e0	0.046914935
56	0xbd627a2e	-0.0552923
57	0x3d4b74ee	0.04967206
58	0x3dd37541	0.10325099
59	0xbce4a4ec	-0.027910672
60	0xbadbe220	-0.0016775765
61	0xbd22709d	-0.039658178
62	0x3b907a66	0.0044091223
63	0xbdc2c5db	-0.09510394
64	0xbd9610d3	-0.07327428
65	0xbd1ebb81	-0.038753036
66	0x3d8271a2	0.0636933
67	0x3d4fbeea	0.05071918
68	0x3e0344d5	0.12819226
69	0xbd1e81cd	-0.038698006
70	0xbc104078	-0.008804433
71	0xbd6d5f6b	-0.057952326
72	0xbc40c19a	-0.011764908
73	0x3dfea589	0.12433917
74	0x3dc14ef3	0.094388865
75	0x3dcb7264	0.09933928
76	0xbd245929	-0.040124092
77	0x3c75446a	0.014969924
78	0x3cb1b0d6	0.021690767
79	0xbc56465f	-0.013078301
80	0x3d896c94	0.06710163
81	0xbd39f377	-0.0453982
82	0x3d1bc710	0.038031638
83	0xbd816010	-0.063171506
84	0xbab82f75	-0.0014052229
85	0x3e2ea1d9	0.17053927
86	0xbd2ce8f7	-0.04221436
87	0xbdf7607a	-0.12078948
88	0x3cd2520b	0.025673887
89	0xbd988a31	-0.07448233
90	0x38ea691d	0.000111775684
91	0xbcb9e403	-0.022691732
92	0xbd8b39e9	-0.06798155
93	0x3d8cee09	0.06881339
94	0xbe16c4fe	-0.14723584
95	0x3db62a64	0.08894804
96	0x3d3720f0	0.044709146
97	0x3e2be9fe	0.1678848
98	0xbcc6709a	-0.024223614
99	0xbdac569d	-0.08414958
100	0x3c9a423b	0.01883041
101	0x3cb8b4c5	0.022547135
102	0xbd611d50	-0.054959595
103	0xbd4422a7	-0.04788461
104	0x3c010c2b	0.007876436
105	0xbd39cea0	-0.04536307
106	0x3cffac7a	0.031210173
107	0x3bf0c1d6	0.007347326
108	0xbb8f01da	-0.0043642344
109	0xbd87bd51	-0.06627906
110	0xbc9980c5	-0.01873816
111	0x3dddf4ab	0.10837682
112	0xbd5a017b	-0.053224068
113	0x3d91ac09	0.07112891
114	0xbd5e1de7	-0.054227736
115	0x3ab67bdc	0.0013922411
116	0x3d434dad	0.0476815
117	0x3c1b1fa9	0.009467998
118	0x3d338a0b	0.04383282
119	0xbcf40fae	-0.029792633
120	0x3b235420	0.0024921969
121	0x3cf4965a	0.02985685
122	0x3d939046	0.07205252
123	0x3cbf76cf	0.023372082
124	0x3ca315b4	0.01990781
125	0xbb2f15ef	-0.0026715954
126	0x3ce17694	0.027522363
127	0x3ae4470b	0.0017416192
128	0xbd2ee28a	-0.042696513
129	0x3b78d009	0.0037965795
130	0x3c7a1e1b	0.015265967
131	0x3bc76765	0.0060853236
132	0x3d2ac205	0.041688938
133	0xbd94df38	-0.07269138
134	0xbd812c1d	-0.06307242
135	0xbd0b284e	-0.033973984
136	0x3cee4c87	0.029089225
137	0x3bd40b33	0.0064710616
138	0x3e02fb68	0.12791216
139	0xbc8090c9	-0.015694039
140	0xbdc9ad68	-0.09847528
141	0xbe0b7688	-0.13619435
142	0x3ca12c3d	0.019674415
143	0x3cfe4e3a	0.03104316
144	0xbd508f76	-0.050918065
145	0x3d5d8d9d	0.05409013
146	0xbcec8ed1	-0.028876694
147	0xbca33972	-0.019924853
148	0xbd913513	-0.07090201
149	0xbd8efdd2	-0.06982006
150	0x3d52f403	0.05150224
151	0x3cd7482a	0.026279528
152	0xbd5adb66	-0.05343189
153	0xbd97a5fb	-0.07404705
154	0xbd41de36	-0.047331057
155	0x3c5295d4	0.012853105
156	0x3c1916c1	0.009343804
157	0xbc6b8e30	-0.014377162
158	0xbd8b35af	-0.06797349
159	0x3dba722f	0.0910381
160	0xbcbfdd5d	-0.023420984
161	0x3cb089fc	0.021550171
162	0x3d171670	0.036886632
163	0xbda3ea47	-0.08003669
164	0xbd7e32eb	-0.062060278
165	0x3c2883cb	0.010285328
166	0xbbbe7975	-0.0058128187
167	0x3cf69f60	0.030105293
168	0xbc8b51c8	-0.01700677
169	0xbc27af80	-0.010234714
170	0xbd2a2033	-0.041534614
171	0xbdc87297	-0.09787481
172	0xbd13da22	-0.0360967
173	0x3d20a3e2	0.03921879
174	0x3d911e92	0.07085909
175	0xbdfe0395	-0.12403027
176	0x3c5b8963	0.013399455
177	0x3c5102d6	0.012757024
178	0x3bbb5a7e	0.0057175746
179	0x3d941357	0.07230251
180	0xbd82bc57	-0.06383579
181	0xbd61c033	-0.055114936
182	0x3d783e8e	0.06060653
183	0xbd2cfcf2	-0.042233415
184	0x3d9bbaf5	0.076040186
185	0x3cd4c01d	0.025970513
186	0xbda12553	-0.07868447
187	0xbc931f6b	-0.017959317
188	0x3e1660f5	0.14685424
189	0x3c973943	0.018459922
190	0xbced6000	-0.02897644
191	0x3d296437	0.041355338
192	0x3c2dba59	0.010603511
193	0xbd44e49d	-0.048069585
194	0x3ba8b4bb	0.005148498
195	0xbe086258	-0.13318765
196	0x3dae348d	0.08506117
197	0x3d2501aa	0.04028479
198	0x3c248ea2	0.010043772
199	0xbcb20349	-0.021730082
200	0x3c34620d	0.011009705
201	0xbd464491	-0.048405234
202	0x3c7b69cb	0.015345047
203	0xbd2fe112	-0.042939253
204	0xbdb6a493	-0.08918109
205	0x3c85d9e5	0.016339252
206	0x3d0e7cce	0.03478699
207	0xbc31d735	-0.010854532
208	0xbc8cb86b	-0.017177781
209	0x3d27aefd	0.040938366
210	0x3d8a5fa8	0.06756526
211	0x3d544766	0.051825903
212	0xbcf4fbff	-0.029905317
213	0xbcc83ff6	-0.024444561
214	0x3c7dbc18	0.01548674
215	0xbd238fe4	-0.039932147
216	0xbddb9a8c	-0.10722837
217	0x3acfe9b8	0.00158625
218	0x3d03f4ae	0.032215767
219	0x3c51690a	0.012781391
220	0x3c3c21b2	0.011482643
221	0x3c380b66	0.011233186
222	0x3ddd4991	0.10805047
223	0x3d054f79	0.032546494
224	0xbd504ba2	-0.05085338
225	0x3d781681	0.060568336
226	0x3d8c294a	0.06843813
227	0xbc632c80	-0.01386559
228	0xbdbf2bc6	-0.09334521
229	0xbd40595f	-0.04696023
230	0x3ba748c1	0.0051051085
231	0xbcd7c7c9	-0.026340382
232	0x3c1cc46f	0.009568318
233	0x3c84bbd8	0.016202852
234	0x3d0f13cd	0.034930993
235	0x3def6343	0.116888545
236	0x3916792a	0.00014350252
237	0x3dc676d9	0.09690637
238	0x3d8c8867	0.06861954
239	0x3d0f1397	0.03493079
240	0xbd14e3c0	-0.03635001
241	0xbdacbde7	-0.084346585
242	0x3c7dbb6f	0.015486582
243	0xbd5962e2	-0.053072818
244	0xbdc948ac	-0.09828314
245	0xbcf4673d	-0.029834384
246	0x3b10f09d	0.0022116073
247	0x3d350d3c	0.044202074
248	0x3b563fde	0.0032691876
249	0x3b9ce731	0.0047883024
250	0xbd49ffaa	-0.049316086
251	0x3b1f7571	0.0024331475
252	0x3da48757	0.080336265
253	0xbbf593b2	-0.0074944133
254	0x3d45363f	0.048147436
255	0x3cb16223	0.02165324

mlp_in.1.bias f4 [16]
0	0xbdc29f3a	-0.09503026
1	0xbdda7a7c	-0.10667893
2	0xbda8fef9	-0.08251757
3	0x3dce5042	0.10073902
4	0x3cf1b12a	0.029503424
5	0xbe354134	-0.17700654
6	0xbd75de80	-0.060026646
7	0x3d92a962	0.071612135
8	0xbcdaa6d2	-0.026690874
9	0x3db5186a	0.08842547
10	0x3cde1f45	0.02711452
11	0xbc4c4107	-0.012466676
12	0xbde02379	-0.10944266
13	0x3dd0412b	0.1016868
14	0x3cdff374	0.027337767
15	0x3db5bd56	0.088740036

model.project_0.weight f4 [256, 16]
0	0x3ce0b447	0.027429713
1	0xbd195374	-0.037433103
2	0x3e851d58	0.2599895
3	0xbdf35bb5	-0.11882726
4	0xbd9f7508	-0.07785994
5	0x3b17e4ea	0.0023177215
6	0x3e1d77b4	0.15377694
7	0xbe4b451b	-0.1985058
8	0xbe27f7f0	-0.16403174
9	0xbdc8319d	-0.09775088
10	0x3cd46afa	0.025929917
11	0xbd596801	-0.0530777
12	0x3db20c70	0.086937785
13	0xbcb594ad	-0.02216562
14	0x3e10f204	0.14154822
15	0x3e5875ef	0.21138738
16	0x3c840093	0.016113555
17	0xbe3c4b99	-0.18388213
18	0xbe2e308b	-0.17010705
19	0xbca5c2d7	-0.020234508
20	0xbc3d38b4	-0.011549164
21	0x3e669372	0.22517183
22	0x3e891fb3	0.26781997
23	0x3d45453b	0.048161726
24	0x3d47316b	0.048631113
25	0xbe3a70ab	-0.18207042
26	0xbd529655	-0.0514129
27	0x3e84b152	0.25916535
28	0x3db83392	0.08994211
29	0x3e607b4d	0.21922036
30	0x3e239698	0.15975416
31	0x3ddb9367	0.10721474
32	0xbc4790cb	-0.012180517
33	0xbd9d20dd	-0.07672284
34	0x3de77891	0.11302293
35	0xbe9eed1b	-0.31040272
36	0x3e0638d1	0.13107611
37	0xbe242dcc	-0.16033095
38	0x3e814824	0.2525035
39	0xbe0d7af8	-0.1381644
40	0xbdf3fb6a	-0.11913188
41	0x3e102ce1	0.1407962
42	0xbcfa7e84	-0.030577905
43	0xbd398fca	-0.045303144
44	0x3d26e2f6	0.04074379
45	0xbd3a84cf	-0.045536812
46	0xbd64f952	-0.055901833
47	0xbd015cf8	-0.031582803
48	0x3c738e3a	0.014865452
49	0x3d9f6e9c	0.07784769
50	0xbdfa2109	-0.12213332
51	0xbd0524af	-0.032505687
52	0xbdd7b6cf	-0.10532915
53	0xbcf0f577	-0.029413922
54	0xbe049590	-0.12947679
55	0xbe1c0b48	-0.15238678
56	0x3dc19c4d	0.0945364
57	0xbe356a11	-0.17716242
58	0x3c5cc804	0.013475422
59	0x3e630863	0.22171168
60	0x3e6ba00f	0.23010276
61	0x3dc6653a	0.09687276
62	0x3db2969b	0.08720132
63	0xbcd06120	-0.025436938
64	0x3e11a468	0.14222872
65	0x3cc41eed	0.023940528
66	0xbe10ca9a	-0.14139786
67	0xbe97521a	-0.29554826
68	0x3ce71add	0.028211052
69	0x3e3789a6	0.17923602
70	0xbe3a545a	-0.1819624
71	0x3d96e9cc	0.07368812
72	0xbe04694b	-0.12930791
73	0x3dfa254b	0.12214144
74	0x3d76fef9	0.060301755
75	0xbe52d988	-0.20590794
76	0xbe3429d3	-0.1759408
77	0x3da5f6e2	0.0810373
78	0x3dcdbd46	0.10045867
79	0xbda17734	-0.07884064
80	0x3e0a5ee2	0.13512757
81	0x3e2b957a	0.1675624
82	0xbdbaac73	-0.09114923
83	0xbc7a468a	-0.015275607
84	0x3e97662a	0.29570132
85	0xbe242d6a	-0.16032949
86	0x3dff0cc5	0.124536075
87	0x3e0d8d8c	0.13823527
88	0xbe1347fa	-0.14382926
89	0xbdc0cd76	-0.094141886
90	0x3d7a7a0c	0.06115155
91	0xbe786627	-0.24257718
92	0xbe5f0c6f	-0.21782087
93	0x3dade997	0.08491819
94	0x3e199520	0.14998293
95	0xbe798847	-0.24368392
96	0x3dce77a0	0.100814104
97	0xbd261524	-0.040547505
98	0x3c84d6bb	0.016215673
99	0x3bdede36	0.006801392
100	0x3d992743	0.07478192
101	0xbe8b93c3	-0.2726117
102	0x3e7d9fae	0.24767944
103	0x3dbeb46b	0.09311756
104	0xbe6ef09e	-0.23333976
105	0xbdab3f0c	-0.083616346
106	0xbd2db5d2	-0.042409725
107	0x3e15f1c8	0.14643013
108	0xbde84bbb	-0.113425694
109	0x3e32c54a	0.17458072
110	0x3dbaac06	0.09114842
111	0xbe1de31e	-0.1541867
112	0xbe75a172	-0.23987368
113	0xbc683315	-0.014172335
114	0x3cfa56fa	0.030559052
115	0xbc6fdf04	-0.014640573
116	0x3e0fda2b	0.14048068
117	0x3d98b6bc	0.07456729
118	0xbe047518	-0.12935293
119	0xbe956e68	-0.29185796
120	0xbe43bb49	-0.19114412
121	0x3e281124	0.16412789
122	0x3e9142ab	0.28371176
123	0x3d1957e8	0.03743735
124	0x3e800dc1	0.25010493
125	0x3df87dda	0.12133379
126	0x3ccac77d	0.024753327
127	0x3e6a50fe	0.22882459
128	0x3e2d607c	0.16931337
129	0xbd4f8c42	-0.05067087
130	0x3e39f358	0.18159235
131	0x3d01ef5c	0.03172241
132	0xbe671ed7	-0.22570358
133	0x3e0e584c	0.1390087
134	0x3e693a58	0.22776163
135	0x3cefad6b	0.029257497
136	0x3e20dca2	0.15709165
137	0xbe26e98a	-0.16300026
138	0x3db797f6	0.08964531
139	0x3e19e7c3	0.15029816
140	0xbd282409	-0.04104999
141	0xbe95279d	-0.29131785
142	0xbd08323c	-0.033251032
143	0x3e93e7b1	0.28887704
144	0xbe81ad95	-0.25327745
145	0x3d874455	0.0660483
146	0xbd8245f3	-0.06360998
147	0xbe96bfbf	-0.29443166
148	0x3e19b0f0	0.15008903
149	0xbe2777c9	-0.16354288
150	0x3e0826af	0.13296007
151	0x3e364221	0.17798664
152	0x3e664de5	0.22490652
153	0xbe2f6274	-0.171274
154	0x3e137d6d	0.14403315
155	0xbe3b6714	-0.1830104
156	0x3de25c82	0.11052801
157	0xbde92c31	-0.11385382
158	0x3e5ebd0a	0.217518
159	0xbe3f407b	-0.18676941
160	0x3d5fa98b	0.05460505
161	0x3e2c9fe3	0.16857867
162	0xbd676e81	-0.05650187
163	0xbdab53a1	-0.0836556
164	0xbe2cadb6	-0.1686314
165	0x3d9f6bc7	0.07784229
166	0xbd690f0b	-0.05689911
167	0x3d99428d	0.07483397
168	0xbbb5fb41	-0.0055536334
169	0x3e220eb3	0.1582592
170	0x3bc16f49	0.005903159
171	0xbebafe7a	-0.36522275
172	0x3e7c7424	0.24653679
173	0xbd0784b2	-0.033085532
174	0xbd586206	-0.052827857
175	0x3e6db5e0	0.23213911
176	0x3e04cae3	0.1296802
177	0xbe0806e7	-0.13283883
178	0xbd97fd7e	-0.07421397
179	0x3db3fca3	0.08788421
180	0xbe2224d5	-0.15834363
181	0x3db6c660	0.08924556
182	0xbd123239	-0.035692427
183	0xbdcaa1db	-0.09894153
184	0xbd8324aa	-0.064034775
185	0xbdba6137	-0.091005735
186	0xbe194884	-0.14969069
187	0xbe7e48de	-0.24832484
188	0xbe1550b6	-0.1458157
189	0xbde1568e	-0.11002837
190	0xbe830b57	-0.2559459
191	0x3d56e1c4	0.0524614
192	0xbd6e401d	-0.058166612
193	0xbdf93114	-0.12167564
194	0xbe8a183f	-0.26971623
195	0x3d995737	0.07487338
196	0x3c4fa8c4	0.012674514
197	0xbd832d7f	-0.06405162
198	0x3dc42c3b	0.09578749
199	0xbdda2a34	-0.10652581
200	0xbe802169	-0.2502549
201	0x3bc84db9	0.006112781
202	0xbe6f00e8	-0.2334019
203	0x3dad23d2	0.08454098
204	0xbd8be879	-0.0683145
205	0xbd647f57	-0.055785503
206	0x3da67f7d	0.08129785
207	0x3e4bcb4d	0.19901772
208	0xbdb1e239	-0.08685727
209	0x3e0d46af	0.13796495
210	0xbe08ef8c	-0.1337263
211	0x3d853cfb	0.06505772
212	0xb72f181f	-1.0436429e-05
213	0x3e227812	0.15866116
214	0x3db23ef2	0.08703412
215	0xbe0bbfb1	-0.13647343
216	0x3e43b186	0.19110689
217	0x3e49afdb	0.1969599
218	0xbd7a4981	-0.061105255
219	0xbd5973e0	-0.053089023
220	0x3d012f0c	0.031539008
221	0x3e2f8add	0.17142816
222	0xbe2cecc3	-0.16887192
223	0x3d8490e0	0.06472945
224	0xbe08f2b3	-0.13373832
225	0xbe0b0ffb	-0.13580315
226	0xbcbf9a4b	-0.023389002
227	0x3d80ca40	0.06288576
228	0xbe3e2d8c	-0.18572062
229	0x3e874d29	0.26426056
230	0x3e8c0c3b	0.2735308
231	0x3db09eec	0.08624062
232	0xbe0308de	-0.12796351
233	0xbe110d67	-0.14165269
234	0xbe260f9a	-0.16216889
235	0x3c60491f	0.013689308
236	0x3dc59cdf	0.096490614
237	0x3d865d2c	0.0656074
238	0x3e068336	0.1313599
239	0x3e00b471	0.12568833
240	0x3dd9e8ca	0.10640104
241	0xbe30316d	-0.17206354
242	0x3d2b2334	0.04178162
243	0x3e1fcc8e	0.15605375
244	0xbc8293d9	-0.01593964
245	0xbe4268bf	-0.1898527
246	0x3e67474b	0.2258579
247	0x3e5601fb	0.20899193
248	0xbd9df989	-0.07713611
249	0x3e0ede00	0.13951874
250	0xbdef42d8	-0.11682671
251	0xbd52a77d	-0.05142926
252	0x3e19d1d9	0.15021457
253	0xbdbd88f1	-0.09254635
254	0x3dbadccc	0.09124145
255	0x3e1869f5	0.1488417

model.project_0.bias f4 [256]
0	0xbd3dd59e	-0.0463463
1	0x3e0283fd	0.12745662
2	0xbe287db3	-0.164542
3	0xbe59a55a	-0.21254483
4	0xbe79a7eb	-0.24380462
5	0xbe29fbe4	-0.16599995
6	0x3d9205d8	0.07130021
7	0xbe517874	-0.20456105
8	0xbe8a3d54	-0.26999915
9	0xbc7a9f3e	-0.015296755
10	0xbe9579b7	-0.29194424
11	0xbe2c3b74	-0.16819555
12	0x3e1c8a5e	0.15287158
13	0xbdeef520	-0.11667848
14	0xbda4bc21	-0.08043695
15	0xbe40075d	-0.18752809
16	0xbccc544a	-0.024942536
17	0xbd866cac	-0.06563696
18	0x3d7f5c51	0.0623439
19	0xbe8b936b	-0.27260908
20	0x3db93cca	0.09044798
21	0x3d2d3169	0.04228345
22	0x3c96af6a	0.01839419
23	0xbe9eb7e1	-0.30999663
24	0xbe995831	-0.29950097
25	0xbe92a9a6	-0.28645056
26	0x3d60f5aa	0.054921784
27	0xbe2fcb4d	-0.17167397
28	0xbdcdeb8e	-0.10054694
29	0x3d139355	0.03602918
30	0x3de1bf54	0.11022821
31	0xbe6dbf41	-0.23217489
32	0xbdeeb763	-0.11656072
33	0xbc94a1c1	-0.018143537
34	0xbe8bbf20	-0.27294254
35	0x3d081b8c	0.033229396
36	0x3c2496ac	0.010045689
37	0xbe394f91	-0.18096758
38	0xbce03566	-0.027369212
39	0xbd31289e	-0.043251626
40	0xbe07519a	-0.13214722
41	0xbe43c836	-0.19119343
42	0xbe9836f6	-0.29729432
43	0xbce071ee	-0.027398076
44	0xbe1c435c	-0.1526007
45	0x3d1370a0	0.03599608
46	0xbe814a4a	-0.2525199
47	0x3d789b38	0.060694903
48	0xbe5585fa	-0.20851889
49	0xbdc211fd	-0.09476087
50	0x3d285c4e	0.041103654
51	0x3e556fa9	0.20843376
52	0x3d209119	0.039200876
53	0xbe9dcbf6	-0.30819672
54	0xbd8f1fd5	-0.06988493
55	0xbdd62849	-0.104569025
56	0xbe9c034b	-0.30471262
57	0xbe94c773	-0.29058418
58	0xbe0b3807	-0.13595591
59	0xbe5c935f	-0.21540593
60	0xbdd46bd5	-0.1037213
61	0xbdccda43	-0.100025676
62	0x3c067822	0.008207353
63	0x3d5ce9f3	0.05393405
64	0x3dfd4826	0.12367277
65	0xbcc4f42f	-0.024042217
66	0xbe8fae88	-0.28062844
67	0xbe5d519b	-0.21613161
68	0x3e00f3d9	0.1259302
69	0x3d27bfd8	0.04095444
70	0xbd7acac8	-0.061228544
71	0xbd56fb5c	-0.05248581
72	0xbe938d6c	-0.28818834
73	0xbe19dc25	-0.15025385
74	0x3c859208	0.016304985
75	0xbe485acf	-0.1956589
76	0xbd97b58b	-0.074076734
77	0x3d5a8581	0.053349975
78	0xbe2ba8ac	-0.16763562
79	0x3dbddb33	0.092703246
80	0xbea2efed	-0.31823674
81	0xbd1bda1f	-0.038049813
82	0xbe884dc8	-0.26621842
83	0xbe0722fe	-0.13196942
84	0xbe19a023	-0.15002494
85	0xbe34fec5	-0.17675312
86	0xbde268d9	-0.11055154
87	0x3c435596	0.011922261
88	0xbe64c184	-0.22339445
89	0xbe91c5af	-0.28471133
90	0x3deee220	0.11664224
91	0xbd869515	-0.06571404
92	0xbd836c83	-0.06417181
93	0x3d0a301d	0.03373729
94	0xbe5fe855	-0.21865971
95	0x3de5366d	0.111920215
96	0xbdb0faf0	-0.086416125
97	0x3d4a89f7	0.04944798
98	0x3ceb1c5d	0.028700048
99	0xbe4bc322	-0.19898656
100	0xbdc42e84	-0.09579185
101	0xbe832568	-0.25614476
102	0x3edab908	0.42719293
103	0xbe7690ef	-0.24078725
104	0xbe871f50	-0.26391077
105	0xbcd6ccf0	-0.026220769
106	0x3e3ad2ae	0.1824443
107	0x3c6467e0	0.013940781
108	0xbe714676	-0.23562035
109	0xbd3d600f	-0.046234187
110	0xbd227f3c	-0.03967212
111	0x3de4430b	0.111456
112	0xbeaacae7	-0.33357927
113	0xbd3242f1	-0.04352087
114	0xbeb54c23	-0.3540965
115	0xbe424ddf	-0.18975018
116	0xbe4fd88f	-0.20297454
117	0xbe6fd9cf	-0.23422931
118	0xbd9c8aeb	-0.07643684
119	0xbdda4a8c	-0.1065875
120	0xbe906f50	-0.28209925
121	0xbdf0fa57	-0.117664985
122	0xbe32b47f	-0.17451666
123	0xbe8a98a6	-0.27069587
124	0xbe4c811d	-0.19971128
125	0xbe15de3e	-0.1463556
126	0xbe4bdda0	-0.19908762
127	0x3ba07d88	0.004897777
128	0x3dc40c9c	0.095727175
129	0xbe005186	-0.12531099
130	0xbe0c523d	-0.13703246
131	0xbe355db8	-0.17711532
132	0xbdefc38f	-0.11707222
133	0x3dc2c70a	0.0951062
134	0xbe9c6641	-0.30546764
135	0xbe5ad213	-0.213692
136	0x3e10d40e	0.14143392
137	0xbbee6efa	-0.007276413
138	0x3c4b8570	0.012421951
139	0xbdafbb7b	-0.08580681
140	0xbe990608	-0.29887414
141	0x3da1568f	0.07877838
142	0xbde77c74	-0.113030344
143	0xbe645410	-0.22297692
144	0xbe554f3f	-0.20831011
145	0xbe783e56	-0.2424253
146	0xbe6018a2	-0.21884397
147	0xbd649704	-0.055808082
148	0x3d797f7f	0.060912605
149	0xbe6aac06	-0.22917184
150	0x3e237c70	0.15965438
151	0xbeb2fab0	-0.34956884
152	0xbe47ff2c	-0.19530934
153	0xbd8cedaf	-0.06881272
154	0x3e05725c	0.13031906
155	0xbd8f8065	-0.07006911
156	0xbe066af4	-0.13126737
157	0x3daaa354	0.083319336
158	0x3d2029b9	0.03910229
159	0xbe39e4dd	-0.1815371
160	0xbe376714	-0.17910415
161	0xbdd6b69f	-0.10484051
162	0xbe9fa73d	-0.3118228
163	0xbe67f980	-0.2265377
164	0xbc880ac5	-0.016606698
165	0x3d64e92d	0.055886436
166	0x3e30642d	0.17225714
167	0xbe3d159f	-0.18465279
168	0xbe20c8b3	-0.1570156
169	0xbe9173ed	-0.28408757
170	0xbeb4d7b2	-0.35320812
171	0xbda70c90	-0.08156693
172	0x3d8aa471	0.06769646
173	0xbd89f101	-0.06735421
174	0x3d987805	0.07444767
175	0xbe835398	-0.25649714
176	0xbdefd3c2	-0.117103115
177	0xbd678b9c	-0.056529626
178	0x3e33da78	0.17563808
179	0xbe45de2d	-0.19323035
180	0xbdf7c5de	-0.12098287
181	0x3db03d4e	0.08605443
182	0x3db6da62	0.08928372
183	0x3e32ce39	0.1746148
184	0xbe82978f	-0.25506255
185	0xbd3b354f	-0.045705136
186	0x3e4ac57b	0.19801895
187	0xbe446354	-0.19178516
188	0xbe4e51a8	-0.20148337
189	0x3e56b0b0	0.20965838
190	0xbcabc7dd	-0.020969326
191	0xbd3ee7fc	-0.046607956
192	0xbea06c25	-0.31332508
193	0x3da7c14f	0.081911676
194	0xbde50892	-0.11183275
195	0xbcc9002d	-0.024536217
196	0xbe8500cd	-0.25977173
197	0x3de0252e	0.109445915
198	0xbe1ed3c5	-0.15510471
199	0x3d859110	0.06521809
200	0xbe415b61	-0.18882515
201	0xbd48df20	-0.049040914
202	0xbd5441be	-0.05182051
203	0xbe0be5a0	-0.13661814
204	0xbe313303	-0.17304616
205	0xbe7fde4b	-0.24987142
206	0xbe804c5d	-0.2505826
207	0x3e137452	0.14399841
208	0x3da507b2	0.080581084
209	0xbd4e042b	-0.050296944
210	0xbec0127a	-0.37514096
211	0x3db6411a	0.08899136
212	0xbe03b460	-0.12861776
213	0xbdfcd9d3	-0.12346234
214	0xbe8b930c	-0.27260625
215	0x3d6663a7	0.05624738
216	0xbddd23a5	-0.10797814
217	0x3d445f29	0.047942314
218	0xbd4d0ba2	-0.050059922
219	0x3ce47b89	0.027890937
220	0x3d78bb47	0.060725477
221	0xbe66c62b	-0.22536533
222	0xbd6243b9	-0.055240367
223	0xbe9cc566	-0.30619353
224	0x3c1a953d	0.009434995
225	0x3de3e384	0.111273795
226	0x3d537c90	0.051632464
227	0xbe8a24ac	-0.26981103
228	0x3dc3a628	0.09553176
229	0xbe8169e7	-0.2527611
230	0xbe5c681e	-0.21524093
231	0xbe3f85e2	-0.18703416
232	0xbe14f3a1	-0.14546062
233	0xbdf0ef90	-0.11764443
234	0xbdd19718	-0.10233897
235	0xbdb0e75e	-0.0863788
236	0xbd453a6a	-0.04815141
237	0xbdb05ad2	-0.086110726
238	0xbe82a93c	-0.2551974
239	0x3df38792	0.11891092
240	0x3df40f07	0.11916929
241	0xbd67af40	-0.056563616
242	0xbe1d9c4e	-0.15391657
243	0xb907de61	-0.00012957446
244	0xbe789030	-0.24273753
245	0xbcc9e3f6	-0.024644833
246	0xbcfaa31d	-0.030595357
247	0x3d6115e3	0.054952513
248	0xbde4bf64	-0.11169317
249	0xbe850f2f	-0.25988147
250	0xbd7f1482	-0.062275417
251	0xbe7afd40	-0.2451067
252	0xbb48c63f	-0.0030635742
253	0xbe5f1e08	-0.217888
254	0xbcfb4281	-0.03067136
255	0xbe612f37	-0.21990667

model.hidden_0.wa f4 [1, 64]
0	0x3f778afe	0.9669646
1	0x3f4de28e	0.8042382
2	0x3f49baad	0.7880047
3	0x3f835d66	1.0262878
4	0x3f83ce01	1.0297242
5	0x3f557a3b	0.83389634
6	0x3f750e82	0.9572526
7	0x3f6c39fb	0.9227597
8	0x3f5830b0	0.8444929
9	0x3f6823aa	0.9067942
10	0x3f50697d	0.8141096
11	0x3f77f9f7	0.9686579
12	0x3f6338fd	0.8875883
13	0x3f69ba26	0.91299665
14	0x3f83c4ac	1.0294394
15	0x3f7295ec	0.9476001
16	0x3f7cde13	0.9877636
17	0x3f781311	0.96904093
18	0x3f794b50	0.9738054
19	0x3f7b077d	0.980583
20	0x3f5ada9a	0.8548981
21	0x3f603988	0.87587786
22	0x3f7a15ef	0.9768972
23	0x3f73ca92	0.9523097
24	0x3f72686f	0.94690603
25	0x3f831efe	1.0243833
26	0x3f55c8f2	0.83509743
27	0x3f615b94	0.8803036
28	0x3f5bc06c	0.8584049
29	0x3f7e511b	0.9934251
30	0x3f4910f8	0.7854152
31	0x3f876f8d	1.0580918
32	0x3f8b9b55	1.0906779
33	0x3f733f6f	0.95018667
34	0x3f564624	0.83700776
35	0x3f63d577	0.88997597
36	0x3f8a130d	1.0787064
37	0x3f705f14	0.9389508
38	0x3f71bfce	0.94433296
39	0x3f81682a	1.0109913
40	0x3f15446f	0.58307546
41	0x3f7e8360	0.9941921
42	0x3f4b0df5	0.7931817
43	0x3f1afbd2	0.605405
44	0x3f85eb23	1.0462383
45	0x3f635f05	0.88816863
46	0x3f64551b	0.8919236
47	0x3f7baaf7	0.98307747
48	0x3f5d604c	0.8647506
49	0x3f6d5e33	0.9272186
50	0x3f7230ad	0.94605523
51	0x3f71d9af	0.94472784
52	0x3f53ebd6	0.8278173
53	0x3f68be09	0.9091497
54	0x3f723d63	0.9462492
55	0x3f7bb07a	0.98316157
56	0x3f677559	0.90413433
57	0x3f89b325	1.0757796
58	0x3f849137	1.0356816
59	0x3ee55cf5	0.44797483
60	0x3f833587	1.025071
61	0x3f824f88	1.0180521
62	0x3f58b850	0.8465624
63	0x3f63358b	0.88753575

model.hidden_0.wb f4 [1, 64]
0	0x3f47eeea	0.7809893
1	0x3f8b92b5	1.0904146
2	0x3f89ad20	1.0755959
3	0x3f741fd3	0.9536106
4	0x3f52870e	0.8223733
5	0x3f74d676	0.9563974
6	0x3f6db5d3	0.92855567
7	0x3f6a9013	0.9162609
8	0x3f728125	0.9472831
9	0x3f78c915	0.97181827
10	0x3f554cc9	0.8332029
11	0x3f63558f	0.8880243
12	0x3f70abab	0.94011945
13	0x3f819ae2	1.0125391
14	0x3f69d284	0.91336846
15	0x3f6e4c6a	0.9308535
16	0x3f7bb4c0	0.9832268
17	0x3f73a85e	0.9517878
18	0x3f6c4c4e	0.9230393
19	0x3f646413	0.892152
20	0x3f6e8a1e	0.931795
21	0x3f738398	0.9512267
22	0x3f71c2c3	0.9443781
23	0x3f6dba3f	0.92862314
24	0x3f73a3ae	0.9517163
25	0x3f6bdc1b	0.9213273
26	0x3f7bf56a	0.9842135
27	0x3f73df58	0.9526267
28	0x3f876a39	1.0579292
29	0x3f5e2bb0	0.8678541
30	0x3f56341d	0.8367327
31	0x3f6abe77	0.91696876
32	0x3f6703c0	0.902401
33	0x3f6efcf0	0.933547
34	0x3f6cf22f	0.9255704
35	0x3f64181d	0.89099294
36	0x3f5086aa	0.8145548
37	0x3f579ac1	0.8422051
38	0x3f6bb1e4	0.92068315
39	0x3f741c2b	0.9535548
40	0x3f3ad0e7	0.7297501
41	0x3f6ffeb0	0.93748
42	0x3f872e8e	1.0561082
43	0x3f85335d	1.04063
44	0x3f5dfda4	0.8671515
45	0x3f643f07	0.8915867
46	0x3f5f2dc4	0.8717921
47	0x3f620d45	0.883015
48	0x3f6bf192	0.9216548
49	0x3f780746	0.968861
50	0x3f687c12	0.90814316
51	0x3f6cd28d	0.92508775
52	0x3f62a740	0.88536453
53	0x3f5fdf76	0.8745035
54	0x3f69b94a	0.91298354
55	0x3f6dfdd9	0.92965466
56	0x3f7b5157	0.9817099
57	0x3f6adfab	0.9174754
58	0x3f6362cc	0.8882263
59	0x3f8bd8fb	1.0925592
60	0x3f6f7277	0.93534034
61	0x3f68eb9b	0.90984505
62	0x3f6bca38	0.92105436
63	0x3f74e9ea	0.95669425

model.hidden_0.dist_apical.w f4 [768]
0	0x3f35221f	0.7075519
1	0x3e9d955f	0.30778024
2	0x3eff6591	0.49882177
3	0x3eb1e742	0.34746748
4	0x3f46535e	0.7747096
5	0x3eae540c	0.34048498
6	0x3eae540c	0.34048498
7	0x3f216e19	0.6305862
8	0x3efba759	0.49151114
9	0x3f28efaa	0.659907
10	0x3f3fee87	0.7497334
11	0x3ed4c305	0.41555038
12	0x3ecf214c	0.4045509
13	0x3f0c6891	0.54847056
14	0x3eee840c	0.4658512
15	0x3f0bc835	0.54602367
16	0x3eefbf95	0.46825853
17	0x3edb69c1	0.4285412
18	0x3f09db8b	0.5385062
19	0x3f065774	0.5247719
20	0x3efb66ed	0.49101964
21	0x3ed7643c	0.4206866
22	0x3ea87e50	0.3290887
23	0x3e9b7e81	0.30369952
24	0x3ef21d03	0.4728776
25	0x3ee72baf	0.45150515
26	0x3edf5a44	0.43623555
27	0x3ea86631	0.32890466
28	0x3e9f8248	0.31154084
29	0x3eed3c79	0.463352
30	0x3e8aefe7	0.27136156
31	0x3eac47c7	0.33648512
32	0x3ed22306	0.41042346
33	0x3eb64b06	0.35604113
34	0x3ed71a9e	0.42012495
35	0x3e1822bb	0.14856999
36	0x3f5f2fe9	0.8718248
37	0x3f62369c	0.8836458
38	0x3f44910a	0.7678381
39	0x3eb8832a	0.3603757
40	0x3f3d18d7	0.7386603
41	0x3f2213ac	0.63311267
42	0x3f291e29	0.66061646
43	0x3f291e29	0.66061646
44	0x3eff6939	0.49884966
45	0x3f53264b	0.82480305
46	0x3f1c246c	0.60993075
47	0x3f08eb8d	0.5348442
48	0x3f51b868	0.81922007
49	0x3eb5d10d	0.35511056
50	0x3f4b069d	0.79306966
51	0x3f164414	0.5869763
52	0x3f1bc336	0.60844743
53	0x3f0ee96c	0.55824924
54	0x3f19145b	0.59796685
55	0x3f0ee96c	0.55824924
56	0x3f2b39d8	0.6688514
57	0x3f41bc49	0.75677925
58	0x3f3e864a	0.7442366
59	0x3edadc18	0.42746043
60	0x3f020869	0.5079408
61	0x3f174784	0.590935
62	0x3f2828f0	0.65687466
63	0x3f196db2	0.59933007
64	0x3eb7c99b	0.35896
65	0x3e9d74b2	0.30753094
66	0x3f10b769	0.5652986
67	0x3f1b448a	0.6065146
68	0x3eca7c19	0.39547804
69	0x3f2a6e5e	0.66574657
70	0x3eca7c19	0.39547804
71	0x3f43edf0	0.7653494
72	0x3f18b889	0.5965658
73	0x3e994c85	0.29941192
74	0x3f62c2dd	0.8857859
75	0x3efb1508	0.49039483
76	0x3f139cee	0.5766133
77	0x3ef69f80	0.48168564
78	0x3f15bdba	0.58492625
79	0x3ef69f80	0.48168564
80	0x3f0f1785	0.5589526
81	0x3f34d381	0.7063523
82	0x3f045942	0.51698697
83	0x3ef501c3	0.47852907
84	0x3ef4f662	0.47844225
85	0x3eb765e7	0.35819933
86	0x3ef4f662	0.47844225
87	0x3f21f7f8	0.63268995
88	0x3f231ab8	0.63712645
89	0x3ef76be1	0.48324493
90	0x3f21dc26	0.63226545
91	0x3ef6f673	0.482349
92	0x3f4467ec	0.7672107
93	0x3ef27c2f	0.4736037
94	0x3f4ab2f2	0.791793
95	0x3f0e556f	0.5559911
96	0x3ecfe20e	0.40602154
97	0x3f2a538c	0.6653373
98	0x3f06b15d	0.52614385
99	0x3f1692ff	0.5881805
100	0x3f2bb149	0.6706739
101	0x3ea19cc1	0.31564906
102	0x3f059731	0.52183825
103	0x3f10e169	0.5659395
104	0x3f0577c9	0.521359
105	0x3f1783f5	0.59185725
106	0x3edf95b0	0.4366889
107	0x3f081070	0.5315008
108	0x3f1e0ef7	0.61741585
109	0x3f16beef	0.5888509
110	0x3f3eae0b	0.7448432
111	0x3f490068	0.78516245
112	0x3f1b2b87	0.6061329
113	0x3ebf1ec3	0.37328157
114	0x3f313f6b	0.69237393
115	0x3eac68b5	0.33673635
116	0x3f38ddcb	0.7221343
117	0x3f232101	0.63722235
118	0x3f3d1c71	0.73871523
119	0x3f1add41	0.60493857
120	0x3e941313	0.28920802
121	0x3ea61858	0.32440448
122	0x3e7b5f51	0.24548079
123	0x3dde29a4	0.10847786
124	0x3e7dde13	0.24791746
125	0x3ed393ed	0.41323796
126	0x3eb2274f	0.34795615
127	0x3e5d0333	0.21583252
128	0x3ef1e4a3	0.47244748
129	0x3efee25b	0.4978207
130	0x3f088ee9	0.53343064
131	0x3f0800f5	0.5312646
132	0x3f3ee123	0.7456228
133	0x3f4ab121	0.7917653
134	0x3f131f2a	0.5746943
135	0x3f39a9a7	0.72524494
136	0x3edea5fa	0.43486005
137	0x3f35c948	0.71010256
138	0x3f35c948	0.71010256
139	0x3f1cf315	0.61308414
140	0x3f39b7ed	0.72546273
141	0x3f346025	0.70459205
142	0x3f3fbf51	0.749013
143	0x3ee31463	0.4435149
144	0x3e1c6a63	0.15274958
145	0x3e52cb60	0.20585394
146	0x3e7d9577	0.24764048
147	0x3e52cb60	0.20585394
148	0x3e9f447c	0.31106937
149	0x3f0a8708	0.5411229
150	0x3ed1050e	0.4082417
151	0x3e75a7f4	0.2398985
152	0x3efaeeb1	0.49010232
153	0x3f1a131c	0.6018541
154	0x3f1a131c	0.6018541
155	0x3f01ec46	0.5075115
156	0x3f356343	0.70854586
157	0x3ed08238	0.4072435
158	0x3ebd8df8	0.37022376
159	0x3ebd8df8	0.37022376
160	0x3e9c6b04	0.30550396
161	0x3ee39422	0.44448954
162	0x3eda4341	0.42629436
163	0x3f12043b	0.57037705
164	0x3ef6bb1f	0.48189637
165	0x3f186a11	0.59536844
166	0x3f3b8c38	0.7326083
167	0x3edcbe32	0.43113858
168	0x3f263676	0.6492685
169	0x3f05e5f0	0.5230398
170	0x3f18c356	0.5967306
171	0x3f316d79	0.69307667
172	0x3f29ca7a	0.6632458
173	0x3f19512b	0.5988948
174	0x3f03d16f	0.51491445
175	0x3ed2d184	0.41175473
176	0x3ee9bae8	0.4565041
177	0x3f31baf0	0.6942587
178	0x3f429c7c	0.76020026
179	0x3ec9471a	0.3931206
180	0x3eba0d9c	0.36338508
181	0x3ee0756e	0.43839592
182	0x3f0754c3	0.5286371
183	0x3f1b34a2	0.60627186
184	0x3f58a169	0.8462129
185	0x3f4fae20	0.8112507
186	0x3f23cb4c	0.6398208
187	0x3f43c570	0.7647314
188	0x3ed769b3	0.4207283
189	0x3f233c5d	0.6376398
190	0x3eefbc67	0.46823427
191	0x3ed769b3	0.4207283
192	0x3e9a6115	0.30152193
193	0x3ea34751	0.31890348
194	0x3f5bf2b0	0.85917187
195	0x3e94cdbe	0.2906322
196	0x3f39feea	0.72654593
197	0x3f4a8753	0.7911274
198	0x3f19ee76	0.6012949
199	0x3f2ac618	0.6670852
200	0x3f25f734	0.6483033
201	0x3eb0a477	0.34500477
202	0x3f44c000	0.7685547
203	0x3ef99af7	0.4875104
204	0x3f641883	0.890999
205	0x3f482756	0.7818502
206	0x3f02e2fd	0.51127607
207	0x3f65a35c	0.8970239
208	0x3f30092b	0.6876399
209	0x3f4ca6bc	0.79941916
210	0x3f53547f	0.82550806
211	0x3f31b45d	0.6941584
212	0x3f1a1319	0.6018539
213	0x3f5a73c1	0.85332876
214	0x3f3dfbe9	0.7421251
215	0x3f62bac4	0.8856623
216	0x3f357c97	0.70893234
217	0x3f09c03c	0.5380895
218	0x3efff958	0.49994922
219	0x3f1fa7f2	0.6236564
220	0x3f453ec1	0.7704888
221	0x3f223c09	0.63372856
222	0x3f223c09	0.63372856
223	0x3f184ab2	0.59488976
224	0x3ed35e8b	0.41283068
225	0x3f3034f7	0.6883082
226	0x3f421039	0.75806004
227	0x3f096658	0.5367179
228	0x3f3b6c4d	0.7321213
229	0x3f1955a5	0.5989631
230	0x3ece4490	0.40286684
231	0x3f18904b	0.59595174
232	0x3f4ab2ec	0.79179263
233	0x3efeaed6	0.49742764
234	0x3f4ab2ec	0.79179263
235	0x3f1a4953	0.60268134
236	0x3f46f2b5	0.7771409
237	0x3f35d8fb	0.7103421
238	0x3f4f3b3c	0.8094976
239	0x3f0b6f3c	0.54466605
240	0x3efebe38	0.497545
241	0x3ea6244b	0.32449564
242	0x3f1a88a9	0.60364777
243	0x3ed49165	0.41517177
244	0x3eff6424	0.4988109
245	0x3f1d34b0	0.6140852
246	0x3ed622fd	0.4182357
247	0x3f29c260	0.6631222
248	0x3eff1553	0.49820957
249	0x3f2d71f9	0.67752033
250	0x3ed95475	0.42447248
251	0x3f00e803	0.5035402
252	0x3f0a54b6	0.5403551
253	0x3ec129e8	0.37727284
254	0x3e2a3b15	0.166241
255	0x3eb4df4e	0.35326618
