deeplearning_tasks/models/bci/20150801_Net_noise_0.0_best_trans_model_window_30_step_6_trans_ori.pth (torch, 360805 bytes, 60 tensors)

mlp_in.0.weight f4 [512, 96]
0	0xbd9d208d	-0.07672224
1	0x3dec7149	0.11545045
2	0x3d1e39d7	0.03862938
3	0xbc4dedbe	-0.012568889
4	0x3c3a765d	0.011380759
5	0x3de117ae	0.10990845
6	0x3d907459	0.070534416
7	0x3ca94cda	0.020666528
8	0x3e24afe2	0.16082719
9	0xbc341fbb	-0.010993893
10	0x3dc5aa8b	0.09651669
11	0xbdd7c0f7	-0.10534852
12	0xbcfcf2a9	-0.030877428
13	0xbdde9632	-0.10868491
14	0x3e145a42	0.14487556
15	0xbd1d698d	-0.03843074
16	0xbd3e37d5	-0.046439964
17	0x3c739c9d	0.0148688825
18	0xbd426f9b	-0.047469717
19	0xbd2820c6	-0.04104688
20	0xbcf9cf2b	-0.030494293
21	0x3e5c2715	0.21499284
22	0xbdb99780	-0.090620995
23	0xbc475422	-0.012166055
24	0xbe0beaee	-0.13663837
25	0xbe748c46	-0.23881635
26	0x3ca76971	0.02043602
27	0xbda63ba1	-0.08116842
28	0x3daea425	0.08527402
29	0xbdd94d5e	-0.1061046
30	0xbd8c6081	-0.06854344
31	0xbdd3391c	-0.10313627
32	0xbd75106c	-0.059830114
33	0xbcd02a57	-0.025410814
34	0xbdd25ac4	-0.102712184
35	0x3d71896d	0.05896895
36	0x3c207720	0.009794027
37	0xbd28f71a	-0.04125128
38	0x3dc1ae4d	0.09457073
39	0xbd150062	-0.03637732
40	0x3e108a41	0.1411524
41	0xbc98a743	-0.018634444
42	0x3e3b5035	0.18292315
43	0xbdae2496	-0.08503072
44	0x3ddc46db	0.10755702
45	0xbdc0fbe5	-0.09423045
46	0x3d74496b	0.05964033
47	0xbd18f1ca	-0.037339963
48	0xbe31f240	-0.17377567
49	0x3e79e926	0.24405345
50	0xbc336dd8	-0.010951482
51	0x3d7e4522	0.06207765
52	0x3df5fbb3	0.120108984
53	0x3dd7b74f	0.1053301
54	0xbdcf0ce9	-0.10109884
55	0xbd3cb703	-0.04607297
56	0x3da2c2e6	0.0794733
57	0xbe2b5adc	-0.16733879
58	0x3ca18f70	0.019721717
59	0xbda52b5e	-0.08064912
60	0x3ba26d23	0.0049568578
61	0xbd606c1c	-0.0547906
62	0x3d21c9ba	0.039499022
63	0xbd4f0e36	-0.050550662
64	0x3d35caee	0.044382982
65	0x8f7c0f78	-1.24275384e-29
66	0x907c0ba6	-4.970721e-29
67	0xbde1c880	-0.110245705
68	0x3d77f3b9	0.060535166
69	0x3c96146c	0.018320285
70	0x3d239188	0.03993371
71	0xbd356144	-0.044282213
72	0xbe10a1e0	-0.1412425
73	0xbd665c2a	-0.05624024
74	0xbdab1f27	-0.08355551
75	0x3e427cbb	0.18992893
76	0xbd8822f6	-0.06647293
77	0x3e74ee56	0.23919043
78	0xbd34c656	-0.04413446
79	0x3d390082	0.0451665
80	0x3d52ab1a	0.051432706
81	0xbd4c18a3	-0.049828183
82	0x3e3f99ea	0.18711057
83	0xbd8ede3f	-0.06975984
84	0x3e0191b8	0.12653244
85	0xbd8733f0	-0.06601703
86	0xbd159843	-0.03652216
87	0xbc1a0250	-0.009399965
88	0x3bc0bd03	0.005881907
89	0xbc7cba4f	-0.015425279
90	0x3d546d0a	0.0518618
91	0x3d8a798e	0.06761466
92	0xbd263afb	-0.040583592
93	0xbe11747b	-0.1420459
94	0x3cfd6f66	0.030936908
95	0x0fdc8612	2.1745317e-29
96	0x3d83fac8	0.06444317
97	0x3d191230	0.03737086
98	0xbe549e61	-0.20763542
99	0x3d77e44a	0.060520448
100	0x3c89c41d	0.016817147
101	0x3c9a076b	0.018802365
102	0x38cf9a02	9.8992154e-05
103	0x3e83f1d2	0.25770432
104	0xbe1859f7	-0.14878069
105	0x3c15440d	0.009110463
106	0xbd00e29f	-0.031466123
107	0x3c53b9bd	0.012922701
108	0xbc3ff5cc	-0.011716317
109	0xbcd06646	-0.025439393
110	0x3c90f6c9	0.017695801
111	0xbd24c1b2	-0.040223785
112	0x3c897abd	0.016782159
113	0xbd49c627	-0.04926124
114	0xbdf67ebf	-0.12035894
115	0x3d2c981e	0.042137258
116	0xbe08763f	-0.13326357
117	0xbd83abae	-0.0642923
118	0x3dcb9863	0.09941175
119	0xbd3ec503	-0.046574604
120	0xbd060181	-0.032716278
121	0xbe6a966a	-0.22908941
122	0xbdef349c	-0.11679956
123	0xbe34204c	-0.17590445
124	0xbcb1fd60	-0.021727264
125	0x3d2240fc	0.039612755
126	0x3d19b503	0.03752614
127	0xbd844fbf	-0.06460523
128	0xbdd4e076	-0.10394375
129	0x3b768afc	0.0037619462
130	0x3cf7f514	0.03026823
131	0x3d416ae3	0.047221076
132	0x3ca68af4	0.02032993
133	0x3d1fa714	0.038977697
134	0x3cf96856	0.030445259
135	0xbd3ae318	-0.04562673
136	0x3e3c5289	0.1839086
137	0x3d5d08cc	0.053963467
138	0x3cfc6868	0.030811504
139	0xbdf73e4c	-0.12072429
140	0x3e4e282e	0.20132515
141	0xbe1acb7a	-0.15116683
142	0xbcddb1fe	-0.027062412
143	0x3d6a43f7	0.057193723
144	0xbd954727	-0.07288962
145	0x3e3f74d9	0.18696918
146	0xbcfda159	-0.030960726
147	0xbd992c01	-0.07479096
148	0x3db0ee4a	0.086392
149	0xbcd66476	-0.02617095
150	0x3d47a522	0.048741467
151	0xbdca0294	-0.09863773
152	0x3dd6e167	0.10492211
153	0xbd249b44	-0.040187135
154	0xbd5130de	-0.051071994
155	0x3d422b11	0.047404353
156	0x3d24702e	0.040146045
157	0xbc99c601	-0.018771173
158	0x3d9a601a	0.07537861
159	0xbe55665c	-0.20839828
160	0x3d2e764b	0.04259328
161	0x93d6e910	-5.4251012e-27
162	0x90d8dbb1	-8.5535466e-29
163	0xbc707373	-0.014675963
164	0xbd68cc0c	-0.05683522
165	0x3c315fa5	0.010826026
166	0x3e04a16a	0.129522
167	0xbd152736	-0.036414348
168	0xbe2e3647	-0.17012893
169	0x3cd0110d	0.025398755
170	0x3e0a00b7	0.13476835
171	0x3de2e867	0.110794835
172	0x3d29ce45	0.04145648
173	0x3d76271d	0.060095895
174	0xbc0ccc95	-0.008593698
175	0x3e4392c8	0.19098961
176	0xbd85ec78	-0.065392435
177	0x3e661b3a	0.22471324
178	0x3e16d94b	0.14731328
179	0x3dc2e808	0.09516913
180	0xbd81c3b8	-0.063361585
181	0x3d2b36b7	0.041800227
182	0x3db3bbb3	0.08776035
183	0x3dc1a416	0.09455125
184	0x3ca10106	0.019653808
185	0x3c37f314	0.011227388
186	0xbcec9bd3	-0.028882897
187	0x3b69205c	0.0035572266
188	0x3d043d05	0.032284755
189	0x3c063aed	0.00819276
190	0x3e598014	0.21240264
191	0x939198b3	-3.675372e-27
192	0x3c856d7d	0.01628756
193	0xbc41ee57	-0.01183661
194	0x3b0ebc82	0.002177984
195	0xbb1da624	-0.0024055326
196	0x3c76f942	0.015074076
197	0xbdccdfd4	-0.10003629
198	0x3c08c0d5	0.008346756
199	0xbdd379b6	-0.10325949
200	0x3ddfb260	0.10922694
201	0xbcb20215	-0.021729508
202	0xbd4a6ff4	-0.049423173
203	0xbd11fb8c	-0.035640284
204	0xbc15d036	-0.00914388
205	0x3c9f0159	0.019409822
206	0xbc4414e3	-0.01196787
207	0x3da2a366	0.07941322
208	0xbc8e178f	-0.017345218
209	0x3d84eaa1	0.064900644
210	0xbcc42c7a	-0.02394699
211	0xbcc933ce	-0.024560835
212	0xbd02301b	-0.03178416
213	0x3e0497c6	0.12948522
214	0x3ce526f4	0.027972676
215	0x38b0c36f	8.428736e-05
216	0xbc957598	-0.01824455
217	0x3d0acdaa	0.033887543
218	0xbd32ae32	-0.043623157
219	0x3d7f594f	0.06234103
220	0x3c74f52e	0.0149510335
221	0xbbf31eb4	-0.0074194316
222	0x3ca2775d	0.019832307
223	0x3e002955	0.12515767
224	0xbd73460a	-0.059392966
225	0x3df926f7	0.12165635
226	0xbc63f4ea	-0.0139133725
227	0x3bb0bba0	0.0053934604
228	0xbb50cecf	-0.0031861549
229	0xbcb47243	-0.02202714
230	0x3d420c6d	0.04737513
231	0x3d2303d3	0.03979857
232	0x3d5e5aca	0.054285802
233	0xbdf2e1fe	-0.11859511
234	0xbd8505ae	-0.06495224
235	0xbd82610b	-0.06366166
236	0xbd948b13	-0.07253089
237	0x3db2536b	0.08707317
238	0xbc468d67	-0.012118674
239	0x3cea5fcd	0.028610134
240	0x3c009977	0.007849089
241	0xbd6e2b6b	-0.058146875
242	0x3b9666a4	0.0045898724
243	0xbd5e1169	-0.054215822
244	0xbce5d1a9	-0.028054075
245	0xbdb0c65d	-0.08631585
246	0xbb34bd46	-0.0027578636
247	0x3d06c264	0.03290023
248	0xbc63b854	-0.013898928
249	0xbe24f41f	-0.1610875
250	0x3d867c2d	0.065666534
251	0xbd0e3dd5	-0.034726936
252	0x3bfed928	0.007777352
253	0xbd266169	-0.04062024
254	0x3d48411d	0.048890222
255	0xbd80da0c	-0.06291589

mlp_in.0.bias f4 [512]
0	0x3ded0eba	0.115750745
1	0x3dbf2014	0.0933229
2	0x3e389366	0.18024978
3	0x3e0a2587	0.13490878
4	0x3db3629f	0.08759045
5	0x3e76b0f2	0.24090937
6	0xbe347a9f	-0.17624901
7	0x3dc1a667	0.09455567
8	0xbd9314d2	-0.071817055
9	0xbe2726a5	-0.16323335
10	0xbb9982ea	-0.0046847956
11	0xbde51c03	-0.111869834
12	0x3e01ed2e	0.12688133
13	0x3dfb67d8	0.12275666
14	0xbd46e2fd	-0.048556317
15	0xbd8a5d40	-0.06756067
16	0xbc5227cf	-0.012826874
17	0x3e09258b	0.13393228
18	0xbe106b39	-0.14103402
19	0xbe61e00f	-0.22058128
20	0x3d8ec9c9	0.06972081
21	0xbd6ddc68	-0.058071524
22	0xbd964d49	-0.0733896
23	0xbe1cac5d	-0.15300126
24	0x3e174147	0.14770995
25	0x3d832af6	0.064046785
26	0xbd998723	-0.074964784
27	0x3da3082f	0.07960545
28	0xbe909448	-0.2823813
29	0x3df2baf4	0.11852065
30	0xbe027818	-0.12741125
31	0xbc543049	-0.012950965
32	0xbd24e28a	-0.040255107
33	0xbdddda6f	-0.108326785
34	0xbe22fc0f	-0.15916465
35	0x3d636bf6	0.05552288
36	0x3de327b4	0.11091557
37	0xbe5fcac1	-0.21854688
38	0x3c204d21	0.009784014
39	0xbd8f34e9	-0.06992514
40	0x3e712e5d	0.23552842
41	0xbe1599c8	-0.14609444
42	0x3d1379d6	0.036004864
43	0x3dc2b849	0.09507806
44	0x3e1da19b	0.15393679
45	0xbd0504df	-0.03247535
46	0x3e3edef1	0.18639733
47	0x3d5b8913	0.05359752
48	0x3db63d24	0.088983804
49	0xbe2adbeb	-0.16685455
50	0xbc818d9d	-0.015814597
51	0xbe8673d4	-0.26260245
52	0x3d7bbdce	0.06146031
53	0xbdc363df	-0.09540533
54	0xbe116d5e	-0.14201877
55	0x3db4fdf1	0.08837498
56	0x3d7894c8	0.060688764
57	0xbd2074b3	-0.039173793
58	0xbe12fedb	-0.14355032
59	0x3da60f86	0.081084296
60	0x3da335e9	0.07969267
61	0xbd2dc2b2	-0.042422004
62	0xbca0b5bb	-0.019617906
63	0x3dc29f13	0.09502997
64	0xbe0ebc7e	-0.13939092
65	0xbd96e58a	-0.07368
66	0xbddf9743	-0.10917523
67	0xbdf6c3df	-0.12049078
68	0xbe800dd6	-0.25010556
69	0x3e197aff	0.14988326
70	0xbe29166d	-0.16512461
71	0xbe203d35	-0.15648349
72	0xbc495345	-0.012287919
73	0x3e4a4a49	0.197549
74	0x3dc9dc41	0.09856463
75	0xbbf67cf2	-0.007522219
76	0x3e42075b	0.18948118
77	0xbe047933	-0.12936859
78	0xbc656e89	-0.014003404
79	0x3d6d9afd	0.058009136
80	0x3c25723c	0.010098036
81	0x3e0b72e6	0.13618049
82	0x3d14930b	0.036273044
83	0x3e5f5090	0.21808076
84	0xbd5b24ad	-0.053501774
85	0x3bcb3cd9	0.006202322
86	0x3e66fa86	0.22556505
87	0x3e01b86d	0.12668009
88	0xbdc66eec	-0.096891254
89	0x3e2be860	0.16787863
90	0xbe2c26cc	-0.16811675
91	0xbe02b5aa	-0.12764612
92	0x3e47068a	0.19436088
93	0xbde7f5e6	-0.11326198
94	0x3ce2b854	0.027675785
95	0xba04ea6a	-0.0005070331
96	0x3dd4cb2a	0.10390313
97	0xbe48f6f0	-0.19625449
98	0xbd8f9e91	-0.07012666
99	0x3da8046c	0.082039684
100	0xbd8b56d5	-0.06803671
101	0x3b7b44da	0.00383406
102	0x3e2c0251	0.16797759
103	0xbd31bd29	-0.043393288
104	0xbbecd77d	-0.0072278366
105	0x3d6b0756	0.057380043
106	0xbe072798	-0.13198698
107	0xbcd53ce7	-0.026030017
108	0xbd022988	-0.03177789
109	0x3dc511c7	0.096225314
110	0x3d8686ee	0.065687045
111	0xbd81c291	-0.06335939
112	0x3e375350	0.17902875
113	0xbe29e831	-0.1659248
114	0x3d4fb60d	0.050710727
115	0x3ceb62fc	0.028733723
116	0xbd72e01e	-0.059295766
117	0x3db7ae54	0.08968797
118	0xbd8ae728	-0.06782371
119	0xbe0673b3	-0.13130073
120	0x3d9bdcb8	0.07610458
121	0xbc8d6107	-0.01725818
122	0xbe1bb055	-0.15203984
123	0xbe131342	-0.14362815
124	0x3c84e965	0.016224572
125	0xbe23e92c	-0.16006917
126	0x3cec36bb	0.028834691
127	0xbc851929	-0.016247349
128	0xbd48f13f	-0.049058195
129	0xbdd5699e	-0.104205355
130	0xbd338634	-0.043829158
131	0xbc80e100	-0.015732288
132	0xbce0729f	-0.027398406
133	0x3dc2abee	0.09505449
134	0x3d5a02c5	0.053225297
135	0xbdaab681	-0.08335591
136	0xbe5924c0	-0.21205425
137	0x3e5e5fd5	0.21716245
138	0xbccab211	-0.024743112
139	0x3e686daa	0.22698084
140	0x3d6b2c66	0.05741539
141	0x3dbac4b5	0.0911955
142	0xbbaf97fd	-0.0053586946
143	0xbddd6755	-0.10810725
144	0x3e18f709	0.14937986
145	0xbe5539e1	-0.2082286
146	0xbe1a43f8	-0.1506499
147	0xbe03e8d5	-0.12881787
148	0x3e17d8dd	0.1482882
149	0x3e04e546	0.12978086
150	0x3d26bdd2	0.04070837
151	0x3e4124ea	0.18861738
152	0x3e507734	0.20357972
153	0x3df70916	0.1206228
154	0xbb091137	-0.0020914802
155	0x3e0b91fd	0.13629909
156	0xbe1a885a	-0.15091076
157	0xbe526fff	-0.20550536
158	0x3da68a5b	0.08131858
159	0xbdc2e54d	-0.09516392
160	0x3e74f249	0.2392055
161	0x3c90afab	0.01766189
162	0xbcb64823	-0.022251194
163	0x3e3c6b99	0.1840042
164	0x3e445c87	0.19175921
165	0x3c4e239c	0.012581732
166	0x3dbcdd26	0.09221868
167	0xbcf7daec	-0.030255757
168	0x3c1aadde	0.009440867
169	0x3cda2279	0.026627766
170	0xbdc090bc	-0.09402606
171	0x3d8f6c1d	0.07003043
172	0x3df1651d	0.11786864
173	0x3e16abac	0.14713925
174	0xbc6865d9	-0.014184439
175	0x3d170f18	0.03687963
176	0x3d51f037	0.051254477
177	0xbd37d3e7	-0.04487982
178	0xbe50835a	-0.20362607
179	0xbe2f2213	-0.17102842
180	0x3d0bd58e	0.03413921
181	0x3da124dd	0.07868359
182	0xbd213b4e	-0.039363198
183	0xbd105ee3	-0.03524674
184	0xbdb4c3d5	-0.088264145
185	0x3dccf5a0	0.10007787
186	0x3e03a1dd	0.12854715
187	0x3deb5ea5	0.114926614
188	0xbe0585ab	-0.13039272
189	0xbd945979	-0.07243628
190	0x3e581f06	0.21105585
191	0x3c76e2a7	0.015068687
192	0x3d3659ed	0.044519354
193	0x3e57ac12	0.21061733
194	0x3d84dc50	0.06487334
195	0x3d1366c8	0.03598669
196	0xbdce0076	-0.10058682
197	0xbd1ad53b	-0.03780101
198	0xbd62f409	-0.05540851
199	0x3de5df56	0.112242386
200	0x3dbab4cb	0.09116515
201	0x3e1d9222	0.15387776
202	0xbb965c8a	-0.0045886682
203	0xbaa5e454	-0.0012656548
204	0x3e6868dc	0.2269625
205	0xbda7df85	-0.0819693
206	0xbdda38f7	-0.106553964
207	0x3d6f31ba	0.058397032
208	0x3c3a3e82	0.011367442
209	0xbb593c75	-0.0033147607
210	0xbdb87212	-0.09006132
211	0xbe867c46	-0.26266688
212	0x3dfcdf3b	0.12347265
213	0x3dad937e	0.084753975
214	0x3e30357f	0.17207907
215	0x3e607e1e	0.2192311
216	0x3dc2c136	0.09509508
217	0xbe249186	-0.16071138
218	0x3e205a7a	0.15659514
219	0x3d368b3e	0.044566385
220	0xbd1a0552	-0.03760273
221	0x3df94f04	0.12173274
222	0xbd21bd39	-0.039487097
223	0x3cc298c4	0.023754485
224	0x3e20b8ba	0.15695468
225	0x3b1edb76	0.0024239696
226	0xbdc26614	-0.09492126
227	0x3e1fb94b	0.15598027
228	0x3e83808d	0.25684014
229	0x3e188bf1	0.14897133
230	0xbd881670	-0.066449046
231	0x3e13ff22	0.14452794
232	0x3d59014c	0.052979752
233	0xbe22c82a	-0.15896669
234	0xbdc8de22	-0.098079935
235	0x3bb9c729	0.0056694937
236	0x3d7d42ae	0.06183117
237	0x3cfe38bd	0.031032914
238	0x3decfa28	0.11571151
239	0xbe894297	-0.26808617
240	0x3e3ed187	0.18634616
241	0x3d487240	0.048937082
242	0x3dc0e13b	0.09417959
243	0x3e62cb53	0.22147875
244	0x3e34adb6	0.1764439
245	0x3b9488a7	0.004532892
246	0x3d8a40d4	0.06750646
247	0xbd9126e6	-0.070874974
248	0x3dce32dc	0.100682944
249	0xbc318487	-0.01083482
250	0x3c8dd8e8	0.017315343
251	0x3dae2ea3	0.08504989
252	0x3c65a6fc	0.014016863
253	0xbd5b8669	-0.05359498
254	0xbdcf338a	-0.10117252
255	0xbd0b0bdb	-0.033946853

mlp_in.1.weight f4 [16, 512]
0	0xbb1daf41	-0.0024060758
1	0xbe40f26d	-0.18842478
2	0xbcb37959	-0.021908449
3	0xbe130d7d	-0.14360614
4	0x3b904637	0.0044029015
5	0xbdd3dc32	-0.10344733
6	0x3c67d15d	0.014149037
7	0x3d626b8b	0.055278342
8	0xbdbc73e7	-0.09201794
9	0x3d6edae8	0.058314234
10	0xbc569cf9	-0.013098949
11	0xbd0cfd2d	-0.034421135
12	0x3d8463c1	0.06464339
13	0xbd5592da	-0.052142
14	0x3db469ab	0.08809217
15	0xbd3a72f4	-0.045519784
16	0x3daccdfd	0.08437727
17	0xbda8cb8c	-0.082419485
18	0x3d1eb3e2	0.03874577
19	0x3d858eff	0.06521415
20	0xbd7208cd	-0.059090424
21	0x3d2fd00d	0.042923022
22	0x3ca5ffca	0.020263571
23	0x3c0d6d67	0.008632041
24	0xbcd6e475	-0.026231984
25	0xbbe420ac	-0.0069619026
26	0x3d873d0f	0.06603443
27	0xbde22e05	-0.11043934
28	0x3e5d212b	0.21594684
29	0xbe2ef096	-0.17083964
30	0x3dd3fdf1	0.1035117
31	0xbd80894e	-0.06276189
32	0xbd164f30	-0.036696613
33	0xbb86b3ad	-0.0041107745
34	0x3e1424e7	0.14467202
35	0xbd0091cf	-0.031389054
36	0xbd8d0960	-0.06886554
37	0x3e289877	0.1646441
38	0xbbca5f00	-0.0061758757
39	0xbe0cdb99	-0.13755645
40	0xbce8c69f	-0.028415022
41	0x3c80f7ae	0.015743103
42	0x3cd607f1	0.026126834
43	0xbcb48cc4	-0.022039779
44	0xbd928ac8	-0.07155377
45	0x3ccdbb74	0.025113799
46	0xbd781308	-0.060565025
47	0xbd183636	-0.037161075
48	0xbdcea7a6	-0.1009057
49	0x3e160511	0.1465037
50	0x3dc87110	0.0978719
51	0x3e0068c3	0.12539963
52	0x3c885a54	0.016644634
53	0xbc29e3b3	-0.010369229
54	0x3ce0aef4	0.027427174
55	0xbc4c2e06	-0.012462145
56	0xbe16f167	-0.14740525
57	0x3d490516	0.049077116
58	0x3d919b77	0.07109731
59	0xbd945e04	-0.072444946
60	0xbe13b318	-0.14423788
61	0x3d4f5468	0.050617605
62	0xbd0b8aec	-0.034068033
63	0xbd57c74a	-0.05268029
64	0xbdd88de0	-0.105739355
65	0xbd5db5b6	-0.05412837
66	0x3da46ad1	0.08028186
67	0x3bb18aa0	0.0054181367
68	0x3e4d18c7	0.20028983
69	0x3dad5e99	0.08465309
70	0x3ae0ed2b	0.0017160525
71	0xbe0ed4ac	-0.13948315
72	0x3c9b32b5	0.018945077
73	0xbc70c2ea	-0.014694909
74	0x3d989566	0.074503705
75	0xbcc00237	-0.023438556
76	0xbdb5392c	-0.08848795
77	0x3e38ccf3	0.18046932
78	0x3dabce36	0.08388941
79	0xbca4c5be	-0.020113822
80	0xbcda9c07	-0.026685728
81	0xbd3a6e24	-0.045515195
82	0x3cfd6716	0.030932944
83	0xbdba52be	-0.09097813
84	0xbc69c904	-0.014269117
85	0x3e22c3e8	0.15895045
86	0xbe335318	-0.17512167
87	0xbd4bc804	-0.049751297
88	0x3e01d496	0.12678751
89	0xbdedbccf	-0.11608278
90	0x3d9dad72	0.07699098
91	0xbcac0583	-0.020998722
92	0xbd7c6b3d	-0.061625708
93	0xbccbb80a	-0.02486803
94	0x3d40ad3a	0.0470402
95	0xbc13515d	-0.0089915665
96	0xbdae593e	-0.08513115
97	0x3d7c3171	0.06157059
98	0xbe082d16	-0.13298449
99	0xbdc586b2	-0.09644832
100	0x3d85729d	0.065160014
101	0xbe253852	-0.16134766
102	0xbcfa78ee	-0.030575242
103	0x3ac455a9	0.0014979142
104	0x3d2ad61b	0.041708093
105	0xbb2d07ca	-0.0026402348
106	0x3c9414f0	0.01807639
107	0x3d92c879	0.071671434
108	0xbc051ddb	-0.008124794
109	0xbe3dba59	-0.18528117
110	0xbcb1928a	-0.02167632
111	0x3e0bbfdd	0.13647409
112	0x3c06523a	0.008198315
113	0xbc494023	-0.012283358
114	0x3c36c194	0.011154551
115	0xbcc44e43	-0.0239631
116	0x3db45d4f	0.0880686
117	0x3c3902f6	0.01129221
118	0x3d869a09	0.065723486
119	0x3d1120a8	0.035431534
120	0xbd8c36de	-0.068464026
121	0x3d9347fc	0.07191464
122	0x3d9894ac	0.07450232
123	0xbc7ad322	-0.015309127
124	0x3d504ac8	0.050852567
125	0x3b6a02b6	0.0035707182
126	0xbc32753c	-0.010892209
127	0x3cc1de59	0.023665594
128	0xbe068a85	-0.13138779
129	0xbd2f4fb0	-0.042800605
130	0x3c90fe89	0.017699497
131	0xbdf34ed5	-0.118802704
132	0x3de523f8	0.11188501
133	0xbe0f4668	-0.13991702
134	0xbd5fa38a	-0.054599322
135	0xbcf2f93f	-0.029659865
136	0x3cfda33d	0.030961627
137	0xbd2d4478	-0.042301625
138	0x3c5a8f99	0.0133399
139	0xbd814374	-0.06311694
140	0x3d05530e	0.03254991
141	0xbdc6273a	-0.096754506
142	0xbd525453	-0.05134995
143	0x3d4532ba	0.04814408
144	0xbd292660	-0.041296363
145	0x3da16796	0.078810856
146	0xbdec53b4	-0.115394026
147	0xbda533dc	-0.08066532
148	0xbdd9e253	-0.10638871
149	0xbd1b5c3f	-0.03792977
150	0x3da7f4cc	0.08200988
151	0x3c193ba3	0.009352597
152	0xbd9c27bf	-0.076247685
153	0xbd9ccc94	-0.07656208
154	0xbd640f34	-0.05567856
155	0xbd0cac29	-0.034343872
156	0x3c3eb896	0.011640688
157	0xbd853e2c	-0.06505999
158	0xbdbb62ed	-0.09149728
159	0x3dca94e0	0.09891677
160	0xbd95d8c3	-0.07316735
161	0xbc98e85c	-0.018665485
162	0x3d9b75a2	0.07590796
163	0xbda4e6ca	-0.08051832
164	0x3cbbed80	0.022940397
165	0x3ca58f54	0.020209946
166	0xbdfc6baa	-0.12325223
167	0x3d3242fe	0.04352092
168	0xbd4448fe	-0.047921173
169	0xbe31e477	-0.17372309
170	0x3dbb3cc6	0.09142451
171	0x3dc86f16	0.09786813
172	0xbb464993	-0.0030256256
173	0xbc3bb387	-0.011456377
174	0xbcde7b36	-0.02715836
175	0xbd786060	-0.060638785
176	0x3ddec77b	0.10877892
177	0xbd96e840	-0.07368517
178	0x3e0e4a5e	0.13895556
179	0x3e1164d7	0.14198624
180	0xbcba85a0	-0.022768795
181	0xbd75c2d7	-0.060000267
182	0xbc0dd9d8	-0.008657895
183	0xbde1975b	-0.11015197
184	0x3e051693	0.12996893
185	0xbcf8037f	-0.030275105
186	0xbdcf2ab4	-0.10115567
187	0xbc9ed1f3	-0.019387221
188	0x3e33bfc5	0.17553623
189	0x3c609cf1	0.013709293
190	0xbdd898e2	-0.10576035
191	0xbc34246d	-0.010995013
192	0x3dd00b34	0.10158387
193	0xbe00ce31	-0.12578656
194	0xbcc73050	-0.02431503
195	0xbdc485ff	-0.0959587
196	0xbcaef764	-0.0213582
197	0xbc51254f	-0.012765243
198	0xbc1291b0	-0.008945867
199	0xbd0a83f7	-0.033817258
200	0xbcc916a6	-0.024546932
201	0xbd53ea57	-0.051737156
202	0x3b8871cf	0.0041639577
203	0xbd1faf12	-0.03898532
204	0xbdd776c5	-0.105207
205	0xbd53e1cf	-0.05172902
206	0xbc8813ab	-0.01661094
207	0x3c54d1b0	0.0129894465
208	0xbd138f36	-0.03602525
209	0x3d860ead	0.06545768
210	0x3e06626f	0.13123487
211	0x3e11f7e7	0.14254723
212	0x3d2339b0	0.039849937
213	0x3d221a86	0.039576076
214	0x3d80c18a	0.06286915
215	0xbdae2891	-0.08503831
216	0xbdf9e448	-0.12201744
217	0x3de23aaa	0.110463455
218	0x3cf17a4e	0.029477265
219	0xbd27373c	-0.04082416
220	0x3dd8db3d	0.105886914
221	0x3d7f783c	0.062370524
222	0x3d5891c6	0.052873395
223	0x3b063517	0.0020478421
224	0xbe451806	-0.19247445
225	0x3bff5702	0.0077923546
226	0x3dcf21d0	0.10113871
227	0xbdcbe4f9	-0.099557824
228	0xbd982efa	-0.07430835
229	0x3cb095b7	0.021555765
230	0x3da1ea0f	0.07905971
231	0xbd474171	-0.048646394
232	0xbbd0ed21	-0.006375924
233	0x3e0a8015	0.13525422
234	0xbce42599	-0.02784996
235	0x3ddacabc	0.106832
236	0xbccf371b	-0.025294831
237	0x3d0a78da	0.03380666
238	0xbca4c442	-0.020113114
239	0x3de7b3b5	0.11313573
240	0xbd735c9e	-0.0594145
241	0xbe37b931	-0.17941739
242	0xbde4be0b	-0.1116906
243	0xbd99cc03	-0.07509615
244	0xbd82cedf	-0.06387114
245	0x3c4b2ee6	0.012401318
246	0x3d0d6bb9	0.03452656
247	0xbcde0321	-0.027101101
248	0x3d6a61ba	0.057222106
249	0x3cac4e6a	0.021033484
250	0x3d6df2ed	0.058093
251	0xbde41551	-0.11136878
252	0xbdc34021	-0.09533716
253	0xbd604f6d	-0.054763246
254	0x3d8686eb	0.06568702
255	0xbbdff6a1	-0.0068348204

mlp_in.1.bias f4 [16]
0	0xbe1888cb	-0.14895932
1	0xbd8e4afe	-0.069478974
2	0xbd9860b1	-0.074403174
3	0x3d9e182f	0.077194564
4	0x3d8c58a8	0.06852847
5	0xbe11594d	-0.14194222
6	0xbd0f21b2	-0.034944244
7	0x3da03d89	0.07824237
8	0xbd3a337d	-0.04545926
9	0x3e331bcd	0.17491074
10	0x3a6c2833	0.00090086757
11	0x3d03247e	0.032017224
12	0xbe036d8a	-0.12834755
13	0x3deeaec4	0.11654428
14	0x3c67d8bd	0.0141507955
15	0x3de67541	0.11252833

model.project_0.weight f4 [256, 16]
0	0x373e8f74	1.1358283e-05
1	0xbe08f9fe	-0.13376614
2	0x3e8e36a2	0.27776057
3	0xbe364bdc	-0.17802376
4	0xbde7ca66	-0.11317901
5	0xbd891b0b	-0.06694611
6	0x3e59111d	0.21197934
7	0xbe37d5d2	-0.1795266
8	0xbddf3b59	-0.108999915
9	0xbb66d0f1	-0.0035219754
10	0x3dddcd4a	0.108301714
11	0xbdd59bcc	-0.104301065
12	0x3d8d48ce	0.06898652
13	0x3c6883c8	0.014191575
14	0x3e3b0b43	0.18266015
15	0x3e646ed3	0.22307901
16	0xbdccb7ed	-0.099960186
17	0xbe759ccb	-0.23985593
18	0xbdb28247	-0.08716255
19	0xbc92e735	-0.017932514
20	0x3cd0d2d7	0.025491161
21	0x3e24e2f3	0.161022
22	0x3e8e788a	0.2782634
23	0x3dd66a71	0.10469521
24	0x3cad783a	0.021175493
25	0xbc06de06	-0.008231645
26	0xbce8656c	-0.028368674
27	0x3e05506f	0.13018964
28	0x3ceca432	0.028886888
29	0x3e3c5d9d	0.18395086
30	0x3e44d43b	0.19221584
31	0x3dd98912	0.10621847
32	0x3d1b1e0f	0.037870463
33	0xbd86a9f8	-0.06575388
34	0x3daad76c	0.0834187
35	0xbe6611d3	-0.22467737
36	0x3dd5db5d	0.10442231
37	0xbe0650c9	-0.13116755
38	0x3e5585d1	0.20851828
39	0xbe7e4c43	-0.24833779
40	0xbdf54bca	-0.11977346
41	0x3bdb33fc	0.0066895466
42	0xbd86de59	-0.06585378
43	0xbd32aeac	-0.04362361
44	0x3dbf43fe	0.0933914
45	0xbda4f1b0	-0.08053911
46	0xbd36d152	-0.044633217
47	0xbd830b36	-0.06398623
48	0xbd2dd344	-0.042437807
49	0x3dea2209	0.11432273
50	0xbde797a9	-0.11308224
51	0x3e1d8292	0.1538184
52	0xbdaa2e5b	-0.08309623
53	0xbe159119	-0.14606132
54	0xbc9f6c1f	-0.019460736
55	0xbe48b789	-0.19601263
56	0x3e270a62	0.16312554
57	0xbe243e88	-0.16039479
58	0xbc3f0b03	-0.01166034
59	0x3e6cdd8d	0.2313139
60	0x3e3d169b	0.18465655
61	0x3e72938e	0.236891
62	0x3e68178a	0.2266523
63	0xbdfc9399	-0.123328395
64	0x3e1dcffd	0.15411372
65	0x3ccfea17	0.025380177
66	0xbe18e6e4	-0.14931828
67	0xbd9600b8	-0.07324356
68	0xbbc75ce9	-0.006084074
69	0x3e5c86ce	0.21535799
70	0xbdd4b8d3	-0.10386815
71	0xbd2a2f2c	-0.041548893
72	0xbc8c8c5b	-0.01715677
73	0xbe1092e9	-0.14118542
74	0xb65718bf	-3.20519e-06
75	0xbdef3f53	-0.11682
76	0xbd958e92	-0.07302584
77	0x3c1153df	0.008870094
78	0x3d6c742d	0.05772798
79	0xbd291212	-0.041277
80	0x3d853018	0.06503314
81	0x3d73030e	0.059329085
82	0x3d8ad9dc	0.06779835
83	0xbd268850	-0.04065734
84	0x3ea41442	0.32046705
85	0xbe380cff	-0.17973708
86	0x3e344aaa	0.17606607
87	0x3e353a5d	0.17698045
88	0xbded7655	-0.11594836
89	0xbe31fbf7	-0.17381273
90	0x3e058ea8	0.130427
91	0xbe4cc4e3	-0.19996981
92	0xbe86315c	-0.26209533
93	0x3d98d585	0.074626006
94	0x3e448a90	0.19193482
95	0xbe501d63	-0.2032371
96	0x3e16a9ba	0.14713183
97	0xbdb42359	-0.087958045
98	0xbd15ccd3	-0.03657229
99	0xbdba4d75	-0.09096805
100	0x3e1352fa	0.14387122
101	0xbe447c35	-0.19188006
102	0x3e3f476a	0.18679586
103	0xbcab67f8	-0.0209236
104	0xbe98de78	-0.2985723
105	0xbe2dd4ef	-0.16975759
106	0xbcfdfa52	-0.031003151
107	0x3e3f4804	0.18679816
108	0xbd97c8a4	-0.07411316
109	0x3e885aeb	0.26631865
110	0x3dbf8e7c	0.093533486
111	0xbe9b3d1e	-0.30320066
112	0xbe80b88d	-0.251408
113	0xbe1ea5f1	-0.15492989
114	0x3d9d42ac	0.07678732
115	0x3d65f7cd	0.056144524
116	0x3dac2635	0.08405725
117	0x3e309fdf	0.17248486
118	0xbe0939e8	-0.13400996
119	0xbe64b082	-0.22332957
120	0xbe355526	-0.17708263
121	0x3e210d3d	0.15727706
122	0x3e5066f6	0.20351776
123	0xbd6aafbd	-0.057296503
124	0x3e825737	0.25457165
125	0x3ddc0920	0.10743928
126	0xbce97276	-0.028496962
127	0x3e6c9367	0.23103105
128	0x3df458dc	0.11931011
129	0xbe078a47	-0.13236342
130	0x3e689195	0.22711785
131	0x3bd66023	0.006542222
132	0xbe80cc1c	-0.25155723
133	0x3e3ac31a	0.18238488
134	0x3e97946f	0.29605433
135	0x3ddd1664	0.10795286
136	0x3e23385c	0.15939468
137	0xbe4bee6b	-0.19915168
138	0x3dd0b975	0.10191623
139	0x3cce2f4a	0.025169034
140	0xbe083157	-0.13300072
141	0xbec467ce	-0.38360447
142	0xbdc220d2	-0.09478916
143	0x3e955fc4	0.29174626
144	0xbe81b52c	-0.25333536
145	0x3dd19b41	0.102346905
146	0xbb334fc9	-0.0027360788
147	0xbea78a26	-0.32722586
148	0x3e0c3549	0.13692202
149	0xbe20ae37	-0.15691458
150	0x3dd46a84	0.10371879
151	0x3db8b98d	0.09019766
152	0x3e477728	0.19479048
153	0xbe4d1aa9	-0.20029701
154	0x3dc46c76	0.09591
155	0xbe28c23c	-0.16480345
156	0x3de02989	0.10945422
157	0xbe023adc	-0.12717766
158	0x3e850a47	0.25984403
159	0xbe5384e8	-0.20656168
160	0xbd4fc858	-0.050728172
161	0x3e208bdb	0.1567835
162	0xbd19e5c5	-0.03757264
163	0xbe802cc0	-0.25034142
164	0xbe1964cb	-0.14979856
165	0x3e1d15e4	0.15340382
166	0xbe1d3c83	-0.15355115
167	0xbd83ebd6	-0.064414665
168	0xbdadeaac	-0.08492026
169	0x3e4b0802	0.19827273
170	0x3c687d4f	0.014190032
171	0xbeb85e93	-0.36009654
172	0x3da1fb23	0.07909229
173	0xbdb28113	-0.08716025
174	0xbdd5aae8	-0.104329884
175	0x3e54452b	0.2072951
176	0x3e9054cf	0.28189704
177	0xbe413d42	-0.18871024
178	0x3e08587b	0.13315003
179	0x3e583882	0.21115306
180	0xbddb074a	-0.1069475
181	0x3da5a16d	0.0808743
182	0x3e4981d6	0.19678435
183	0xbdc9bb53	-0.098501824
184	0xbda314f5	-0.079629816
185	0xbe6ad458	-0.22932565
186	0xbe63a070	-0.22229171
187	0xbe3be777	-0.18350016
188	0xbe2613f7	-0.16218553
189	0xbdd2858b	-0.102793775
190	0xbdd63ec3	-0.104611896
191	0x3d787d18	0.060666174
192	0xbdd8b642	-0.10581638
193	0xbe3b1709	-0.18270506
194	0xbe0fe02d	-0.1405036
195	0xbd2fa7b3	-0.04288454
196	0x3e0a6a20	0.13517046
197	0xbe5e9950	-0.21738172
198	0x3e5ecba1	0.21757366
199	0xbd9a1f09	-0.07525451
200	0xbe979b73	-0.29610786
201	0xbccc74e2	-0.024958078
202	0xbe5d1410	-0.21589684
203	0xbc859f55	-0.016311327
204	0xbe12e0a9	-0.14343514
205	0xbde07836	-0.109604284
206	0x3dd657f8	0.104659975
207	0x3d8fddcd	0.07024727
208	0xbd1d39c9	-0.038385186
209	0x3dcd3bc8	0.10021168
210	0xbe1d027b	-0.15332977
211	0x3d1f8b04	0.038950935
212	0x3bfdcba9	0.0077452254
213	0x3e9437f1	0.2894893
214	0x3d33bbe3	0.043880355
215	0xbe55cd68	-0.20879138
216	0x3e14763f	0.14498232
217	0x3d952d00	0.07283974
218	0xbdd816ee	-0.105512485
219	0xbd96d242	-0.07364322
220	0x3ccaab37	0.024739845
221	0x3c2238dd	0.009901253
222	0xbe528f56	-0.20562491
223	0x3cc38c65	0.023870656
224	0xbe20da8a	-0.15708366
225	0xbe031680	-0.12801552
226	0xbd33f1ae	-0.043931656
227	0xbcf35e08	-0.029707924
228	0xbe4e4c17	-0.20146213
229	0x3e60aa2f	0.2193992
230	0x3e852203	0.2600251
231	0x3de784b2	0.113046065
232	0xbe02ce61	-0.1277404
233	0xbe3e3483	-0.18574719
234	0xbdcc2455	-0.09967867
235	0xbe22fb81	-0.15916254
236	0x3d82c772	0.063856974
237	0xbd22f466	-0.039783858
238	0x3e0d0458	0.13771188
239	0x3e044454	0.1291669
240	0x3e0c4963	0.1369987
241	0xbd4af497	-0.049549665
242	0xbda0400f	-0.07824718
243	0x3e491b20	0.19639254
244	0xbe33349b	-0.17500536
245	0xbe325ba7	-0.17417775
246	0x3e7827bb	0.24233906
247	0x3d02f78b	0.031974357
248	0x3cf300bb	0.029663434
249	0x3e4ad77d	0.19808765
250	0xbd8ed73f	-0.06974649
251	0xbce4ed7d	-0.027945274
252	0x3e4689a1	0.19388439
253	0xbe162ebf	-0.1466627
254	0x3da10d31	0.07863844
255	0x3e38b4e9	0.18037762

model.project_0.bias f4 [256]
0	0xb975ea64	-0.00023452338
1	0x3e15e143	0.14636712
2	0xbe3ef58e	-0.18648359
3	0xbddca376	-0.10773365
4	0xbe4e871c	-0.20168728
5	0xbe265929	-0.1624495
6	0x3d18973c	0.037253603
7	0xbe8c30fa	-0.27381116
8	0xbe5c03d5	-0.21485837
9	0xbcd5bba8	-0.026090458
10	0xbe8e74d4	-0.27823508
11	0xbe2c4d47	-0.16826354
12	0x3dfca0b8	0.12335342
13	0xbe0ac5e3	-0.1355205
14	0xbddee0a9	-0.10882694
15	0xbe69f08d	-0.22845669
16	0xbc62deca	-0.013847062
17	0xbd41b41c	-0.047290906
18	0x3dfa144a	0.12210901
19	0xbe4d7c8a	-0.20067039
20	0x3e0a1d3b	0.13487713
21	0x3d30e82d	0.04319017
22	0x3d0a123c	0.033708796
23	0xbe655ae6	-0.22397956
24	0xbe651245	-0.2237025
25	0xbe8439d8	-0.2582538
26	0x3cc537f8	0.02407454
27	0xbe3dad77	-0.18523203
28	0x3d7a4f8f	0.06111103
29	0xbd278cad	-0.040905643
30	0x3dd5752b	0.10422739
31	0xbe7240d9	-0.2365755
32	0xbe09a83d	-0.13443084
33	0xbd23e82a	-0.04001633
34	0xbe7b1ca3	-0.24522643
35	0x3c3828c0	0.011240184
36	0x3d211d92	0.03933484
37	0xbe5a02d3	-0.2129014
38	0xbd250750	-0.040290177
39	0x3bd42fe4	0.0064754356
40	0xbe81a980	-0.2532463
41	0xbe135f1c	-0.1439175
42	0xbe9a227b	-0.30104432
43	0xbd860682	-0.0654421
44	0xbe207846	-0.1567088
45	0xbd1a133e	-0.037616007
46	0xbe82eae9	-0.25569847
47	0x3d26c278	0.040712804
48	0xbe758b61	-0.2397895
49	0xbd07fd85	-0.03320076
50	0x3d31579f	0.043296453
51	0x3e057985	0.13034637
52	0xbbcb08ea	-0.006196131
53	0xbea6d3ef	-0.32583568
54	0xbdf71c80	-0.12065983
55	0xbda7cb9d	-0.08193133
56	0xbe7e0269	-0.24805607
57	0xbe79d183	-0.24396329
58	0xbe50492f	-0.20340417
59	0xbe86d206	-0.2633211
60	0xbe29ab5a	-0.16569272
61	0xbe0bc373	-0.13648777
62	0x3c8aea74	0.0169575
63	0x3e1fb71f	0.15597199
64	0x3df17fa5	0.117919244
65	0xbdd4094a	-0.10353334
66	0xbe59c788	-0.21267521
67	0xbddaf213	-0.10690703
68	0x3e04d07b	0.12970154
69	0x3d7684fb	0.060185414
70	0x3d2398a6	0.0399405
71	0xbdaf7ea9	-0.085690804
72	0xbe86a395	-0.26296678
73	0xbdd64a9b	-0.104634486
74	0xbdb56deb	-0.08858856
75	0xbe4a383f	-0.19748019
76	0x3c0c2184	0.008552913
77	0x3c7437cd	0.014905882
78	0xbe08fa34	-0.13376695
79	0x3de2e0d4	0.11078039
80	0xbea32a75	-0.3186833
81	0xbd0a4214	-0.033754423
82	0xbe5ac265	-0.21363218
83	0xbe302921	-0.1720319
84	0xbe169e9b	-0.1470894
85	0xbe0e05d0	-0.13869405
86	0xbdd2d959	-0.10295362
87	0x3c27c92b	0.010240833
88	0xbe872538	-0.26395583
89	0xbe7aba4c	-0.24485129
90	0x3d64131e	0.055682294
91	0xbd308d6a	-0.043103613
92	0x3cad0700	0.021121502
93	0x3c8b2b9e	0.016988572
94	0xbe7e52a8	-0.24836218
95	0x3dd0b7d0	0.101913095
96	0xbe48a076	-0.19592461
97	0x3d922b78	0.07137197
98	0x3c53fa44	0.012938086
99	0xbe80e12a	-0.25171787
100	0xbda062b5	-0.07831327
101	0xbe8aeb5c	-0.2713269
102	0x3e81aa40	0.25325203
103	0xbe84555a	-0.25846368
104	0xbe8c7ae8	-0.2743752
105	0x3be6872f	0.007035158
106	0x3e1f4009	0.15551771
107	0xbcedfa45	-0.029050002
108	0xbe75067c	-0.23928255
109	0x3c4e516a	0.012592653
110	0xbdf5475c	-0.11976501
111	0xbda1e597	-0.07905119
112	0xbe441a8d	-0.19150753
113	0xbd3a1ce3	-0.045437705
114	0xbeaadc71	-0.33371308
115	0xbe7e70be	-0.24847695
116	0xbe5ab9f9	-0.21360005
117	0xbe6df754	-0.2323888
118	0xbd6f523f	-0.058428045
119	0xbde2a2fa	-0.110662416
120	0xbe898a1d	-0.26863185
121	0xbe4be115	-0.1991008
122	0xbe21ed79	-0.15813245
123	0xbe82e31e	-0.25563902
124	0xbe4502cd	-0.1923935
125	0xbe12433c	-0.1428346
126	0xbe667134	-0.22504121
127	0xbcf04564	-0.029329963
128	0x3d057c51	0.03258926
129	0xbe0fefb2	-0.1405628
130	0xbe2c9bde	-0.16856334
131	0xbe2d1c7d	-0.16905399
132	0xbdf36f05	-0.1188641
133	0x3da413ad	0.08011565
134	0xbe6445f9	-0.22292317
135	0xbe924d78	-0.2857473
136	0x3e4e5961	0.20151283
137	0xbdc4e4ce	-0.096139535
138	0xbce1f861	-0.027584257
139	0xbdc46ba4	-0.09590843
140	0xbe99c487	-0.3003275
141	0xbac0bc0c	-0.001470448
142	0xbc613ba6	-0.013747131
143	0xbe7a6fe3	-0.24456744
144	0xbe625d02	-0.22105792
145	0xbe61f0c7	-0.22064506
146	0xbe4b452e	-0.19850609
147	0xbc9a51d7	-0.018837852
148	0x3d973d75	0.07384769
149	0xbe444cc7	-0.19169913
150	0x3e1cf9b9	0.15329637
151	0xbe9fb2f6	-0.31191224
152	0xbe8b5c86	-0.27219027
153	0xbd45dd41	-0.048306707
154	0x3df5205f	0.11969065
155	0xbd48c2bc	-0.04901384
156	0xbd148ec6	-0.03626897
157	0x3c973720	0.018458903
158	0x3da7b471	0.08188713
159	0xbe4d5a3b	-0.20053951
160	0xbe492e43	-0.19646554
161	0xbdb7f57f	-0.089823715
162	0xbecc2b14	-0.39876616
163	0xbe6e2996	-0.23258051
164	0xbd015018	-0.031570524
165	0x3cb4ade2	0.02205557
166	0x3e05bfb9	0.13061418
167	0xbdeaced2	-0.11465229
168	0xbe4f39ca	-0.20236889
169	0xbeabcbab	-0.33553824
170	0xbea36b23	-0.31917676
171	0xbe34ab15	-0.17643388
172	0x3d6b721a	0.057481863
173	0xbda06920	-0.07832551
174	0x3ceac418	0.028657958
175	0xbead0f6f	-0.33800837
176	0xbde06c18	-0.10958117
177	0x3c80bdce	0.015715506
178	0x3e235f5e	0.15954348
179	0xbe22fd5a	-0.15916958
180	0xbd7bfcf7	-0.061520543
181	0x3d699285	0.057024498
182	0x3d854a37	0.06508296
183	0x3e28dbbb	0.1649007
184	0xbea12968	-0.31476903
185	0xbd26ff44	-0.040770784
186	0x3e2209b0	0.15824008
187	0xbe544fa8	-0.20733511
188	0xbe571586	-0.21004304
189	0x3e331eab	0.17492168
190	0xbd32de71	-0.043669168
191	0x3d36d731	0.044638816
192	0xbe826038	-0.25464034
193	0x3dfa9788	0.122359335
194	0xbdcfc3bd	-0.10144756
195	0xbd9ff749	-0.07810838
196	0xbeabb0dd	-0.33533373
197	0x3dd8e3a6	0.105902955
198	0xbe23d073	-0.15997486
199	0x3c93e251	0.018052252
200	0xbdcd2a3a	-0.1001782
201	0xbcaccb26	-0.021092962
202	0xbcc0aed4	-0.023520865
203	0xbda027b0	-0.0782007
204	0xbdce7b63	-0.10082128
205	0xbe609891	-0.219332
206	0xbe62488b	-0.22097985
207	0x3c63be0a	0.013900289
208	0x3db3d9d3	0.08781781
209	0xbb46a7c3	-0.0030312396
210	0xbea0b27d	-0.31386176
211	0x3e253000	0.16131592
212	0xbe08bb8f	-0.13352798
213	0xbe153c49	-0.14573778
214	0xbe41b7b4	-0.18917733
215	0x3d55ced4	0.0521992
216	0xbdca950b	-0.09891709
217	0x3d3794a3	0.044819485
218	0x3d4d0e2c	0.050062343
219	0x3d2de64f	0.042455968
220	0x3d93242b	0.07184633
221	0xbe7c3ca2	-0.24632505
222	0xbd8c29d4	-0.068439156
223	0xbe812546	-0.2522375
224	0xbd5ff026	-0.054672383
225	0x3ddf6340	0.10907602
226	0x3d83897a	0.06422706
227	0xbe85fc11	-0.26168874
228	0x3db1104d	0.08645687
229	0xbe91380d	-0.28363076
230	0xbe7534f1	-0.23945977
231	0xbe27f332	-0.16401365
232	0xbdba6a38	-0.09102291
233	0xbdc09f96	-0.094054386
234	0xbe443981	-0.19162561
235	0xbd9facce	-0.07796632
236	0xbe093f4f	-0.13403057
237	0xbdabf45d	-0.08396218
238	0xbe89205b	-0.26782498
239	0x3dd9d632	0.10636558
240	0x3dbd41e7	0.092410855
241	0x3d1e986d	0.038719583
242	0xbcf6afa6	-0.030113053
243	0xbcf13f6a	-0.029449183
244	0xbe652d78	-0.22380626
245	0x3decfb9f	0.115714304
246	0x3d4e73b0	0.050403297
247	0x3d0b668d	0.034033347
248	0xbde1086f	-0.10987937
249	0xbe874a00	-0.26423645
250	0xbcc1e07c	-0.023666613
251	0xbe884025	-0.26611438
252	0xbca8cfc4	-0.020606883
253	0xbe8c2e87	-0.27379248
254	0xbd6a7194	-0.057237223
255	0xbe80a68b	-0.25127062

model.hidden_0.wa f4 [1, 64]
0	0x3f511d0a	0.81684935
1	0x3f71f479	0.9451366
2	0x3f61b532	0.8816711
3	0x3f8214e1	1.0162622
4	0x3f791441	0.9729653
5	0x3f58e854	0.84729505
6	0x3f5f744a	0.8728682
7	0x3f63a6ef	0.88926595
8	0x3f652ee9	0.89524704
9	0x3f69a5d4	0.9126866
10	0x3f5537e2	0.83288395
11	0x3f6b1679	0.91831166
12	0x3f73b6e0	0.9520092
13	0x3f78115f	0.96901506
14	0x3f763f42	0.96190274
15	0x3f7fc713	0.9991314
16	0x3f70e949	0.94105965
17	0x3f6bf14a	0.9216505
18	0x3f678e30	0.90451336
19	0x3f84c383	1.0372165
20	0x3f36946a	0.7132021
21	0x3f6daf79	0.92845875
22	0x3f8114ed	1.0084511
23	0x3f735865	0.95056754
24	0x3f732f61	0.9499417
25	0x3f61a4e8	0.8814225
26	0x3f6d9c36	0.92816484
27	0x3f635de3	0.88815135
28	0x3f503447	0.8132977
29	0x3f604636	0.87607133
30	0x3f6297f6	0.88513124
31	0x3f8b605c	1.0888782
32	0x3f949390	1.1607533
33	0x3f69ca20	0.91324043
34	0x3f34a28f	0.70560545
35	0x3f63ef83	0.8903734
36	0x3f764a86	0.96207464
37	0x3f7262a2	0.9468175
38	0x3f5ecc88	0.8703084
39	0x3f8d5ad7	1.1043347
40	0x3f6f8137	0.9355654
41	0x3f751505	0.957352
42	0x3f2f2e56	0.6843008
43	0x3f37c8c8	0.7179074
44	0x3f7e1328	0.9924798
45	0x3f8dc8d3	1.1076912
46	0x3f7742f0	0.96586514
47	0x3f79fdc1	0.9765282
48	0x3f6fb15a	0.9362999
49	0x3f8591ba	1.0435097
50	0x3f81ad08	1.013093
51	0x3f54ce7e	0.8312758
52	0x3f5f6f7a	0.87279475
53	0x3f83f33c	1.0308604
54	0x3f4835b8	0.7820697
55	0x3f750dcd	0.95724183
56	0x3f85f27e	1.0464628
57	0x3f7aff1a	0.98045504
58	0x3f634676	0.8877939
59	0x3f370333	0.71489257
60	0x3f824805	1.0178229
61	0x3f7794d6	0.9671148
62	0x3f4f417b	0.8095929
63	0x3f547de2	0.8300458

model.hidden_0.wb f4 [1, 64]
0	0x3f5890dd	0.84596044
1	0x3f7f9b09	0.9984594
2	0x3f84a0b5	1.0361544
3	0x3f5516b1	0.8323775
4	0x3f5cab68	0.86199045
5	0x3f7da2b1	0.9907637
6	0x3f6d5707	0.9271092
7	0x3f6f7d7d	0.93550855
8	0x3f77a703	0.96739215
9	0x3f769fa7	0.9633736
10	0x3f75332b	0.957812
11	0x3f694b8f	0.9113092
12	0x3f6e86c9	0.93174416
13	0x3f73dd98	0.9526
14	0x3f7339b1	0.95009905
15	0x3f6a3b44	0.9149668
16	0x3f765d7e	0.9623641
17	0x3f77fd0e	0.96870506
18	0x3f7e4215	0.99319583
19	0x3f6e8714	0.9317486
20	0x3f692dc7	0.91085476
21	0x3f7207f9	0.94543415
22	0x3f6cb72d	0.92467004
23	0x3f693211	0.9109202
24	0x3f62994c	0.8851516
25	0x3f7e83a7	0.99419636
26	0x3f712396	0.94194925
27	0x3f71eb8b	0.94500035
28	0x3f5ee0b5	0.87061626
29	0x3f30b1d6	0.69021356
30	0x3f663526	0.8992485
31	0x3f62bdbd	0.8857077
32	0x3f5277d6	0.82214105
33	0x3f6a0041	0.9140664
34	0x3f874412	1.0567648
35	0x3f5407b6	0.82824266
36	0x3f658940	0.8966255
37	0x3f54f772	0.8319007
38	0x3f704250	0.93851185
39	0x3f5f5611	0.872407
40	0x3f4cdd88	0.8002553
41	0x3f6f9389	0.93584496
42	0x3f869349	1.0513698
43	0x3f69a252	0.91263306
44	0x3f663d20	0.8993702
45	0x3f50c2a5	0.81547004
46	0x3f56b499	0.8386932
47	0x3f61b3c8	0.8816495
48	0x3f638c00	0.888855
49	0x3f69b798	0.91295767
50	0x3f674b92	0.90349686
51	0x3f634699	0.887796
52	0x3f649f82	0.8930589
53	0x3f53acf8	0.82685804
54	0x3f8061ac	1.0029807
55	0x3f71c58d	0.94442064
56	0x3f645f62	0.8920804
57	0x3f7111e7	0.9416794
58	0x3f5e0b3d	0.867359
59	0x3f86d0f5	1.0532519
60	0x3f7429c0	0.95376205
61	0x3f7117ff	0.9417724
62	0x3f716c92	0.9430629
63	0x3f75f41e	0.9607562

model.hidden_0.dist_apical.w f4 [768]
0	0x3e849a99	0.258992
1	0x3dc69d8c	0.096980184
2	0x3e062985	0.13101776
3	0x3e4e541b	0.20149271
4	0x3f07f8bd	0.5311392
5	0x3dea4971	0.11439789
6	0x3dea4971	0.11439789
7	0x3ebeb2d5	0.37245813
8	0x3eb69c34	0.3566605
9	0x3f24fe92	0.64450943
10	0x3edcb749	0.43108585
11	0x3eeadc5d	0.4587125
12	0x3effe126	0.49976462
13	0x3f52d5b3	0.8235733
14	0x3f050f7a	0.5197674
15	0x3f4ac433	0.79205626
16	0x3f4341d7	0.7627234
17	0x3f3266de	0.6968821
18	0x3f4f7128	0.8103204
19	0x3f2590e0	0.64674187
20	0x3f2692de	0.6506785
21	0x3ef4cf59	0.47814444
22	0x3f195de2	0.5990888
23	0x3f36081f	0.7110614
24	0x3f1272b3	0.5720627
25	0x3ee9c349	0.45656803
26	0x3f0e47af	0.5557813
27	0x3ed59570	0.41715574
28	0x3e4e82df	0.20167111
29	0x3f0ee9c8	0.5582547
30	0x3e9e7c80	0.3095436
31	0x3edea40c	0.43484533
32	0x3eda078f	0.42583892
33	0x3ef025e9	0.46903923
34	0x3eff98ed	0.4992136
35	0x3e900312	0.28127342
36	0x3f407366	0.75176084
37	0x3f1e5971	0.61855227
38	0x3f1b069f	0.6055698
39	0x3ea467bd	0.32110396
40	0x3f20219d	0.6255129
41	0x3f39c5ac	0.7256725
42	0x3f3aaa84	0.72916436
43	0x3f3aaa84	0.72916436
44	0x3eea4e20	0.4576273
45	0x3f403025	0.7507346
46	0x3edf7db0	0.4365058
47	0x3ecf937b	0.40542206
48	0x3f5a5e2e	0.85299957
49	0x3ed43dde	0.4145345
50	0x3f23c937	0.63978904
51	0x3f2df384	0.679497
52	0x3ee73056	0.45154065
53	0x3f3cb781	0.73717505
54	0x3eaee06b	0.34155592
55	0x3f3cb781	0.73717505
56	0x3f615e6b	0.88034695
57	0x3f4fbe4a	0.81149733
58	0x3f50a060	0.8149471
59	0x3f1489b0	0.58022594
60	0x3f11d5bb	0.5696675
61	0x3f329b93	0.6976864
62	0x3f27ffa4	0.6562445
63	0x3f210013	0.6289074
64	0x3eb9b72d	0.36272565
65	0x3f08a298	0.533731
66	0x3f04a602	0.5181581
67	0x3f275473	0.65363234
68	0x3ec9b86d	0.39398518
69	0x3f24e25b	0.6440789
70	0x3ec9b86d	0.39398518
71	0x3f33791d	0.7010668
72	0x3e2c400f	0.16821311
73	0x3e6cb099	0.23114242
74	0x3f34c4f9	0.70613056
75	0x3ef31bc5	0.47482124
76	0x3ea9df5d	0.33178225
77	0x3e8bc19b	0.27296147
78	0x3e125153	0.14288835
79	0x3e8bc19b	0.27296147
80	0x3ede0e32	0.43370205
81	0x3f0ae2af	0.5425214
82	0x3f099954	0.53749585
83	0x3f0656b8	0.5247607
84	0x3ee1cdd2	0.4410234
85	0x3f163bba	0.58684886
86	0x3ee1cdd2	0.4410234
87	0x3f4c8861	0.798956
88	0x3f31ab1a	0.69401705
89	0x3f2ff7ae	0.68737304
90	0x3f4d0db4	0.80099034
91	0x3f2b853c	0.67000175
92	0x3f555c7f	0.8334426
93	0x3f492b22	0.7858144
94	0x3f321ee4	0.69578385
95	0x3f4e2106	0.8051914
96	0x3f1191bf	0.56863016
97	0x3f3b9651	0.7327624
98	0x3f280c5b	0.6564385
99	0x3f2734fd	0.6531523
100	0x3f48a89a	0.78382266
101	0x3f102a61	0.56314665
102	0x3f3a2c13	0.727235
103	0x3f30d435	0.690738
104	0x3f2c9da3	0.67428035
105	0x3f320d74	0.6955178
106	0x3f333bfb	0.700134
107	0x3f2d2648	0.6763654
108	0x3f254e43	0.6457254
109	0x3f0aa36e	0.54155624
110	0x3f41311f	0.7546558
111	0x3f4baf94	0.79564786
112	0x3f034eb2	0.51291955
113	0x3f209855	0.6273244
114	0x3f296b38	0.6617923
115	0x3ed54e3b	0.41661248
116	0x3f1cacd1	0.61201197
117	0x3f23b2b4	0.63944554
118	0x3f3b9341	0.73271567
119	0x3efdff4c	0.4960884
120	0x3e9fe434	0.31228793
121	0x3f19fef7	0.6015467
122	0x3ec57a06	0.3856966
123	0x3edbf9b6	0.42963952
124	0x3ecda6c7	0.40166304
125	0x3f1ed7a2	0.6204778
126	0x3ee4b6e6	0.4467079
127	0x3f039c69	0.5141054
128	0x3effd75f	0.49969003
129	0x3f27d27b	0.6555554
130	0x3ef16447	0.47146818
131	0x3f0d9272	0.5530158
132	0x3f1301fa	0.5742489
133	0x3f3cd68d	0.7376488
134	0x3eede631	0.46464685
135	0x3f1215c2	0.5706445
136	0x3ee79b1c	0.45235527
137	0x3f33df28	0.70262384
138	0x3f33df28	0.70262384
139	0x3f4dc9c3	0.8038599
140	0x3f2c04a1	0.67194563
141	0x3f29d83b	0.66345567
142	0x3f3e7590	0.74398136
143	0x3edaa599	0.42704466
144	0x3f0bca85	0.54605895
145	0x3f161641	0.58627707
146	0x3f21c2e9	0.63188034
147	0x3f161641	0.58627707
148	0x3e892214	0.26783812
149	0x3efc6461	0.49295333
150	0x3f075730	0.5286741
151	0x3f12ab28	0.57292414
152	0x3f291218	0.66043234
153	0x3f4640dd	0.77442724
154	0x3f4640dd	0.77442724
155	0x3f3b051c	0.7305467
156	0x3f50ec67	0.8161072
157	0x3f157f96	0.58397806
158	0x3f242b80	0.64128876
159	0x3f242b80	0.64128876
160	0x3ed684fa	0.41898328
161	0x3efd9807	0.4953005
162	0x3f1ab2ff	0.60429376
163	0x3f2a132d	0.6643551
164	0x3f1e8b29	0.6193109
165	0x3f116af0	0.568038
166	0x3f50c936	0.81557024
167	0x3f0cc6ee	0.5499104
168	0x3ec7834a	0.38967353
169	0x3f0f8a0e	0.5607003
170	0x3f326211	0.6968089
171	0x3f30a05d	0.68994695
172	0x3f2eb997	0.6825194
173	0x3ef2fa1e	0.4745645
174	0x3e8bcca4	0.27304566
175	0x3ee22e0f	0.44175765
176	0x3ef25604	0.4733125
177	0x3f1edfb1	0.62060076
178	0x3f271a7d	0.6527479
179	0x3f02c4bc	0.5108144
180	0x3eae319d	0.34022227
181	0x3f0df276	0.5544809
182	0x3efa9d5e	0.48948187
183	0x3f3696af	0.71323675
184	0x3f62b721	0.8856068
185	0x3f6410d0	0.89088154
186	0x3f4ba25c	0.79544616
187	0x3f30af90	0.6901789
188	0x3ee048ec	0.43805635
189	0x3f25bac1	0.6473809
190	0x3f019a73	0.50626296
191	0x3ee048ed	0.43805638
192	0x3f09e0e2	0.5385877
193	0x3f0d49ea	0.5519091
194	0x3f65d6f8	0.8978114
195	0x3f14a5d2	0.5806552
196	0x3f5a954c	0.8538406
197	0x3f3ba730	0.7330198
198	0x3eee7893	0.46576366
199	0x3f089aae	0.5336102
200	0x3f1c7f9d	0.6113222
201	0x3ecf77f2	0.405212
202	0x3f38ee22	0.7223836
203	0x3f3656eb	0.71226376
204	0x3f690236	0.91019
205	0x3ecd1e95	0.40062395
206	0x3f081e82	0.5317155
207	0x3f3b5289	0.73172814
208	0x3f2c60cb	0.67335194
209	0x3f5fcd61	0.8742276
210	0x3f5b757f	0.8572616
211	0x3f1693fd	0.5881956
212	0x3f073c82	0.528267
213	0x3f2e4269	0.68070084
214	0x3f3611af	0.71120733
215	0x3f4f06f6	0.80869997
216	0x3f169e82	0.58835614
217	0x3f15bcb6	0.58491075
218	0x3e5c825b	0.21534102
219	0x3eb55f1d	0.35424128
220	0x3eda018b	0.42579302
221	0x3f01bbf8	0.5067744
222	0x3f01bbf8	0.5067744
223	0x3f0d82ee	0.5527791
224	0x3e8f8b67	0.28036043
225	0x3f2fe772	0.6871253
226	0x3f2ebe68	0.68259287
227	0x3ee61fed	0.44946232
228	0x3f5489eb	0.83022946
229	0x3f0972c4	0.53690743
230	0x3ee82935	0.45343938
231	0x3f3bda1d	0.7337969
232	0x3f4d1ee6	0.8012527
233	0x3f17da3e	0.59317386
234	0x3f4d1ee6	0.8012527
235	0x3f2b4e5e	0.66916454
236	0x3f613035	0.87964183
237	0x3f49a840	0.78772354
238	0x3f5e492c	0.868304
239	0x3f1f457a	0.6221539
240	0x3f022a5c	0.50845885
241	0x3ebfe30b	0.37477908
242	0x3e9585bd	0.29203597
243	0x3e69e684	0.22841841
244	0x3ea64d69	0.32480934
245	0x3e8106f7	0.25200626
246	0x3e5fc758	0.21853387
247	0x3e251f8f	0.1612532
248	0x3eccf7e7	0.40032884
249	0x3ee19810	0.44061327
250	0x3e92c40c	0.28665197
251	0x3eb5d96f	0.3551745
252	0x3f21655d	0.63045293
253	0x3f312763	0.69200724
254	0x3ed0b30f	0.4076161
255	0x3f07f77d	0.5311201
