deeplearning_tasks/models/bci/beforetrain.pth (torch, 355975 bytes, 60 tensors)

mlp_in.0.weight f4 [512, 96]
00000000: 9cdf c3bc d102 c03d dc30 b7bc 37b7 a83c
00000010: 2687 4bbd e682 753d 4b43 b83d 6358 99bd
00000020: 9fae b53d 857b 9c3c 9b6d 9a3d 0977 623c
00000030: b293 493d f518 6cbc 0a22 a13d f229 773c
00000040: 2229 43bd 5b1e d53c f69b 40bd 171a 44bc
00000050: 00cb 29bd eea8 8a3d 23ff a4bd 41b9 40bd
00000060: 6717 ecbc 165c 7bbd 78d3 1d3c a272 cebd
00000070: 4cc5 bc3d fb8e b1bd 205f a13d 4d24 8b3c
00000080: d4bd 07bd 742a 813d 404e 823c 0fe2 a83d
00000090: 81cd 363c 30d7 03bd f8a4 e03c 29bb e2bc
000000a0: 1cf0 2f3d d89e ba3d d8a7 713d 23c2 36bd
000000b0: c652 713d 5099 953c 6d4c 543d 23cd 7ebd
000000c0: ede9 cebd 3e84 21bd 5553 a0bd f982 ab3d
000000d0: 23d2 f03c 1129 2d3d 3936 043d dcb6 e8ba
000000e0: 4f95 a33d 8783 94bd f192 d23b acaa 8ebd
000000f0: c8e7 003d bdf7 0fbd 9f18 003d 5831 aebc
00000100: b15c ad3d dec6 77bd 6c52 79bd 4656 79bd
00000110: 1d01 bc3d 7c50 0b3d f621 c93d 7880 acbd
00000120: 3753 cfbd 3988 a3bd 8a9b 8cbd 5553 293d
00000130: 39b1 153d b3ae ad3d c3e3 57bd 587e 8ebd
00000140: 64ce 5d3d e7f9 28bd e4b8 7d3d c167 c6bc
00000150: 4424 6f3d 7f67 a2bd 8af7 52bd a9e7 fe3c
00000160: 9bc1 b03c 4a2b d5bc 432f 793d 8a18 8e3d
00000170: f893 97bd 7e2e 5fbd 0065 bf3d f90f 0dbd
00000180: 4a34 14bd ea3f cabd 1467 6fbd e6db d03c
00000190: 8eb7 5cbc 1aba 97bd 4ee5 1c3b a3c7 8ebd
000001a0: a455 b1bd d433 66bd 88f0 b6bd ce17 85bd
000001b0: fef0 d03d bdea 9d3c 34d3 003d ddf3 c2bd
000001c0: ea47 89bd 2e26 0bbd a0bd 823c 85ec b7bd
000001d0: f71f 34bd 6b45 7abd 324a 9439 6e8e 1bbd
000001e0: 2dc0 e7bb eaa3 8dbd f478 8fbd 92e3 73bd
000001f0: 9e18 0fbd 5cfa a4bd 7542 af3d 2eef a5bc
00000200: c3d7 b33d 7741 023d 0a00 b1bd c0a6 903d
00000210: e90b e6bc 7f3f 20bd 0281 adbd 75cd cfbd
00000220: 0837 ef3c a8a3 b6bc 4dc1 223d a389 abbd
00000230: 532f 9b3d 286f 99bd f35e 90bc 68a2 ae3c
00000240: 30d1 573d 1dbf a83d 5c69 be3d 34bd a5bd
00000250: c86a d23c 03d0 33bd ff3e 37bc a673 9cbd
00000260: f963 be3d a269 99bd e46c 5f3d 03eb 123d
00000270: bcd8 073d df03 62bd edfd bd3d 4fbb b73c
00000280: 281c 573c e033 b8bd b37d 2f3d b9dc 7abc
00000290: 6484 3fbd 2a8a b33d e467 ba3c 8e4b 67bd
000002a0: e996 53bd 7ab6 9fbb bd6b 693d 61a6 d5bc
000002b0: d686 6ebd 2f28 0fbd eb27 9cbd c016 153d
000002c0: d5ca a13d 66c8 c4bd dd2e c23c 93f5 573d
000002d0: ae9b 973c 67e0 14bd 2b32 5a3d 56b0 5b3d
000002e0: a251 1c3d 5beb 92bc fb65 ddbc 53e4 323c
000002f0: fdb2 93bc 0d28 f9bc e99b 853d 67a2 b33d
00000300: ba8a 25bc d032 bbbc 4435 c33a bbaf c7bb
00000310: 8e01 c93c 1e4d ea3c c0d8 bdbd 5d46 1abd
00000320: 4806 b03d 1dda 223d 4257 a6bb e10a 7cbd
00000330: 49c3 7fbd 6a3c bbbd 7344 08bd 0c2d 0d3d
00000340: 1647 853d c702 413d c7c3 b8bd b865 7bbd
00000350: 07f3 83bc cc32 ca3d e4e4 713c 0486 d8bc
00000360: bef3 2c3d e239 1fbd 9a4a 87bd 3690 983d
00000370: 1d16 3ebd d79b a7bc e6ef cfbd 9fe4 8b3d
00000380: f85c 9e3d 305b 183d 17bf 91bd 144b cebd
00000390: a2c3 a9bd 5dde 9b3d d8b4 483d d6e4 af3d
000003a0: 7900 5b3d c59b d33c 6000 83ba 9ef6 9ebd
000003b0: d015 b3bd 6f82 c3bd da21 2b3d 513f 4dbd
000003c0: 0a44 a8bc 7c96 70bd 135b 98bc 261e 93bd
000003d0: 3994 88bd a4ab 0a3d d27b f8bc fc09 813d
000003e0: e71c 06bd 2055 99bd ef84 93bc 98a5 4abd
000003f0: a4cb ffbc 36fd c6bd a1e4 693d da85 91bd
-0.023910336 0.09375537 -0.022362165 0.020595176 -0.049689434 0.059939288 0.0899721 -0.074875616
0.08871197 0.019101867 0.07540437 0.0138223255 0.04921312 -0.014410247 0.078678206 0.015085684
-0.04764665 0.026015451 -0.047023736 -0.011969111 -0.04145336 0.06770502 -0.08056476 -0.047051672
-0.028819753 -0.061367117 0.009632938 -0.10080458 0.09217319 -0.086698495 0.07879472 0.016985083
-0.03314002 0.063069254 0.015906453 0.08246242 0.011157394 -0.03218764 0.027422413 -0.027677136
0.042953596 0.09112328 0.05899796 -0.044618737 0.05891683 0.018261582 0.051830698 -0.062207352
-0.101032116 -0.039432757 -0.07828394 0.083745904 0.029397076 0.042275492 0.032278273 -0.0017754692
0.07987463 -0.07251649 0.006426208 -0.06966147 0.031471044 -0.03514837 0.03127348 -0.021263763
0.08464945 -0.06049239 -0.06086962 -0.060873292 0.091799 0.034012303 0.09820931 -0.08422941
-0.10123294 -0.07984967 -0.06865604 0.041339237 0.036545966 0.08480587 -0.052707445 -0.06957692
0.054151908 -0.04125395 0.061943904 -0.024219396 0.058384195 -0.079298966 -0.051505603 0.031116324
0.021576693 -0.026021618 0.060836088 0.06938274 -0.0740127 -0.054487698 0.09345436 -0.03443906
-0.03618268 -0.09875472 -0.058447912 0.02549548 -0.013471497 -0.07408543 0.0023940387 -0.069716714
-0.08658913 -0.05620177 -0.089325964 -0.06498681 0.102022156 0.019276971 0.03145142 -0.095191695
-0.0670317 -0.033971958 0.01595956 -0.089806594 -0.043975797 -0.06110136 0.0002828404 -0.03797763
-0.0070724697 -0.0691603 -0.07005492 -0.0595432 -0.034935586 -0.08055565 0.085575975 -0.020255651
0.08781388 0.031800713 -0.086425856 0.07063055 -0.028081851 -0.039123055 -0.08471872 -0.1014661
0.029201046 -0.022294834 0.039735127 -0.083758615 0.07577386 -0.074919045 -0.0176234 0.021317676
0.05268973 0.08239577 0.092974395 -0.08092728 0.025685683 -0.043899547 -0.011184453 -0.07639246
0.09296412 -0.07490851 0.054547206 0.035868656 0.03316568 -0.055179473 0.09276948 0.022428183
0.013129272 -0.08994269 0.042844485 -0.015311413 -0.046757117 0.08766587 0.022754617 -0.05646854
-0.05165759 -0.004874048 0.056987513 -0.026080312 -0.05823406 -0.03495043 -0.07624801 0.03639865
0.07900015 -0.096085355 0.023703987 0.052724432 0.018506851 -0.03634682 0.0532705 0.053634964
0.03816379 -0.017934492 -0.027026167 0.010918695 -0.018029684 -0.030414606 0.06523878 0.0877121
-0.010103876 -0.022851378 0.0014893194 -0.0060939468 0.024536874 0.028601225 -0.092698574 -0.03766476
0.08594948 0.03975879 -0.00507632 -0.061533812 -0.062442098 -0.091423824 -0.033268403 0.03446679
0.06507699 0.04712179 -0.090217166 -0.061376303 -0.016107095 0.0987297 0.014764044 -0.026431091
0.04222464 -0.03887356 -0.06606026 0.07449381 -0.046407808 -0.020460052 -0.10153179 0.068307154
0.07732576 0.03719634 -0.071165256 -0.10072914 -0.08289267 0.07610772 0.04900059 0.08588569
0.053467248 0.025831113 -0.0009994619 -0.07761882 -0.08744395 -0.095463626 0.04178033 -0.05010921
-0.020540256 -0.058737263 -0.018598115 -0.07183485 -0.06668896 0.033855096 -0.03033248 0.063007325
-0.032742407 -0.074869394 -0.018007724 -0.04947433 -0.031225033 -0.09716265 0.057102803 -0.07105608

mlp_in.0.bias f4 [512]
00000000: b199 a03c bb3b a53c 3203 b43d 6214 c13d
00000010: 34e0 373d c9a3 bf3d 8327 c2bd 8e11 643d
00000020: 6a59 3dbd a43d aabd d73c 97bb 5d5c 5c3b
00000030: 097e 7b3c 1a9c 653d b1a1 853d fccb a8bc
00000040: 0922 403d 7b6f 50bc 5bf4 9dbc 75ca b7bd
00000050: 0788 c7b8 8058 a03c c218 2b3b 7d6a 82bd
00000060: 6f06 3a3d dba6 18bc 236a 873d dea1 cfbd
00000070: e6a4 c5bd 42b6 36bd 141e 9dbc 5460 183c
00000080: 7c62 8dbd 4a21 31bd 8853 dd3c 087c 993d
00000090: 7bec 4d3d 45f3 b3bd 91d2 4dbb 535d 64bd
000000a0: 3f70 c33d 369d 86bd 4f7f a03c a2b1 923d
000000b0: 4c1e 573d 0cf8 813d 8ce3 a53d d41e 223d
000000c0: fb4b cb3d c955 633d db17 933c 6e46 c8bd
000000d0: ec9d d03d e12f 44bd 064c b0bd 6606 863d
000000e0: 3aeb a4bd c570 fa3c 16f7 0b3d 068b 28bd
000000f0: db24 a23d 3399 d1bb 03d0 cabd 00a5 c3bc
00000100: 96f6 27bd 8d08 23bd 9bee 53bd 5e52 93bd
00000110: 6de7 c4bd 9400 393d 7654 b2bd f902 24bd
00000120: 108e 673c 2667 bf3d 1e69 6b3d d4d5 33bd
00000130: 45e6 873d 68a8 1ebd ef10 c338 ccc8 0dbd
00000140: b6fa a63c 72cc 363d 0eeb 22bb 6e1e 633d
00000150: 14b2 35bc 6025 6fbd 0890 863d cba4 993d
00000160: b61f dc3c 47d7 883d 20fb adbd 61bc 83bd
00000170: de07 a33d 9c5a 9abd 52e2 c13b ba00 8c3d
00000180: affe 7b3c 7c0c ebbc a81c b5bb 49f6 bcbc
00000190: 139c 8abc 835d bebd 583e c63d 711a 74bd
000001a0: 3835 e63c b13b 89bd c572 da3c 48b2 6b3b
000001b0: e92b 53bd 366b 1d3c 99b8 94bc 5e6f 9abd
000001c0: 2d74 8c3d e40b b6bd b579 093c 4d0a 393d
000001d0: 6de0 f9ba 09b0 233d 4f2c a9bc 62a4 0e3b
000001e0: 5156 49bc 42a7 50bd 009b a5bd 199e b8bd
000001f0: e19a b7bc c299 89bd 7f30 b93c c01b 9fbb
00000200: 5911 81bd 7fe5 6abd 3212 acbb 428f 5abd
00000210: e935 33bd 1149 3a3c feb4 8ebc f470 0fbd
00000220: d1e3 b1bd d814 a53d 7a0f d6bb 4c5a aa3d
00000230: 9437 353d 120e 0e3d a5aa a13d 8bab acbd
00000240: 5246 b43d 8a54 78bd fb4d 30bd fc12 6dbd
00000250: cf52 e93b ff9d 903c dbfd 23bd 12d1 cd3d
00000260: 3988 783d c140 023c 4d8c 35bd 1bfa 9d3d
00000270: 7f99 b6bd e92a 82bd 97da 52bb d303 33bd
00000280: 84ed cc3d c202 83bd e035 923d 53c9 c03d
00000290: ccdd 983d 6777 983d a03c 9bbb f498 e0bc
000002a0: 010f ed3c 7d69 d9bc d8a3 86bc 7aad b13d
000002b0: 110d be3d 79f1 b23d 328e 253d 7452 163d
000002c0: 84e7 7b3c 3480 3b3a 473c d0bd 2fac 8abd
000002d0: 3ad7 083c 60d3 9abc 282b a3bd f019 8bbd
000002e0: ac4c 90bd 2617 c63c 3c37 54ba 15b8 1b3d
000002f0: bb29 853c a9a4 733d 0f3b 833d caf5 01bb
00000300: 11cc a6bc a9f7 063d 8bd2 113d 7b9b f13c
00000310: 93cf 59bc f94b df3c 1c9b bfbd a25c 653d
00000320: 01e1 913d 841c b13d 3c9b c5bd dba8 b83c
00000330: d171 a03d a2e2 2cbd 6810 37bc 71fb bc3c
00000340: cf37 963d 6b43 5d3d 5211 4abd 3816 cfbd
00000350: feac 5c3c 8545 883d f0e6 ba3d f86f cf3d
00000360: afe0 b8bc 5d5c c1bd 3e10 7b3d d919 86bd
00000370: 5bb5 7e3d 1417 373d 440b 48bd 819f 6b3a
00000380: 172a af3d 21a5 55bc c35e ca3c ffbd e13c
00000390: 251e b23d e769 d03d f153 1d3b e2c2 8a3d
000003a0: 905e ab3d 925c d2bc 3462 90bd 7468 5e3d
000003b0: e38b b33c f9cd 05bd 9005 b43d 252f 99bd
000003c0: be61 9e3d 8315 f6bc ee80 7fbc 63af 1dbb
000003d0: 26f0 3c3d e7e4 933d 932c 6d3c 5427 34bd
000003e0: aa98 833d 840b 783d f35d 993d 3ef7 afbb
000003f0: 8385 f1bb 548a 8f3b b6b2 3f3b fd2e 093d
0.019604536 0.020170083 0.08789672 0.09427716 0.04489155 0.093574114 -0.094801925 0.055680804
-0.04622785 -0.08312538 -0.004615407 0.0033624389 0.015349873 0.056057073 0.06524981 -0.02060508
0.04690746 -0.0127218915 -0.019281557 -0.089741625 -9.5143965e-05 0.01957345 0.0026107286 -0.06367967
0.04541629 -0.009317125 0.06612041 -0.101382956 -0.096505925 -0.04460741 -0.019179381 0.00930031
-0.0690355 -0.043244638 0.02701737 0.0749436 0.050274353 -0.08786634 -0.0031406025 -0.055753063
0.095428936 -0.06572954 0.019591955 0.07162787 0.052519128 0.06346139 0.08100042 0.03958018
0.099266015 0.055501733 0.017955711 -0.097790584 0.10186371 -0.047897223 -0.0860825 0.06544189
-0.080526784 0.03057135 0.034171186 -0.041148208 0.07917186 -0.0063964366 -0.09902956 -0.023882389
-0.041006647 -0.039803077 -0.051741224 -0.07193445 -0.096144535 0.045166567 -0.08707516 -0.040041897
0.014132991 0.09345846 0.057473294 -0.043905094 0.06635717 -0.038734823 9.301479e-05 -0.034615323
0.02038322 0.044628568 -0.0024859342 0.055448942 -0.01108982 -0.058385253 0.065704405 0.07502135
0.02687059 0.06681686 -0.08495164 -0.06432415 0.07960485 -0.075368136 0.005916872 0.06836076
0.0153805455 -0.028692476 -0.0055270977 -0.023066657 -0.016920125 -0.0929518 0.0967986 -0.05959553
0.028101549 -0.06700838 0.026666055 0.0035964418 -0.051555548 0.009608081 -0.01815443 -0.07540773
0.06858096 -0.08888987 0.008390834 0.04517584 -0.0019064076 0.039962802 -0.02065101 0.002176546
-0.012288646 -0.05094076 -0.080862045 -0.0901453 -0.02241272 -0.0671878 0.022606133 -0.004855603
-0.06302137 -0.05734777 -0.0052511925 -0.053359278 -0.043752585 0.011369959 -0.017420288 -0.03501983
-0.08686031 0.08060616 -0.0065326067 0.08318004 0.044242457 0.034681387 0.07893876 -0.08431157
0.08802475 -0.060627498 -0.043043118 -0.057879433 0.0071204673 0.017653463 -0.040037017 0.100496426
0.060676787 0.007950009 -0.044323254 0.077137195 -0.08915996 -0.06355841 -0.0032173747 -0.04370482
0.1000624 -0.063970104 0.07139182 0.094133995 0.074641794 0.07444649 -0.0047374517 -0.027416684
0.028937818 -0.026539559 -0.016435549 0.08675666 0.09279836 0.087374635 0.04041881 0.036699727
0.015375022 0.00071525876 -0.10167747 -0.06771123 0.008352095 -0.01889962 -0.07967216 -0.067920566
-0.07045874 0.02418096 -0.0008095389 0.03801735 0.01625525 0.059483204 0.06407749 -0.001983034
-0.020360978 0.03295103 0.03560118 0.029493084 -0.013294118 0.027257906 -0.09355757 0.055996545
0.07122994 0.08648017 -0.09648749 0.022541454 0.07834209 -0.04220832 -0.011173345 0.023069115
0.073348634 0.054019373 -0.049332924 -0.1011166 0.013468979 0.06653885 0.09126079 0.10128778
-0.022568075 -0.09441445 0.061294787 -0.06547899 0.062184673 0.044699743 -0.04883887 0.00089883065
0.0855295 -0.013039858 0.024703389 0.027556418 0.08697156 0.10176449 0.0024006332 0.06775452
0.08367646 -0.025678907 -0.07049981 0.054298833 0.02191729 -0.032667134 0.087901235 -0.07479695
0.077334866 -0.030039554 -0.015594704 -0.0024060837 0.04612746 0.07221394 0.014475959 -0.04398282
0.06425603 0.060557857 0.074886225 -0.0053700497 -0.007370652 0.0043805037 0.0029250807 0.033492077

mlp_in.1.weight f4 [16, 512]
00000000: 93ec c53c 7f57 2bbd 4ca1 c4bb 3282 1bbd
00000010: 09f4 923c 6afb 193c cac6 2cbc e00e 203d
00000020: ec37 edbc cfd4 7ebc dd89 633b 0200 983c
00000030: b768 7d3b 19cd 213c a236 143d e362 ac3c
00000040: 880d 313d 0f4c bdbc 2b16 1f3c eebe 253d
00000050: ed1b 10bd 638e 323d c98d 3bbc f928 5abb
00000060: 4870 0ebc 7ea8 273d aaef 203c c39c 2fbd
00000070: bdc5 323d d192 56bc 9302 f03c 804b 8ebc
00000080: 9a28 34bd 4366 30bd 053b 2f3d f72d 2e3d
00000090: 577b c93c 9fa6 1a3d 0b70 db3c 90cd 2fbd
000000a0: 164a 3a3c 759a 0c3d 8bdd 323d 93c9 1e3d
000000b0: 1dc2 15bc 776a 283d 9a7e 8e3c a2ee 163c
000000c0: 74e8 d0bc 6f54 3d3c c63a be3c d19d 0d3d
000000d0: c090 08bc 1bf0 8d3c c62f 743b 80d2 1cbd
000000e0: 84fd 2dbd e9b3 f93b 1622 fa3c 6b9a 303c
000000f0: d26b 18bd b318 8ebc e349 0abd da99 16bd
00000100: e7c4 13bd 3f9f d2bc a259 d73c 45db 52bc
00000110: a698 823c 6ed3 493c eb11 813c c5a5 033b
00000120: b74c 1dbc a9ed 2a3d b990 063d 84e1 0b3d
00000130: 182c 05bb f110 2f3d cb40 223d 9c0f dd3b
00000140: 498e 133d 2aa2 ed3b 4518 cb3c e8dd fdbc
00000150: 1103 0bbd f06d a33c 5ddf d1bc d641 19bd
00000160: e9e1 223d 0a5f 1c3c 913a 293d cac5 a93b
00000170: 20a2 9c3b 403a 243c cd14 9abb 65c4 4f3c
00000180: 0e4b d8ba 1b88 2f3d dd4e ecbc 1070 00bd
00000190: 74c9 a1bc 88e8 d8bc fe25 23bc 9b23 81bc
000001a0: 56eb 95bc 8b13 afbc 104e f53c 46a4 06bc
000001b0: fd31 f1bc 3602 d4bc 51f5 153d fb4a 123d
000001c0: 3348 013c 6d25 2ebc 01f0 94bc cdba 15bc
000001d0: 82fb b73c 761c bdbc fc91 253d 03d5 36bc
000001e0: a277 8dbc 013d 2e3a 9d34 4e3c a2b4 263b
000001f0: 3ac9 9c3c 428b 083d f9d4 5f3c 710f cbbb
00000200: cd62 1abd 096c 41bc 3c4f c7ba c38b 5bbc
00000210: 2e86 e43c 1d04 8639 0924 5cbc 4bc3 1dbd
00000220: 0365 f33c 831d 503c b056 213d beb6 0fbc
00000230: ff6b 2b3c 5ff5 24bd e40b 0639 e56d a7bc
00000240: 8fba 0f3d cef7 313d 1dda 2ebd 4e91 083c
00000250: 4e7e 2dbd f317 adbb 54b1 083d 5701 693c
00000260: 3df0 423b 99ed 0cbd 3ff2 b6bb bbd3 423c
00000270: de5b 853b b8c2 09bd eb0d d73b 15d3 bb3b
00000280: 2a09 0cbc 4321 273a 7c18 a83b e931 9dbc
00000290: 00d5 c9ba 61a3 04bc 5ba0 02bd a8a7 8a3c
000002a0: c76d 10bd 638f db3a 9a90 0b3b 138a d03b
000002b0: 4c73 d8bc 1f1c 9d3c d541 333d 8776 d9bc
000002c0: d65a da3c 04d5 25bd 6b14 d03c 4dcf 1e3c
000002d0: cbb6 09bd d1d3 4fbc 2db6 f73c a11a 803c
000002e0: e6a3 c33c 48af 033d 6384 06bd b196 8dbb
000002f0: 5133 143d b1a0 fc3b aff8 29bd b6bc 263d
00000300: a65a 4dbb 52c1 4bbc f9bb a13b 3173 1ebd
00000310: 2194 953b 641d a63c a205 c6bc b9bd d7bc
00000320: 024b f8bc 7eab 09bd a05f 763c 52d5 b8bc
00000330: 131b 1ebd 4847 1bbd ba3c 0a3c 34c5 0a3d
00000340: 7a80 2bbd 54e4 253d e4d7 3d3b 5695 1b3c
00000350: cd91 f33c 0614 2cbc 9815 b43b a7d9 26bd
00000360: 853d cabc 1e62 96bc 0ba4 32bb 0842 8ebc
00000370: d3ec 9a3b d239 343d 0941 8abb a9f6 aa3c
00000380: e080 30bc a08d cb3c 2c4f ca3c 72df a0bc
00000390: cdd0 9fbc 7cc4 9cbc 9beb 34bc 033b 823c
000003a0: db8a 073c 74ad 693c 1a2f 19bc 24c5 063d
000003b0: afcd b03c 1177 2fbc 8282 0abc 8c16 b13c
000003c0: 7b00 f1b9 fb1a cebb a93b 833c 323b fdbc
000003d0: c65f 4dbb fef7 a9ba cf2a 0c3d 3532 d6bc
000003e0: 5e19 933b b937 de3c 2882 b8bc 9118 cfba
000003f0: 0602 913c 5667 c83b d2fa 293b 922b a53a
0.024160659 -0.04183149 -0.0060006734 -0.03796596 0.01793863 0.009398321 -0.010545442 0.039076686
-0.02895733 -0.015553667 0.0034719624 0.018554691 0.0038667151 0.009875559 0.036184914 0.021043247
0.043225795 -0.023107557 0.009709875 0.040465288 -0.035182882 0.04359282 -0.011447378 -0.0033288582
-0.008693762 0.04093217 0.009822765 -0.04287411 0.04364561 -0.013096527 0.029298102 -0.017369986
-0.043984033 -0.043066274 0.042780895 0.042524304 0.024594946 0.03775656 0.026786825 -0.04292065
0.0113702025 0.03432699 0.04366831 0.038766455 -0.0091405185 0.041117158 0.017394353 0.009212168
-0.025501467 0.011555775 0.023221385 0.034574334 -0.008335292 0.017326405 0.003725992 -0.038286686
-0.0424781 0.007620324 0.030533832 0.010779004 -0.0372122 -0.017345762 -0.03376187 -0.036767818
-0.036076453 -0.0257107 0.026287857 -0.012869661 0.01594193 0.012318475 0.015755614 0.002008782
-0.00960081 0.041730557 0.032852862 0.034150615 -0.0020320471 0.042740766 0.039612573 0.0067462455
0.036024366 0.0072519975 0.024791846 -0.030989602 -0.03393847 0.019949883 -0.025619203 -0.0374163
0.039766226 0.009544143 0.04131562 0.005181049 0.004780069 0.0100236535 -0.0047021867 0.012681101
-0.001650186 0.04285441 -0.028846199 -0.03135687 -0.01974938 -0.026478067 -0.0099577885 -0.015764048
-0.018300693 -0.021371624 0.02994445 -0.008217877 -0.029442782 -0.02587996 0.036610905 0.03571604
0.007890749 -0.01062904 -0.018180849 -0.009138775 0.022458795 -0.02308486 0.040422425 -0.011159184
-0.01726896 0.00066466635 0.012585786 0.0025437255 0.019138921 0.03333593 0.0136616165 -0.006196909
-0.03769188 -0.011805543 -0.0015206109 -0.013400021 0.027896013 0.00025561536 -0.013436326 -0.038516324
0.029711252 0.012702349 0.039389312 -0.0087715965 0.01046276 -0.040273067 0.00012783665 -0.020438144
0.035090026 0.043449216 -0.042688478 0.008335425 -0.04235678 -0.005282396 0.03337224 0.014221511
0.0029745244 -0.03440628 -0.005583077 0.011891301 0.0040697893 -0.033632964 0.0065629384 0.00573195
-0.008547107 0.0006375501 0.005129872 -0.019188838 -0.0015398562 -0.008095593 -0.03189121 0.016925648
-0.03526094 0.0016751107 0.0021295906 0.006364116 -0.026422165 0.019178448 0.043763954 -0.026545776
0.026654642 -0.04048635 0.025400361 0.009692979 -0.03362159 -0.012684778 0.030238235 0.015637698
0.023881864 0.032149583 -0.032841098 -0.0043209423 0.03618175 0.0077095856 -0.04149693 0.040707313
-0.0031334548 -0.012436228 0.004935738 -0.038684074 0.0045647775 0.020277686 -0.024172608 -0.026335584
-0.030309204 -0.033610813 0.015037447 -0.022562657 -0.03860004 -0.037909776 0.00843733 0.033879474
-0.04187057 0.040500954 0.0028967792 0.009496054 0.02973261 -0.010502821 0.0054957382 -0.040734913
-0.024687538 -0.018357333 -0.0027258422 -0.01736547 0.0047279387 0.044000454 -0.0042191786 0.02086957
-0.010772914 0.024847806 0.024695955 -0.019637797 -0.019508744 -0.01913666 -0.011042501 0.01589728
0.008272852 0.014262546 -0.009349609 0.03290285 0.021582453 -0.01070954 -0.008453967 0.021617197
-0.0004596746 -0.0062898374 0.01601966 -0.030912016 -0.0031337603 -0.0012967584 0.034220513 -0.026146987
0.004489108 0.02712618 -0.022523 -0.0015800168 0.01770116 0.006115834 0.0025936854 0.0012601486

mlp_in.1.bias f4 [16]
00000000: aa4d 0e3d f07a dfbc 6a4b 1bbd f30e 0bbd
00000010: 6355 efbb a43f 4a3c 39a8 ecbc 64c3 a7bc
00000020: fa11 11bd a907 093d c6db ffbc d203 6c3c
00000030: 2bb6 28bd d6cc d73a 4ba4 16bd 3ea6 23bc
0.034742035 -0.0272803 -0.037913717 -0.033949804 -0.00730388 0.012344275 -0.028888809 -0.020478912
-0.035417534 0.03345457 -0.031232726 0.014405208 -0.041189354 0.0016464244 -0.036777776 -0.009988366

model.project_0.weight f4 [256, 16]
00000000: 48a2 2ebd 2ced e9bd 5e34 7a3e 3a7e 25be
00000010: 58ae 29bd b0d9 84bc b010 293e e246 53be
00000020: daa2 34be 6023 21bc b86c 883d 70f0 abbc
00000030: 0047 503d 18ae 9b3d 2caf 523e 9417 303e
00000040: 8035 c3bd b2ee 79be 26ef 28be f871 05be
00000050: 6065 523d fc7b 2e3e dcbe 653e a004 f03d
00000060: 383c 1c3d 381c cfbd 8046 1e3d e469 0c3e
00000070: e8e7 7c3d a2a8 283e 620b 113e 6837 e83d
00000080: 78d8 a23d d0bf 84bc 0473 863d 9227 43be
00000090: 08d2 0b3e 60e3 2bbe 6acc 3a3e 141a f6bd
000000a0: 34c4 10be f802 4a3d 90c2 ccbd f054 ea3c
000000b0: 00b0 9d3c 2040 7fbd a8c9 09bd b844 80bd
000000c0: 7075 11be bcf7 fb3d 8859 04be faac 083e
000000d0: d0cf 09bd c618 48be 10ae aebd e491 24be
000000e0: aca9 993d fa0d 3ebe f019 3a3d 8a8c 223e
000000f0: 9448 fd3d 5cfd 013e 76d5 6b3e f088 1abd
00000100: 023e 243e 88b5 353e f217 59be 9c9b 66be
00000110: a0cb 2c3d ba81 463e 2261 76be 00ee 9dba
00000120: 46cd 3fbe c0de 2f3c 883f a0bd 6203 19be
00000130: 3635 7fbe 2a20 1c3e 402a 2f3e 3cf4 99bd
00000140: aa61 183e 1ccb df3d 70ed 97bd 6011 573c
00000150: e2fa 6c3e 7848 18be fc74 d33d 3043 1f3e
00000160: 58b2 22bd c8f9 2dbe 30e0 8e3d 188c 31be
00000170: ced7 5dbe 2ab4 053e b886 2d3e 6adf 6cbe
00000180: de3f 163e 4cfa c0bd c042 5fbc 281d 7ebd
00000190: 0069 323c 1469 16be 127a 613e bc98 e73d
000001a0: 1c7c 51be aea6 2dbe e054 7fbc e86d 083e
000001b0: 746c f8bd 7445 3d3e 80f6 033c b2aa 5abe
000001c0: 6c2e 41be 0c59 adbd 14e8 993d 1804 1f3d
000001d0: e829 1c3e b400 263e 94a1 3dbe 06a7 6dbe
000001e0: 527c 2bbe 407c f93c e249 6f3e 501f ff3c
000001f0: f0d5 7a3e 04a3 2d3e a0bf 92bc ae08 2c3e
00000200: aa04 273e a8e3 78bd c4d6 553e 809b 4ebd
00000210: 7c44 53be 948a 023e 8a3d 4b3e a0f6 d23c
00000220: 4659 2a3e e0aa 61be 5425 b43d 00f0 e03d
00000230: 2ae0 44be 1207 7cbe f08d 24bd 9e83 4c3e
00000240: 3c21 34be 34e7 b23d 40ef 8ebd 9c09 70be
00000250: 8c2a 0a3e 4e7c 19be ee26 173e 5407 2b3e
00000260: de72 7a3e c475 79be b8e0 043d b814 8fbd
00000270: 4892 153e 00c9 bcbd b01f 6e3e 8477 48be
00000280: b891 693d 92db 6f3e bc87 bcbd 2e19 12be
00000290: 8048 33be 70f6 8c3d d096 d2bd a0df 4fbc
000002a0: c033 283d 1657 073e 20e9 51bc a2a7 7cbe
000002b0: 2431 4b3e 322e 263e a804 08bd 4a3e 123e
000002c0: 9e84 043e 2a52 1cbe 40d3 7abd f267 103e
000002d0: 92ac 1dbe 48ae 723d 801c 003c 940b 8bbd
000002e0: 204e 00bd 9454 82bd 50b5 6cbe 5073 5dbe
000002f0: 9c48 2bbe eae0 1fbe f295 7ebe 8c0b 803d
00000300: 1c9a c1bd 3467 13be 8ed8 46be 80d4 1abb
00000310: 58a0 ed3d b84d 44be 142a 293e c007 96bd
00000320: 4adc 7ebe 2411 99bd 9890 79be f031 2fbd
00000330: fe98 1fbe 1c30 24be 70c4 c83d e074 863d
00000340: f8da 4dbd 9a84 3e3e 0edf 15be 8077 fc3d
00000350: 10b9 dbbc dc69 1f3e 88e6 433d 4865 2fbe
00000360: fc53 623e 0200 0e3e 28e4 7dbd b009 67bd
00000370: 80c7 ec3b 4027 8f3c 2011 46be 608e 693d
00000380: aa01 40be 0882 f8bd 3805 1cbd 8024 4abb
00000390: 3e64 4ebe 6aaf 593e 687f 5f3e 88f3 533d
000003a0: 6ea3 0ebe 6a38 16be 8058 30bd 5688 17be
000003b0: 68d9 663d 2c3f e1bd 78ba f93d a46b 173e
000003c0: b041 be3d d2bd 2ebe 0068 a9ba 448d 083e
000003d0: 202f acbd 72a9 33be 8816 503e aad9 363e
000003e0: 2890 6bbd 3638 663e d4dc ebbd 80b7 a3bd
000003f0: d024 c93d 0e83 3cbe 3cc8 a03d 64fa f33d
-0.042635232 -0.1142219 0.24434039 -0.16161433 -0.041426033 -0.016217083 0.16510272 -0.20632508
-0.17640248 -0.009835094 0.066613615 -0.020988673 0.05084896 0.07601565 0.20574635 0.17196494
-0.09531689 -0.24407461 -0.16497478 -0.13031757 0.05136621 0.17039484 0.22436088 0.11719632
0.038143367 -0.10112804 0.038641453 0.13712269 0.0617446 0.16470578 0.14164498 0.11338693
0.079514444 -0.016204745 0.06564906 -0.19058064 0.1365434 -0.16785955 0.1824204 -0.12016693
-0.14137346 0.049319237 -0.09998047 0.028604954 0.019248962 -0.062317014 -0.03363958 -0.06263107
-0.14204955 0.12303111 -0.12924778 0.13347235 -0.03364545 -0.195407 -0.085292935 -0.16071278
0.075030655 -0.18560019 0.045434892 0.15873924 0.12367359 0.12694305 0.23030648 -0.03772825
0.16039279 0.1774503 -0.2120054 -0.22520298 0.04218638 0.19385424 -0.2406049 -0.0012049079
-0.1873065 0.01073426 -0.078246176 -0.14942697 -0.24922642 0.15246645 0.17105961 -0.07517287
0.14881006 0.10927412 -0.074183345 0.013126701 0.23142579 -0.14871395 0.103250474 0.15552974
-0.039720863 -0.16989815 0.06976354 -0.17338598 -0.21664354 0.13057008 0.16945922 -0.231321
0.14672801 -0.0942274 -0.013626754 -0.062039524 0.010889292 -0.14688522 0.22019222 0.11308429
-0.204575 -0.16958115 -0.015584201 0.13323176 -0.12130061 0.18483526 0.008054376 -0.21354178
-0.18865365 -0.0846425 0.075149685 0.038822263 0.15250361 0.16211206 -0.18518668 -0.23208246
-0.16746643 0.030454755 0.23368028 0.03114286 0.24495673 0.16956717 -0.01791364 0.16800186
0.16310373 -0.060763985 0.20882708 -0.050441265 -0.20631593 0.12748176 0.19847694 0.025752366
0.16635618 -0.2203784 0.08796182 0.10983276 -0.19226137 -0.24612072 -0.040174425 0.19972083
-0.17590803 0.08735505 -0.06979227 -0.23441166 0.13492793 -0.14988825 0.14760944 0.16702014
0.24457881 -0.2436133 0.03244087 -0.06986374 0.14606583 -0.09218025 0.23254275 -0.19576842
0.057023734 0.23423603 -0.09205577 -0.14267418 -0.17508125 0.06882942 -0.102826715 -0.012687594
0.041064978 0.13216814 -0.012811929 -0.24673322 0.19842964 0.1622856 -0.033207566 0.14281574
0.12941214 -0.15265718 -0.06123662 0.14102152 -0.15397862 0.05924824 0.007819295 -0.06789318
-0.031324506 -0.06363788 -0.2311604 -0.2162602 -0.16726917 -0.15613142 -0.24861887 0.062522024
-0.09453222 -0.14394838 -0.19418547 -0.0023625195 0.11602849 -0.19170272 0.16519958 -0.07325697
-0.24888721 -0.074739724 -0.24371564 -0.042772233 -0.15585706 -0.16033977 0.098030925 0.06565261
-0.050257653 0.18605271 -0.1463587 0.1232748 -0.026821643 0.15567726 0.047827274 -0.1712848
0.2210235 0.1386719 -0.061985165 -0.056405723 0.0072259307 0.01747477 -0.1934247 0.057020545
-0.18750635 -0.121341765 -0.038090914 -0.003084451 -0.20155427 0.21258321 0.21825945 0.05174592
-0.13929531 -0.14669958 -0.04305315 -0.14798102 0.05635968 -0.10998377 0.12193769 0.14787155
0.09289873 -0.17064598 -0.0012924671 0.13335139 -0.08407426 -0.17545107 0.20321095 0.1785647
-0.057510525 0.2248238 -0.11516729 -0.07993984 0.098214746 -0.18409368 0.07850692 0.119129926

model.project_0.bias f4 [256]
00000000: 90a7 c1bc 1040 423e 00a0 eebc e053 46bd
00000010: 6074 883c bcec b4bd 6a98 763e 32db 37be
00000020: a41d 96bd 6426 903d ee3f 58be 20a2 56bd
00000030: 4e64 0a3e a82e 3bbd 8864 4ebd eabd 71be
00000040: d46f a03d a878 6d3d 3415 603e 7c5c 21be
00000050: a2d4 283e 8839 093e 1af3 5a3e a011 bbbd
00000060: 9a47 56be 44a2 50be 5077 b33d 446a 8fbd
00000070: d475 dd3d e890 b23d 4ac2 2a3e 22a0 4dbe
00000080: 4c2c f43d 9a3e 143e b483 f0bd 6e67 6a3e
00000090: 90cd e93d 4cbe edbd e8b0 5d3d 80e5 bdbb
000000a0: 30b0 a2bd b0ad 40be 5ae1 6dbe 30da 233d
000000b0: 10c6 32bd 20be 1a3d 44c7 06be 381e 393e
000000c0: 64e2 39be c05e 0d3d 98c6 263e 56cd 5d3e
000000d0: 5cf7 ad3d 640f 3ebe 48c1 19bd c827 583d
000000e0: 4e4a 26be 5c1d 28be 205f f6bd d2a8 3cbe
000000f0: 707b 5ebd e0a2 21bc 40d0 e23d de72 693e
00000100: 88b5 693e f092 bc3d f485 d5bd 245c 8fbd
00000110: 2a51 6a3e 24cb 8d3d 0035 bb3b 001b 713c
00000120: f687 42be 8c15 babd 70ed 863d 6c73 59be
00000130: 144b 003e f48d 0e3e a25d 16be 5a6c 503e
00000140: cc64 29be 2099 953c 56b1 51be c0d6 ea3b
00000150: 1803 e5bd 50e8 cdbc 0c67 a13d 90b3 c03d
00000160: 967a 74be 1024 46be a4ec 063e 40e2 a63d
00000170: 787e 34bd 382d 7f3d 3a07 59be ac52 0e3e
00000180: 3c92 aebd b68d 4b3e 50f4 373d 0ec9 59be
00000190: 603e 34bc e827 7ebe aece 603e 0e2a 63be
000001a0: 62f9 43be 3657 023e ba9f 613e ac12 e73d
000001b0: 30b4 13be f8bc ca3d 30ab 1e3d 5c0e cebd
000001c0: 88ce 35be 40fb 3b3c e0d3 13be 3c0f cebd
000001d0: 1066 7dbe 9cd9 dabd 404f 12bc 40af 013c
000001e0: 3cbe 3fbe 900d 4abd 201e 6fbc 589e 68be
000001f0: e003 0cbe 5010 aabd 4e85 64be 8806 e23d
00000200: e8fb ce3d d08a f9bc 689d 7fbd a871 a7bd
00000210: 7846 21be 10e6 183e 5420 44be de13 7cbe
00000220: b8f1 6b3e a0f4 f73c d49d 263e 443d bdbd
00000230: 72eb 4ebe b49c 0c3e f8d5 60bd d4db 09be
00000240: 58ca 35be eed4 28be 6ce3 e1bd fc99 cc3d
00000250: 747c 293e 7a9d 36be a8c0 463e 0a08 25be
00000260: 38e2 2bbe c06e 483c 54bb 183e 2cb4 c03d
00000270: f006 c73c e6d4 253e 6867 383e 266a 04be
00000280: e614 03be 6006 223c 5a6f 73be 2423 3dbe
00000290: 3856 303d b455 0f3e c8c5 243e 10d3 83bd
000002a0: 6039 e5bd d897 7fbe a2b2 79be 24ff b4bd
000002b0: 8834 be3d 504d 95bc 988c ab3d 2068 08be
000002c0: 384a 833d e03e c23c 1627 6b3e 300a e7bd
000002d0: e023 4cbc 1c40 953d ec61 bb3d ea0d 4c3e
000002e0: 3897 45be e81e 663d 84f6 463e 1885 68bd
000002f0: 48a7 3cbe 00bb 353e a05f 0f3c 3c51 c33d
00000300: 5ccb e0bd 3cd0 403e c80b 143d b8b5 39bd
00000310: c6d0 2cbe 546a 153e 9cfb aebd 58a0 673d
00000320: 40b0 19bc 70b6 b43c d0d5 453d c0fb ecbc
00000330: e092 85bd ece3 0ebe 48e3 a4bd 58e0 aa3d
00000340: a062 4e3e 50cd 643d 6829 6dbe 40e3 d53d
00000350: a87c c2bd 18b6 a6bd b41c 39be 2021 c03d
00000360: 7889 52bd d82c 9e3d 440c f03d babc 213e
00000370: 5207 4a3e 2a12 30be 649a a63d de15 67be
00000380: 6009 18bd fedc 7e3e d049 1f3e b0e7 3cbe
00000390: 527f 583e c04d 43be ac4b 08be cc8b 99bd
000003a0: 5072 47bd 70ac ddbc 0654 2bbe 0012 6b3a
000003b0: d8c0 203d cc7b 95bd 5c74 07be 322f 453e
000003c0: 24a1 db3d 8034 473d 102a c53c ea31 033e
000003d0: e621 1bbe 6486 d33d c467 b83d 8496 ea3d
000003e0: cc6f f53d 5c2e 30be 5c8c d93d 4456 53be
000003f0: 380b 1e3d ecb6 ffbd 3041 813c b43c 46be
-0.02363947 0.1896975 -0.029129028 -0.048419833 0.016657054 -0.08834216 0.24081579 -0.1795471
-0.07329872 0.070385724 -0.21118137 -0.05240071 0.13514826 -0.04569879 -0.050388843 -0.23607603
0.078338295 0.057976395 0.21883088 -0.15757936 0.16487363 0.13400853 0.21381798 -0.09134221
-0.20925751 -0.203744 0.087629914 -0.070026904 0.108134896 0.08719045 0.16675678 -0.20080617
0.119225115 0.14477006 -0.117438704 0.22891018 0.11416161 -0.11608562 0.05412379 -0.005795181
-0.07943761 -0.18816257 -0.23230496 0.040003 -0.04364592 0.037778974 -0.13161951 0.18077934
-0.18152767 0.03451419 0.16286695 0.2166036 0.08494446 -0.18560559 -0.037537843 0.052772313
-0.16239282 -0.1641745 -0.120298624 -0.18423775 -0.054316938 -0.009865493 0.11074877 0.22797725
0.22823155 0.092077136 -0.1042594 -0.06999996 0.22882524 0.069235116 0.005713105 0.01471591
-0.18997177 -0.09086141 0.06588256 -0.21235436 0.1252864 0.13921338 -0.14684156 0.20353833
-0.16542357 0.018261492 -0.20477805 0.0071667135 -0.11182231 -0.02513519 0.07880983 0.09409249
-0.23874888 -0.19349694 0.13176209 0.081486225 -0.044065922 0.062298983 -0.21194163 0.13898724
-0.08523986 0.19878277 0.04491073 -0.21268103 -0.0110011995 -0.2481991 0.21953842 -0.22184011
-0.191381 0.12728581 0.22033587 0.11282858 -0.14424205 0.09899324 0.038737476 -0.100613326
-0.17754567 0.011473477 -0.14436293 -0.100614995 -0.24745965 -0.10686037 -0.0089300275 0.007915318
-0.18724912 -0.04932934 -0.014594585 -0.22716653 -0.13673353 -0.083038926 -0.22316477 0.11036402
0.10106641 -0.030461699 -0.062405974 -0.08175975 -0.15749538 0.14931512 -0.19152957 -0.24616954
0.23041427 0.030268013 0.16271144 -0.09240201 -0.20207003 0.13731652 -0.054891557 -0.13462764
-0.1775297 -0.16487476 -0.110297054 0.09990308 0.16551381 -0.1783351 0.1940943 -0.16116348
-0.16785514 0.012233436 0.1491521 0.09409365 0.0242953 0.16194496 0.18008196 -0.12931117
-0.12800941 0.009889215 -0.23772946 -0.18470436 0.043050975 0.13997537 0.16091073 -0.06436741
-0.11192584 -0.24960268 -0.2438455 -0.08837727 0.09287363 -0.018225342 0.083764255 -0.1332097
0.064106405 0.023711622 0.22964129 -0.1128124 -0.012459725 0.072876185 0.091495365 0.19927183
-0.19295967 0.05618182 0.19429976 -0.056767553 -0.18423188 0.17747116 0.008750826 0.095369786
-0.10976288 0.18829435 0.036144048 -0.045339316 -0.16876516 0.14591342 -0.085440844 0.0565494
-0.0093804 0.02205965 0.04829961 -0.028928638 -0.06522155 -0.13954133 -0.08051163 0.083435714
0.2015481 0.055859864 -0.23160326 0.10443735 -0.094964325 -0.081402004 -0.18077356 0.09381318
-0.05140063 0.07723397 0.117210895 0.1579465 0.19729355 -0.17194429 0.081349164 -0.22566935
-0.037118316 0.2488899 0.15555501 -0.18447757 0.21142319 -0.19072628 -0.13310117 -0.07497367
-0.048693 -0.027059764 -0.16731271 0.0008967221 0.03924641 -0.07299003 -0.13227981 0.19256285
0.107240945 0.048634052 0.024067909 0.1281201 -0.1514965 0.10328367 0.09004167 0.1145449
0.11984214 -0.17205185 0.106224746 -0.20638376 0.038584918 -0.124860615 0.015778154 -0.19359094

model.hidden_0.wa f4 [1, 64]
00000000: 0000 803f 0000 803f 0000 803f 0000 803f
00000010: 0000 803f 0000 803f 0000 803f 0000 803f
00000020: 0000 803f 0000 803f 0000 803f 0000 803f
00000030: 0000 803f 0000 803f 0000 803f 0000 803f
00000040: 0000 803f 0000 803f 0000 803f 0000 803f
00000050: 0000 803f 0000 803f 0000 803f 0000 803f
00000060: 0000 803f 0000 803f 0000 803f 0000 803f
00000070: 0000 803f 0000 803f 0000 803f 0000 803f
00000080: 0000 803f 0000 803f 0000 803f 0000 803f
00000090: 0000 803f 0000 803f 0000 803f 0000 803f
000000a0: 0000 803f 0000 803f 0000 803f 0000 803f
000000b0: 0000 803f 0000 803f 0000 803f 0000 803f
000000c0: 0000 803f 0000 803f 0000 803f 0000 803f
000000d0: 0000 803f 0000 803f 0000 803f 0000 803f
000000e0: 0000 803f 0000 803f 0000 803f 0000 803f
000000f0: 0000 803f 0000 803f 0000 803f 0000 803f
1.0 1.0 1.0 1.0 1.0 1.0 1.0 1.0
1.0 1.0 1.0 1.0 1.0 1.0 1.0 1.0
1.0 1.0 1.0 1.0 1.0 1.0 1.0 1.0
1.0 1.0 1.0 1.0 1.0 1.0 1.0 1.0
1.0 1.0 1.0 1.0 1.0 1.0 1.0 1.0
1.0 1.0 1.0 1.0 1.0 1.0 1.0 1.0
1.0 1.0 1.0 1.0 1.0 1.0 1.0 1.0
1.0 1.0 1.0 1.0 1.0 1.0 1.0 1.0

model.hidden_0.wb f4 [1, 64]
00000000: 0000 803f 0000 803f 0000 803f 0000 803f
00000010: 0000 803f 0000 803f 0000 803f 0000 803f
00000020: 0000 803f 0000 803f 0000 803f 0000 803f
00000030: 0000 803f 0000 803f 0000 803f 0000 803f
00000040: 0000 803f 0000 803f 0000 803f 0000 803f
00000050: 0000 803f 0000 803f 0000 803f 0000 803f
00000060: 0000 803f 0000 803f 0000 803f 0000 803f
00000070: 0000 803f 0000 803f 0000 803f 0000 803f
00000080: 0000 803f 0000 803f 0000 803f 0000 803f
00000090: 0000 803f 0000 803f 0000 803f 0000 803f
000000a0: 0000 803f 0000 803f 0000 803f 0000 803f
000000b0: 0000 803f 0000 803f 0000 803f 0000 803f
000000c0: 0000 803f 0000 803f 0000 803f 0000 803f
000000d0: 0000 803f 0000 803f 0000 803f 0000 803f
000000e0: 0000 803f 0000 803f 0000 803f 0000 803f
000000f0: 0000 803f 0000 803f 0000 803f 0000 803f
1.0 1.0 1.0 1.0 1.0 1.0 1.0 1.0
1.0 1.0 1.0 1.0 1.0 1.0 1.0 1.0
1.0 1.0 1.0 1.0 1.0 1.0 1.0 1.0
1.0 1.0 1.0 1.0 1.0 1.0 1.0 1.0
1.0 1.0 1.0 1.0 1.0 1.0 1.0 1.0
1.0 1.0 1.0 1.0 1.0 1.0 1.0 1.0
1.0 1.0 1.0 1.0 1.0 1.0 1.0 1.0
1.0 1.0 1.0 1.0 1.0 1.0 1.0 1.0

model.hidden_0.dist_apical.w f4 [768]
00000000: 0000 803f 0000 803f 0000 803f 0000 803f
00000010: 0000 803f 0000 803f 0000 803f 0000 803f
00000020: 0000 803f 0000 803f 0000 803f 0000 803f
00000030: 0000 803f 0000 803f 0000 803f 0000 803f
00000040: 0000 803f 0000 803f 0000 803f 0000 803f
00000050: 0000 803f 0000 803f 0000 803f 0000 803f
00000060: 0000 803f 0000 803f 0000 803f 0000 803f
00000070: 0000 803f 0000 803f 0000 803f 0000 803f
00000080: 0000 803f 0000 803f 0000 803f 0000 803f
00000090: 0000 803f 0000 803f 0000 803f 0000 803f
000000a0: 0000 803f 0000 803f 0000 803f 0000 803f
000000b0: 0000 803f 0000 803f 0000 803f 0000 803f
000000c0: 0000 803f 0000 803f 0000 803f 0000 803f
000000d0: 0000 803f 0000 803f 0000 803f 0000 803f
000000e0: 0000 803f 0000 803f 0000 803f 0000 803f
000000f0: 0000 803f 0000 803f 0000 803f 0000 803f
00000100: 0000 803f 0000 803f 0000 803f 0000 803f
00000110: 0000 803f 0000 803f 0000 803f 0000 803f
00000120: 0000 803f 0000 803f 0000 803f 0000 803f
00000130: 0000 803f 0000 803f 0000 803f 0000 803f
00000140: 0000 803f 0000 803f 0000 803f 0000 803f
00000150: 0000 803f 0000 803f 0000 803f 0000 803f
00000160: 0000 803f 0000 803f 0000 803f 0000 803f
00000170: 0000 803f 0000 803f 0000 803f 0000 803f
00000180: 0000 803f 0000 803f 0000 803f 0000 803f
00000190: 0000 803f 0000 803f 0000 803f 0000 803f
000001a0: 0000 803f 0000 803f 0000 803f 0000 803f
000001b0: 0000 803f 0000 803f 0000 803f 0000 803f
000001c0: 0000 803f 0000 803f 0000 803f 0000 803f
000001d0: 0000 803f 0000 803f 0000 803f 0000 803f
000001e0: 0000 803f 0000 803f 0000 803f 0000 803f
000001f0: 0000 803f 0000 803f 0000 803f 0000 803f
00000200: 0000 803f 0000 803f 0000 803f 0000 803f
00000210: 0000 803f 0000 803f 0000 803f 0000 803f
00000220: 0000 803f 0000 803f 0000 803f 0000 803f
00000230: 0000 803f 0000 803f 0000 803f 0000 803f
00000240: 0000 803f 0000 803f 0000 803f 0000 803f
00000250: 0000 803f 0000 803f 0000 803f 0000 803f
00000260: 0000 803f 0000 803f 0000 803f 0000 803f
00000270: 0000 803f 0000 803f 0000 803f 0000 803f
00000280: 0000 803f 0000 803f 0000 803f 0000 803f
00000290: 0000 803f 0000 803f 0000 803f 0000 803f
000002a0: 0000 803f 0000 803f 0000 803f 0000 803f
000002b0: 0000 803f 0000 803f 0000 803f 0000 803f
000002c0: 0000 803f 0000 803f 0000 803f 0000 803f
000002d0: 0000 803f 0000 803f 0000 803f 0000 803f
000002e0: 0000 803f 0000 803f 0000 803f 0000 803f
000002f0: 0000 803f 0000 803f 0000 803f 0000 803f
00000300: 0000 803f 0000 803f 0000 803f 0000 803f
00000310: 0000 803f 0000 803f 0000 803f 0000 803f
00000320: 0000 803f 0000 803f 0000 803f 0000 803f
00000330: 0000 803f 0000 803f 0000 803f 0000 803f
00000340: 0000 803f 0000 803f 0000 803f 0000 803f
00000350: 0000 803f 0000 803f 0000 803f 0000 803f
00000360: 0000 803f 0000 803f 0000 803f 0000 803f
00000370: 0000 803f 0000 803f 0000 803f 0000 803f
00000380: 0000 803f 0000 803f 0000 803f 0000 803f
00000390: 0000 803f 0000 803f 0000 803f 0000 803f
000003a0: 0000 803f 0000 803f 0000 803f 0000 803f
000003b0: 0000 803f 0000 803f 0000 803f 0000 803f
000003c0: 0000 803f 0000 803f 0000 803f 0000 803f
000003d0: 0000 803f 0000 803f 0000 803f 0000 803f
000003e0: 0000 803f 0000 803f 0000 803f 0000 803f
000003f0: 0000 803f 0000 803f 0000 803f 0000 803f
1.0 1.0 1.0 1.0 1.0 1.0 1.0 1.0
1.0 1.0 1.0 1.0 1.0 1.0 1.0 1.0
1.0 1.0 1.0 1.0 1.0 1.0 1.0 1.0
1.0 1.0 1.0 1.0 1.0 1.0 1.0 1.0
1.0 1.0 1.0 1.0 1.0 1.0 1.0 1.0
1.0 1.0 1.0 1.0 1.0 1.0 1.0 1.0
1.0 1.0 1.0 1.0 1.0 1.0 1.0 1.0
1.0 1.0 1.0 1.0 1.0 1.0 1.0 1.0
1.0 1.0 1.0 1.0 1.0 1.0 1.0 1.0
1.0 1.0 1.0 1.0 1.0 1.0 1.0 1.0
1.0 1.0 1.0 1.0 1.0 1.0 1.0 1.0
1.0 1.0 1.0 1.0 1.0 1.0 1.0 1.0
1.0 1.0 1.0 1.0 1.0 1.0 1.0 1.0
1.0 1.0 1.0 1.0 1.0 1.0 1.0 1.0
1.0 1.0 1.0 1.0 1.0 1.0 1.0 1.0
1.0 1.0 1.0 1.0 1.0 1.0 1.0 1.0
1.0 1.0 1.0 1.0 1.0 1.0 1.0 1.0
1.0 1.0 1.0 1.0 1.0 1.0 1.0 1.0
1.0 1.0 1.0 1.0 1.0 1.0 1.0 1.0
1.0 1.0 1.0 1.0 1.0 1.0 1.0 1.0
1.0 1.0 1.0 1.0 1.0 1.0 1.0 1.0
1.0 1.0 1.0 1.0 1.0 1.0 1.0 1.0
1.0 1.0 1.0 1.0 1.0 1.0 1.0 1.0
1.0 1.0 1.0 1.0 1.0 1.0 1.0 1.0
1.0 1.0 1.0 1.0 1.0 1.0 1.0 1.0
1.0 1.0 1.0 1.0 1.0 1.0 1.0 1.0
1.0 1.0 1.0 1.0 1.0 1.0 1.0 1.0
1.0 1.0 1.0 1.0 1.0 1.0 1.0 1.0
1.0 1.0 1.0 1.0 1.0 1.0 1.0 1.0
1.0 1.0 1.0 1.0 1.0 1.0 1.0 1.0
1.0 1.0 1.0 1.0 1.0 1.0 1.0 1.0
1.0 1.0 1.0 1.0 1.0 1.0 1.0 1.0

model.hidden_0.dist_basal.w f4 [768]
00000000: 0000 803f 0000 803f 0000 803f 0000 803f
00000010: 0000 803f 0000 803f 0000 803f 0000 803f
00000020: 0000 803f 0000 803f 0000 803f 0000 803f
00000030: 0000 803f 0000 803f 0000 803f 0000 803f
00000040: 0000 803f 0000 803f 0000 803f 0000 803f
00000050: 0000 803f 0000 803f 0000 803f 0000 803f
00000060: 0000 803f 0000 803f 0000 803f 0000 803f
00000070: 0000 803f 0000 803f 0000 803f 0000 803f
00000080: 0000 803f 0000 803f 0000 803f 0000 803f
00000090: 0000 803f 0000 803f 0000 803f 0000 803f
000000a0: 0000 803f 0000 803f 0000 803f 0000 803f
000000b0: 0000 803f 0000 803f 0000 803f 0000 803f
000000c0: 0000 803f 0000 803f 0000 803f 0000 803f
000000d0: 0000 803f 0000 803f 0000 803f 0000 803f
000000e0: 0000 803f 0000 803f 0000 803f 0000 803f
000000f0: 0000 803f 0000 803f 0000 803f 0000 803f
00000100: 0000 803f 0000 803f 0000 803f 0000 803f
00000110: 0000 803f 0000 803f 0000 803f 0000 803f
00000120: 0000 803f 0000 803f 0000 803f 0000 803f
00000130: 0000 803f 0000 803f 0000 803f 0000 803f
00000140: 0000 803f 0000 803f 0000 803f 0000 803f
00000150: 0000 803f 0000 803f 0000 803f 0000 803f
00000160: 0000 803f 0000 803f 0000 803f 0000 803f
00000170: 0000 803f 0000 803f 0000 803f 0000 803f
00000180: 0000 803f 0000 803f 0000 803f 0000 803f
00000190: 0000 803f 0000 803f 0000 803f 0000 803f
000001a0: 0000 803f 0000 803f 0000 803f 0000 803f
000001b0: 0000 803f 0000 803f 0000 803f 0000 803f
000001c0: 0000 803f 0000 803f 0000 803f 0000 803f
000001d0: 0000 803f 0000 803f 0000 803f 0000 803f
000001e0: 0000 803f 0000 803f 0000 803f 0000 803f
000001f0: 0000 803f 0000 803f 0000 803f 0000 803f
00000200: 0000 803f 0000 803f 0000 803f 0000 803f
00000210: 0000 803f 0000 803f 0000 803f 0000 803f
00000220: 0000 803f 0000 803f 0000 803f 0000 803f
00000230: 0000 803f 0000 803f 0000 803f 0000 803f
00000240: 0000 803f 0000 803f 0000 803f 0000 803f
00000250: 0000 803f 0000 803f 0000 803f 0000 803f
00000260: 0000 803f 0000 803f 0000 803f 0000 803f
00000270: 0000 803f 0000 803f 0000 803f 0000 803f
00000280: 0000 803f 0000 803f 0000 803f 0000 803f
00000290: 0000 803f 0000 803f 0000 803f 0000 803f
000002a0: 0000 803f 0000 803f 0000 803f 0000 803f
000002b0: 0000 803f 0000 803f 0000 803f 0000 803f
000002c0: 0000 803f 0000 803f 0000 803f 0000 803f
000002d0: 0000 803f 0000 803f 0000 803f 0000 803f
000002e0: 0000 803f 0000 803f 0000 803f 0000 803f
000002f0: 0000 803f 0000 803f 0000 803f 0000 803f
00000300: 0000 803f 0000 803f 0000 803f 0000 803f
00000310: 0000 803f 0000 803f 0000 803f 0000 803f
00000320: 0000 803f 0000 803f 0000 803f 0000 803f
00000330: 0000 803f 0000 803f 0000 803f 0000 803f
00000340: 0000 803f 0000 803f 0000 803f 0000 803f
00000350: 0000 803f 0000 803f 0000 803f 0000 803f
00000360: 0000 803f 0000 803f 0000 803f 0000 803f
00000370: 0000 803f 0000 803f 0000 803f 0000 803f
00000380: 0000 803f 0000 803f 0000 803f 0000 803f
00000390: 0000 803f 0000 803f 0000 803f 0000 803f
000003a0: 0000 803f 0000 803f 0000 803f 0000 803f
000003b0: 0000 803f 0000 803f 0000 803f 0000 803f
000003c0: 0000 803f 0000 803f 0000 803f 0000 803f
000003d0: 0000 803f 0000 803f 0000 803f 0000 803f
000003e0: 0000 803f 0000 803f 0000 803f 0000 803f
000003f0: 0000 803f 0000 803f 0000 803f 0000 803f
1.0 1.0 1.0 1.0 1.0 1.0 1.0 1.0
1.0 1.0 1.0 1.0 1.0 1.0 1.0 1.0
1.0 1.0 1.0 1.0 1.0 1.0 1.0 1.0
1.0 1.0 1.0 1.0 1.0 1.0 1.0 1.0
1.0 1.0 1.0 1.0 1.0 1.0 1.0 1.0
1.0 1.0 1.0 1.0 1.0 1.0 1.0 1.0
1.0 1.0 1.0 1.0 1.0 1.0 1.0 1.0
1.0 1.0 1.0 1.0 1.0 1.0 1.0 1.0
1.0 1.0 1.0 1.0 1.0 1.0 1.0 1.0
1.0 1.0 1.0 1.0 1.0 1.0 1.0 1.0
1.0 1.0 1.0 1.0 1.0 1.0 1.0 1.0
1.0 1.0 1.0 1.0 1.0 1.0 1.0 1.0
1.0 1.0 1.0 1.0 1.0 1.0 1.0 1.0
1.0 1.0 1.0 1.0 1.0 1.0 1.0 1.0
1.0 1.0 1.0 1.0 1.0 1.0 1.0 1.0
1.0 1.0 1.0 1.0 1.0 1.0 1.0 1.0
1.0 1.0 1.0 1.0 1.0 1.0 1.0 1.0
1.0 1.0 1.0 1.0 1.0 1.0 1.0 1.0
1.0 1.0 1.0 1.0 1.0 1.0 1.0 1.0
1.0 1.0 1.0 1.0 1.0 1.0 1.0 1.0
1.0 1.0 1.0 1.0 1.0 1.0 1.0 1.0
1.0 1.0 1.0 1.0 1.0 1.0 1.0 1.0
1.0 1.0 1.0 1.0 1.0 1.0 1.0 1.0
1.0 1.0 1.0 1.0 1.0 1.0 1.0 1.0
1.0 1.0 1.0 1.0 1.0 1.0 1.0 1.0
1.0 1.0 1.0 1.0 1.0 1.0 1.0 1.0
1.0 1.0 1.0 1.0 1.0 1.0 1.0 1.0
1.0 1.0 1.0 1.0 1.0 1.0 1.0 1.0
1.0 1.0 1.0 1.0 1.0 1.0 1.0 1.0
1.0 1.0 1.0 1.0 1.0 1.0 1.0 1.0
1.0 1.0 1.0 1.0 1.0 1.0 1.0 1.0
1.0 1.0 1.0 1.0 1.0 1.0 1.0 1.0

model.hidden_0.apical.leaf_quad f4 [1, 64, 3, 6]
00000000: 0000 0000 0000 0000 0000 0000 0000 0000
00000010: 0000 0000 0000 0000 0000 0000 0000 0000
00000020: 0000 0000 0000 0000 0000 0000 0000 0000
00000030: 0000 0000 0000 0000 0000 0000 0000 0000
00000040: 0000 0000 0000 0000 0000 0000 0000 0000
00000050: 0000 0000 0000 0000 0000 0000 0000 0000
00000060: 0000 0000 0000 0000 0000 0000 0000 0000
00000070: 0000 0000 0000 0000 0000 0000 0000 0000
00000080: 0000 0000 0000 0000 0000 0000 0000 0000
00000090: 0000 0000 0000 0000 0000 0000 0000 0000
000000a0: 0000 0000 0000 0000 0000 0000 0000 0000
000000b0: 0000 0000 0000 0000 0000 0000 0000 0000
000000c0: 0000 0000 0000 0000 0000 0000 0000 0000
000000d0: 0000 0000 0000 0000 0000 0000 0000 0000
000000e0: 0000 0000 0000 0000 0000 0000 0000 0000
000000f0: 0000 0000 0000 0000 0000 0000 0000 0000
00000100: 0000 0000 0000 0000 0000 0000 0000 0000
00000110: 0000 0000 0000 0000 0000 0000 0000 0000
00000120: 0000 0000 0000 0000 0000 0000 0000 0000
00000130: 0000 0000 0000 0000 0000 0000 0000 0000
00000140: 0000 0000 0000 0000 0000 0000 0000 0000
00000150: 0000 0000 0000 0000 0000 0000 0000 0000
00000160: 0000 0000 0000 0000 0000 0000 0000 0000
00000170: 0000 0000 0000 0000 0000 0000 0000 0000
00000180: 0000 0000 0000 0000 0000 0000 0000 0000
00000190: 0000 0000 0000 0000 0000 0000 0000 0000
000001a0: 0000 0000 0000 0000 0000 0000 0000 0000
000001b0: 0000 0000 0000 0000 0000 0000 0000 0000
000001c0: 0000 0000 0000 0000 0000 0000 0000 0000
000001d0: 0000 0000 0000 0000 0000 0000 0000 0000
000001e0: 0000 0000 0000 0000 0000 0000 0000 0000
000001f0: 0000 0000 0000 0000 0000 0000 0000 0000
00000200: 0000 0000 0000 0000 0000 0000 0000 0000
00000210: 0000 0000 0000 0000 0000 0000 0000 0000
00000220: 0000 0000 0000 0000 0000 0000 0000 0000
00000230: 0000 0000 0000 0000 0000 0000 0000 0000
00000240: 0000 0000 0000 0000 0000 0000 0000 0000
00000250: 0000 0000 0000 0000 0000 0000 0000 0000
00000260: 0000 0000 0000 0000 0000 0000 0000 0000
00000270: 0000 0000 0000 0000 0000 0000 0000 0000
00000280: 0000 0000 0000 0000 0000 0000 0000 0000
00000290: 0000 0000 0000 0000 0000 0000 0000 0000
000002a0: 0000 0000 0000 0000 0000 0000 0000 0000
000002b0: 0000 0000 0000 0000 0000 0000 0000 0000
000002c0: 0000 0000 0000 0000 0000 0000 0000 0000
000002d0: 0000 0000 0000 0000 0000 0000 0000 0000
000002e0: 0000 0000 0000 0000 0000 0000 0000 0000
000002f0: 0000 0000 0000 0000 0000 0000 0000 0000
00000300: 0000 0000 0000 0000 0000 0000 0000 0000
00000310: 0000 0000 0000 0000 0000 0000 0000 0000
00000320: 0000 0000 0000 0000 0000 0000 0000 0000
00000330: 0000 0000 0000 0000 0000 0000 0000 0000
00000340: 0000 0000 0000 0000 0000 0000 0000 0000
00000350: 0000 0000 0000 0000 0000 0000 0000 0000
00000360: 0000 0000 0000 0000 0000 0000 0000 0000
00000370: 0000 0000 0000 0000 0000 0000 0000 0000
00000380: 0000 0000 0000 0000 0000 0000 0000 0000
00000390: 0000 0000 0000 0000 0000 0000 0000 0000
000003a0: 0000 0000 0000 0000 0000 0000 0000 0000
000003b0: 0000 0000 0000 0000 0000 0000 0000 0000
000003c0: 0000 0000 0000 0000 0000 0000 0000 0000
000003d0: 0000 0000 0000 0000 0000 0000 0000 0000
000003e0: 0000 0000 0000 0000 0000 0000 0000 0000
000003f0: 0000 0000 0000 0000 0000 0000 0000 0000
0.0 0.0 0.0 0.0 0.0 0.0 0.0 0.0
0.0 0.0 0.0 0.0 0.0 0.0 0.0 0.0
0.0 0.0 0.0 0.0 0.0 0.0 0.0 0.0
0.0 0.0 0.0 0.0 0.0 0.0 0.0 0.0
0.0 0.0 0.0 0.0 0.0 0.0 0.0 0.0
0.0 0.0 0.0 0.0 0.0 0.0 0.0 0.0
0.0 0.0 0.0 0.0 0.0 0.0 0.0 0.0
0.0 0.0 0.0 0.0 0.0 0.0 0.0 0.0
0.0 0.0 0.0 0.0 0.0 0.0 0.0 0.0
0.0 0.0 0.0 0.0 0.0 0.0 0.0 0.0
0.0 0.0 0.0 0.0 0.0 0.0 0.0 0.0
0.0 0.0 0.0 0.0 0.0 0.0 0.0 0.0
0.0 0.0 0.0 0.0 0.0 0.0 0.0 0.0
0.0 0.0 0.0 0.0 0.0 0.0 0.0 0.0
0.0 0.0 0.0 0.0 0.0 0.0 0.0 0.0
0.0 0.0 0.0 0.0 0.0 0.0 0.0 0.0
0.0 0.0 0.0 0.0 0.0 0.0 0.0 0.0
0.0 0.0 0.0 0.0 0.0 0.0 0.0 0.0
0.0 0.0 0.0 0.0 0.0 0.0 0.0 0.0
0.0 0.0 0.0 0.0 0.0 0.0 0.0 0.0
0.0 0.0 0.0 0.0 0.0 0.0 0.0 0.0
0.0 0.0 0.0 0.0 0.0 0.0 0.0 0.0
0.0 0.0 0.0 0.0 0.0 0.0 0.0 0.0
0.0 0.0 0.0 0.0 0.0 0.0 0.0 0.0
0.0 0.0 0.0 0.0 0.0 0.0 0.0 0.0
0.0 0.0 0.0 0.0 0.0 0.0 0.0 0.0
0.0 0.0 0.0 0.0 0.0 0.0 0.0 0.0
0.0 0.0 0.0 0.0 0.0 0.0 0.0 0.0
0.0 0.0 0.0 0.0 0.0 0.0 0.0 0.0
0.0 0.0 0.0 0.0 0.0 0.0 0.0 0.0
0.0 0.0 0.0 0.0 0.0 0.0 0.0 0.0
0.0 0.0 0.0 0.0 0.0 0.0 0.0 0.0

model.hidden_0.apical.w41 f4 [1, 64, 1, 1]
00000000: 0000 803f 0000 803f 0000 803f 0000 803f
00000010: 0000 803f 0000 803f 0000 803f 0000 803f
00000020: 0000 803f 0000 803f 0000 803f 0000 803f
00000030: 0000 803f 0000 803f 0000 803f 0000 803f
00000040: 0000 803f 0000 803f 0000 803f 0000 803f
00000050: 0000 803f 0000 803f 0000 803f 0000 803f
00000060: 0000 803f 0000 803f 0000 803f 0000 803f
00000070: 0000 803f 0000 803f 0000 803f 0000 803f
00000080: 0000 803f 0000 803f 0000 803f 0000 803f
00000090: 0000 803f 0000 803f 0000 803f 0000 803f
000000a0: 0000 803f 0000 803f 0000 803f 0000 803f
000000b0: 0000 803f 0000 803f 0000 803f 0000 803f
000000c0: 0000 803f 0000 803f 0000 803f 0000 803f
000000d0: 0000 803f 0000 803f 0000 803f 0000 803f
000000e0: 0000 803f 0000 803f 0000 803f 0000 803f
000000f0: 0000 803f 0000 803f 0000 803f 0000 803f
1.0 1.0 1.0 1.0 1.0 1.0 1.0 1.0
1.0 1.0 1.0 1.0 1.0 1.0 1.0 1.0
1.0 1.0 1.0 1.0 1.0 1.0 1.0 1.0
1.0 1.0 1.0 1.0 1.0 1.0 1.0 1.0
1.0 1.0 1.0 1.0 1.0 1.0 1.0 1.0
1.0 1.0 1.0 1.0 1.0 1.0 1.0 1.0
1.0 1.0 1.0 1.0 1.0 1.0 1.0 1.0
1.0 1.0 1.0 1.0 1.0 1.0 1.0 1.0

model.hidden_0.apical.w42 f4 [1, 64, 1, 1]
00000000: 0000 803f 0000 803f 0000 803f 0000 803f
00000010: 0000 803f 0000 803f 0000 803f 0000 803f
00000020: 0000 803f 0000 803f 0000 803f 0000 803f
00000030: 0000 803f 0000 803f 0000 803f 0000 803f
00000040: 0000 803f 0000 803f 0000 803f 0000 803f
00000050: 0000 803f 0000 803f 0000 803f 0000 803f
00000060: 0000 803f 0000 803f 0000 803f 0000 803f
00000070: 0000 803f 0000 803f 0000 803f 0000 803f
00000080: 0000 803f 0000 803f 0000 803f 0000 803f
00000090: 0000 803f 0000 803f 0000 803f 0000 803f
000000a0: 0000 803f 0000 803f 0000 803f 0000 803f
000000b0: 0000 803f 0000 803f 0000 803f 0000 803f
000000c0: 0000 803f 0000 803f 0000 803f 0000 803f
000000d0: 0000 803f 0000 803f 0000 803f 0000 803f
000000e0: 0000 803f 0000 803f 0000 803f 0000 803f
000000f0: 0000 803f 0000 803f 0000 803f 0000 803f
1.0 1.0 1.0 1.0 1.0 1.0 1.0 1.0
1.0 1.0 1.0 1.0 1.0 1.0 1.0 1.0
1.0 1.0 1.0 1.0 1.0 1.0 1.0 1.0
1.0 1.0 1.0 1.0 1.0 1.0 1.0 1.0
1.0 1.0 1.0 1.0 1.0 1.0 1.0 1.0
1.0 1.0 1.0 1.0 1.0 1.0 1.0 1.0
1.0 1.0 1.0 1.0 1.0 1.0 1.0 1.0
1.0 1.0 1.0 1.0 1.0 1.0 1.0 1.0

model.hidden_0.apical.ws4 f4 [1, 64, 1, 1]
00000000: 0000 803f 0000 803f 0000 803f 0000 803f
00000010: 0000 803f 0000 803f 0000 803f 0000 803f
00000020: 0000 803f 0000 803f 0000 803f 0000 803f
00000030: 0000 803f 0000 803f 0000 803f 0000 803f
00000040: 0000 803f 0000 803f 0000 803f 0000 803f
00000050: 0000 803f 0000 803f 0000 803f 0000 803f
00000060: 0000 803f 0000 803f 0000 803f 0000 803f
00000070: 0000 803f 0000 803f 0000 803f 0000 803f
00000080: 0000 803f 0000 803f 0000 803f 0000 803f
00000090: 0000 803f 0000 803f 0000 803f 0000 803f
000000a0: 0000 803f 0000 803f 0000 803f 0000 803f
000000b0: 0000 803f 0000 803f 0000 803f 0000 803f
000000c0: 0000 803f 0000 803f 0000 803f 0000 803f
000000d0: 0000 803f 0000 803f 0000 803f 0000 803f
000000e0: 0000 803f 0000 803f 0000 803f 0000 803f
000000f0: 0000 803f 0000 803f 0000 803f 0000 803f
1.0 1.0 1.0 1.0 1.0 1.0 1.0 1.0
1.0 1.0 1.0 1.0 1.0 1.0 1.0 1.0
1.0 1.0 1.0 1.0 1.0 1.0 1.0 1.0
1.0 1.0 1.0 1.0 1.0 1.0 1.0 1.0
1.0 1.0 1.0 1.0 1.0 1.0 1.0 1.0
1.0 1.0 1.0 1.0 1.0 1.0 1.0 1.0
1.0 1.0 1.0 1.0 1.0 1.0 1.0 1.0
1.0 1.0 1.0 1.0 1.0 1.0 1.0 1.0
